raspberry_pi/models/gunshot_sound_model.tflite (tflite, 333480 bytes, 22 tensors)

conv1d/conv1d/Conv2D_bias f4 [16]
00000000: 9912 6dbb bbc4 f1bd c165 d23c bd42 a53b
00000010: 3efa 84bb b452 a9bc 77a2 80be 486c 863c
00000020: e224 223c e09c 7b3c bb6a b73a 05d2 16bc
00000030: b90a ecbd df3b b4ba 115c b7bd 25e3 63bc
-0.0036174415 -0.118051015 0.025683286 0.005043356 -0.0040581515 -0.020669319 -0.2512395 0.016409054
0.009896489 0.015357226 0.00139936 -0.009205346 -0.11525483 -0.0013750753 -0.08953107 -0.013909136

conv1d/conv1d/ExpandDims_1 f4 [1, 1, 9, 16]
00000000: a2f8 89bd 7e87 63be 8536 0b3f 4114 783e
00000010: 944e 203a 3410 653d add6 da3d d6b1 a83e
00000020: 1446 11bf f025 11bf 8847 dabe 9de6 933e
00000030: a464 37be 1ca3 2bbf ff55 ba3d 5bd9 2b3e
00000040: d4bd 053f 7186 febe 361f a93e 60f1 85be
00000050: dec2 cabd e288 883c ca1d febd a743 97be
00000060: 2728 463f 5aad 15bf 446d 67bf df6e 353e
00000070: e353 0a3e d849 0e3f 131d 1f3e e96d 603c
00000080: 95e2 18bf 0a3a 2dbe e572 503f 29a7 023f
00000090: 8ae3 f13e be15 01bf 20cc 343f bb33 d93e
000000a0: c990 2a3f bb42 00bf a6e0 12bf 9124 9bbe
000000b0: 2c25 cf3d aad2 20be bbff 843e abfe dbbe
000000c0: b8aa 18bf a0ed 213f 7fa6 e23e e72e ab3e
000000d0: eca0 28bf 597f 323d 5756 733e f401 dc3e
000000e0: 1a84 d9be 6bf0 27bf 7ca1 423d 7f67 363e
000000f0: cd1e 37be a565 0ebf 120f 493c 4faa 19bf
00000100: d736 903e bc28 19be 4461 493f f4a8 b8be
00000110: 06ee 3bbf 6cf5 013f 4a41 023e d799 b53e
00000120: bd68 bdbe 2c20 c2be 97d5 ae3d e292 06bf
00000130: 37d8 0e3e dc05 203f 401f 913c 96e2 2f3f
00000140: 536a 913d 3f00 59be 340c af3d d909 10bf
00000150: 589e 0a3f f4f0 a4be 240e 843d fe57 5bbf
00000160: a30a 84bd 212e 8cbe feea 113f 6fb1 0f3e
00000170: 9f40 313e 53ab 3bbe db81 94be e1a7 863e
00000180: d5b1 973e c8e5 a0bc a559 383f e278 de3d
00000190: 6570 7b3e 5145 513e 9ca9 963e 9c5a 42be
000001a0: de32 77be c60c a6be 4dd9 363c e876 c5be
000001b0: 1fb4 bbbe edda 2cbf bac2 393f 60e4 073f
000001c0: 32ab 3e3e 468c 133d 3009 86be 0d39 84be
000001d0: e1ba 053f c422 03be 6940 7cbc 7db4 0d3e
000001e0: 1f6c 81bd 4c9c 1ebf 1b9e b7bc 1b16 b6bd
000001f0: 2541 923d a02b 463f f265 873e ba60 81be
00000200: 58a3 583f 4a2f c33e 7c74 b43e c4af 93bd
00000210: 6391 ef3c 5703 b7be ceb1 b03e 5abb 17be
00000220: 7974 323f cdb9 35bf 5437 b8be 31fe f63e
00000230: f01f c53d 4a28 dbbe 83e0 d5be 025b 8abd
-0.06736876 -0.22219655 0.54380065 0.24226476 0.00061152247 0.055923656 0.106854774 0.32948178
-0.56747556 -0.56698513 -0.426327 0.2888688 -0.17909485 -0.6704576 0.09098434 0.16782133
0.5224278 -0.49711946 0.33031625 -0.26160717 -0.09900449 0.016666833 -0.124080256 -0.29543802
0.7740502 -0.5846764 -0.904011 0.17718075 0.13508563 0.55581427 0.15538435 0.01369808
-0.59720737 -0.16916671 0.81425315 0.51036316 0.4724391 -0.504238 0.7062397 0.4242228
0.66627175 -0.5010182 -0.57374036 -0.30301335 0.10114512 -0.15705362 0.25976357 -0.42967734
-0.59635496 0.6325321 0.4426765 0.3343422 -0.6587055 0.04357848 0.23763405 0.4297024
-0.42483598 -0.65601224 0.047517285 0.17812918 -0.17882843 -0.5562385 0.012271659 -0.60025495
0.2816684 -0.14956945 0.7866404 -0.360664 -0.7341007 0.5076511 0.12720218 0.35468933
-0.3699397 -0.3791517 0.08536833 -0.52567875 0.13949667 0.6250894 0.017715096 0.6870512
0.07100358 -0.211915 0.085472494 -0.56265026 0.54147863 -0.32215083 0.064480096 -0.8568114
-0.06447341 -0.27378944 0.56999195 0.1403253 0.17309807 -0.18327074 -0.29005322 0.26299956
0.29627863 -0.019640818 0.72011787 0.108629 0.24554594 0.20436598 0.29426277 -0.18979877
-0.24140498 -0.3243162 0.011160207 -0.3856728 -0.3666086 -0.67521554 0.72562754 0.5308285
0.18619993 0.036022447 -0.26178885 -0.25824776 0.5223828 -0.12806231 -0.015396216 0.13838382
-0.063194506 -0.6195724 -0.022414258 -0.08890935 0.071413316 0.77410316 0.26444966 -0.2526911
0.8462424 0.38122016 0.3524512 -0.07211259 0.02924413 -0.35744736 0.34510654 -0.14817563
0.69708973 -0.70986634 -0.35979712 0.48240808 0.09625232 -0.42804176 -0.4177285 -0.067556396

conv1d_1/conv1d/Conv2D_bias f4 [16]
00000000: 1175 683d 9cc1 81bc 5745 023d fe3e 1f3d
00000010: 4c5c 13bd f053 1c3c 0dc5 7dbc aeff 193d
00000020: 5051 953c e520 cdbe 7600 453d 2cfa bf3c
00000030: 56f6 e3bb 05dc 8d3d 774a 10bd 6020 403c
0.05675227 -0.01583939 0.03180441 0.038878433 -0.035976693 0.009541497 -0.015488875 0.03759735
0.01822725 -0.4006416 0.048096143 0.023434721 -0.0069568558 0.06926731 -0.035227265 0.011726469

conv1d_1/conv1d/ExpandDims_1 u1 [16, 1, 9, 16] scale=0.008228343 zero_point=0
00000000: bde8 d204 1bd8 1115 fc1e 14de 091c e1f8
00000010: 2fe6 fef7 eb0a dfee 31dc f113 061c 0514
00000020: d918 c703 031f fb16 b2e5 20e7 f20b 0111
00000030: f91b 0d00 d500 05ed 060c eabc f6d9 bef0
00000040: 0fd8 dfdf ffc7 ffc0 14e2 fd22 03f0 f7e1
00000050: 0a03 eff1 d6d3 ea2d d7d2 ba15 f621 c9ee
00000060: f6c0 e70c f301 0b0d fdde f5ef 09bc 18d1
00000070: edf7 fefe 29ed 1112 fd07 01e0 f4f3 12ee
00000080: 22dc e8d3 a0f3 20e6 0a01 e7e1 1238 cd1b
00000090: ebec 051e 08fb f4e9 01aa bc0c 04e9 e2d9
000000a0: 1201 12b8 010e e1ac 3fb0 c7bf ea0a d018
000000b0: 1b04 0c07 b6e0 ed26 c99e e1ec f1d2 ecd0
000000c0: d4cf ff21 04e3 061f c9bb 10ee 06e9 e9ac
000000d0: 0c05 10d8 1ccb 02cb 2a95 e5ce f2ff 03f3
000000e0: 1a28 f5c7 f5ce e7fa e5cc dff2 f7ff edfc
000000f0: eaf7 1530 e6e8 0832 cbbc e4ee 45fe f511
1.5551568 1.9089756 1.727952 0.032913372 0.22216526 1.777322 0.13988183 0.1727952
2.0735424 0.24685028 0.16456686 1.8266921 0.07405509 0.2303936 1.8513771 2.0406291
0.38673213 1.8925189 2.0899992 2.0324006 1.9336606 0.08228343 1.8349205 1.9583457
0.4031888 1.8102355 1.9830307 0.15633851 0.049370058 0.2303936 0.041141715 0.16456686
1.7855505 0.19748023 1.6374402 0.024685029 0.024685029 0.25507864 2.065314 0.18102354
1.464645 1.8842906 0.26330698 1.9007472 1.991259 0.09051177 0.008228343 0.13988183
2.0488575 0.22216526 0.10696846 0.0 1.752637 0.0 0.041141715 1.9501172
0.049370058 0.098740116 1.9254322 1.5469285 2.0241723 1.7855505 1.5633851 1.9748023
0.12342514 1.777322 1.8349205 1.8349205 2.0982275 1.6374402 2.0982275 1.5798419
0.16456686 1.8596056 2.0817707 0.27976367 0.024685029 1.9748023 2.0324006 1.8513771
0.08228343 0.024685029 1.966574 1.9830307 1.7608654 1.7361804 1.9254322 0.37027544
1.7690938 1.727952 1.5304718 0.1727952 2.0241723 0.2715353 1.6538969 1.9583457
2.0241723 1.5798419 1.9007472 0.098740116 1.9994874 0.008228343 0.09051177 0.10696846
2.0817707 1.8266921 2.015944 1.966574 0.07405509 1.5469285 0.19748023 1.7197237
1.9501172 2.0324006 2.0899992 2.0899992 0.33736205 1.9501172 0.13988183 0.14811018
2.0817707 0.0575984 0.008228343 1.8431488 2.0077157 1.9994874 0.14811018 1.9583457
0.27976367 1.8102355 1.9089756 1.7361804 1.3165349 1.9994874 0.26330698 1.8925189
0.08228343 0.008228343 1.9007472 1.8513771 0.14811018 0.4607872 1.6868103 0.22216526
1.9336606 1.9418889 0.041141715 0.24685028 0.065826744 2.065314 2.0077157 1.9172039
0.008228343 1.3988183 1.5469285 0.098740116 0.032913372 1.9172039 1.8596056 1.7855505
0.14811018 0.008228343 0.14811018 1.5140151 0.008228343 0.1151968 1.8513771 1.415275
0.5183856 1.4481883 1.6374402 1.5716136 1.9254322 0.08228343 1.7114954 0.19748023
0.22216526 0.032913372 0.098740116 0.0575984 1.4975585 1.8431488 1.9501172 0.31267703
1.6538969 1.3000782 1.8513771 1.9418889 1.9830307 1.727952 1.9418889 1.7114954
1.7444087 1.703267 2.0982275 0.2715353 0.032913372 1.8678339 0.049370058 0.25507864
1.6538969 1.5387001 0.13165349 1.9583457 0.049370058 1.9172039 1.9172039 1.415275
0.098740116 0.041141715 0.13165349 1.777322 0.2303936 1.6703537 0.016456686 1.6703537
0.3455904 1.2260231 1.8842906 1.6950387 1.991259 2.0982275 0.024685029 1.9994874
0.21393692 0.32913372 2.015944 1.6374402 2.015944 1.6950387 1.9007472 2.0570858
1.8842906 1.678582 1.8349205 1.991259 2.0324006 2.0982275 1.9501172 2.0735424
1.9254322 2.0324006 0.1727952 0.39496046 1.8925189 1.9089756 0.065826744 0.41141716
1.6703537 1.5469285 1.8760622 1.9583457 0.56775564 2.0899992 2.015944 0.13988183

conv1d_2/conv1d/Conv2D_bias f4 [32]
00000000: 9142 f93d ba48 f0bb 78c3 6d3c 8cbe a43d
00000010: 4e2e 3fbe 6938 e5be 81b8 8dbd cf75 fdbd
00000020: 8924 2abe a27d aabc 7eb0 223d 523f b73d
00000030: a417 f6be 622e 833d f824 923d 72f9 273d
00000040: 9c51 7d3d 0dba 8ebd dc3b 34be c0bf 28bd
00000050: e0f1 bfbe b94b 12be f268 9bbe 02bc d2bc
00000060: 6db3 493d 73f0 273e 8dc8 753c b601 53bd
00000070: 5021 583d c6c9 fe3a 0063 d53d 3860 12be
0.121709 -0.0073328884 0.014511935 0.080441564 -0.18670008 -0.447696 -0.06919957 -0.12375986
-0.166155 -0.02081186 0.039719097 0.08947624 -0.4806491 0.06405331 0.071359575 0.041009374
0.061845407 -0.0696908 -0.1760096 -0.041198492 -0.37489223 -0.14286698 -0.30353504 -0.025724415
0.04924338 0.16400318 0.015001428 -0.051515304 0.052766144 0.0019438795 0.104192734 -0.14294517

conv1d_2/conv1d/ExpandDims_1 u1 [32, 1, 3, 16] scale=0.008971796 zero_point=0
00000000: fdc9 c11e f4ea 0be4 d9ca 1112 10f2 f5ef
00000010: 29d4 d0f8 07d6 1dd3 d1ca 0511 0bfc f5f6
00000020: 26cb c603 fee6 0ced d5d3 26fb fdfe 02f1
00000030: 181a d4fe 09ff 1bd9 e30c f211 cf18 f2f9
00000040: f51a f7fe 1801 f3eb f02f fcd7 2a03 0d08
00000050: fdfd dd10 fb09 e7d5 cd29 fe04 1907 1201
00000060: 0bf7 0d18 0d2c ff0b 1ce9 1610 3ef2 fddf
00000070: f322 dafc 0ae9 03e2 d9e8 f4d7 ca11 f818
00000080: f9e2 03d1 f2fd ecfd 04d6 f6f9 09f7 0801
00000090: e614 e815 0105 f8de d423 15f4 d3f1 ed09
000000a0: bcfa e805 04fb edf3 dcf3 fce1 ffff 14e9
000000b0: d500 f220 100e ecf4 f2fa 2f26 2515 f545
000000c0: c4f9 02ea 170d 02f0 ebe1 1ae3 0713 ff16
000000d0: de00 0c1f fdf9 fe08 08fe 1119 e61e ee0c
000000e0: fe1d dd1a ee0e eee5 e71b 06ed 1222 f00c
000000f0: b11d 1c1c 0709 bc20 fc0e fb01 0c22 f501
2.2698646 1.803331 1.7315567 0.2691539 2.1891184 2.0994003 0.09868976 2.0455697
1.9468799 1.8123028 0.15252054 0.16149233 0.14354874 2.1711748 2.19809 2.1442592
0.36784366 1.9020208 1.8661337 2.2250054 0.062802576 1.9199644 0.26018208 1.893049
1.8751055 1.8123028 0.04485898 0.15252054 0.09868976 2.2608926 2.19809 2.207062
0.34092826 1.8212746 1.7764157 0.02691539 2.2788363 2.0635133 0.10766156 2.1263158
1.9109926 1.893049 0.34092826 2.251921 2.2698646 2.2788363 0.017943593 2.1622028
0.21532312 0.23326671 1.9020208 2.2788363 0.08074617 2.2878082 0.2422385 1.9468799
2.0365977 0.10766156 2.1711748 0.15252054 1.8571619 0.21532312 2.1711748 2.2339773
2.19809 0.23326671 2.2160337 2.2788363 0.21532312 0.008971796 2.1801465 2.1083722
2.1532311 0.42167443 2.2608926 1.9289362 0.37681544 0.02691539 0.116633356 0.07177437
2.2698646 2.2698646 1.982767 0.14354874 2.251921 0.08074617 2.072485 1.9109926
1.8392183 0.36784366 2.2788363 0.035887185 0.22429492 0.062802576 0.16149233 0.008971796
0.09868976 2.2160337 0.116633356 0.21532312 0.116633356 0.39475903 2.2878082 0.09868976
0.2512103 2.0904286 0.19737951 0.14354874 0.55625135 2.1711748 2.2698646 2.0007105
2.1801465 0.30504107 1.9558516 2.2608926 0.08971796 2.0904286 0.02691539 2.027626
1.9468799 2.0814567 2.1891184 1.9289362 1.8123028 0.15252054 2.2250054 0.21532312
2.2339773 2.027626 0.02691539 1.8751055 2.1711748 2.2698646 2.117344 2.2698646
0.035887185 1.9199644 2.207062 2.2339773 0.08074617 2.2160337 0.07177437 0.008971796
2.0635133 0.17943592 2.0814567 0.18840772 0.008971796 0.04485898 2.2250054 1.9917388
1.9020208 0.31401289 0.18840772 2.1891184 1.893049 2.1622028 2.1263158 0.08074617
1.6866977 2.242949 2.0814567 0.04485898 0.035887185 2.251921 2.1263158 2.1801465
1.9737952 2.1801465 2.2608926 2.018654 2.2878082 2.2878082 0.17943592 2.0904286
1.9109926 0.0 2.1711748 0.28709748 0.14354874 0.12560515 2.117344 2.1891184
2.1711748 2.242949 0.42167443 0.34092826 0.33195648 0.18840772 2.19809 0.61905396
1.7584721 2.2339773 0.017943593 2.0994003 0.20635131 0.116633356 0.017943593 2.1532311
2.1083722 2.018654 0.23326671 2.0365977 0.062802576 0.17046413 2.2878082 0.19737951
1.9917388 0.0 0.10766156 0.27812567 2.2698646 2.2339773 2.2788363 0.07177437
0.07177437 2.2788363 0.15252054 0.22429492 2.0635133 0.2691539 2.1352875 0.10766156
2.2788363 0.26018208 1.982767 0.23326671 2.1352875 0.12560515 2.1352875 2.0545413
2.072485 0.2422385 0.05383078 2.1263158 0.16149233 0.30504107 2.1532311 0.10766156
1.5880079 0.26018208 0.2512103 0.2512103 0.062802576 0.08074617 1.6866977 0.28709748
2.2608926 0.12560515 2.251921 0.008971796 0.10766156 0.30504107 2.19809 0.008971796

conv1d_3/conv1d/Conv2D_bias f4 [32]
00000000: aa11 83bd 4e51 9b3d 3201 773c 778b 7cbe
00000010: 5793 103d 30bb 903d 191b c8bd de1d a9bd
00000020: 25e7 f8bb 01de b33d 2b5b 363d 4285 c8bc
00000030: 1f8e 3b3d 4bff 20bd 4717 e6bc aea0 3d3c
00000040: 644c 8dbc 31a3 bcbc edc2 83be 3cb7 d23c
00000050: 3c5a 8d3c a04d efbc 6c51 50bd ffb2 0dbe
00000060: c0b6 f63b ee9c 50bd 9be3 72bd 76a0 f5bc
00000070: 4bdc dc3d 39f4 2b3d 9d38 123c fc97 ed3c
-0.063998535 0.07583867 0.015075969 -0.24662577 0.035296764 0.07066953 -0.097707935 -0.0825765
-0.007595914 0.08782578 0.04452054 -0.024477605 0.045789834 -0.039305966 -0.028087271 0.011573954
-0.01724834 -0.023027034 -0.25734654 0.025722139 0.017254941 -0.02921182 -0.0508589 -0.13837813
0.0075291097 -0.05093091 -0.059299093 -0.02998374 0.10784205 0.041980956 0.0089246305 0.029003136

conv1d_3/conv1d/ExpandDims_1 u1 [32, 1, 3, 32] scale=0.009004458 zero_point=0
00000000: e310 0a06 07d9 1ddc ebef 04e9 d7fe ff1a
00000010: 1315 e4e9 0413 fc00 feda f4ea f3fa f708
00000020: cd15 e901 ee0c 0aeb e80e 011b 19f4 00f6
00000030: 2925 d8c0 fce1 0af0 0ed5 1ef0 cd02 1107
00000040: fe02 1e15 e5e1 03d8 f903 de01 ee0b adf2
00000050: ede5 00c7 efe6 e415 fbcb 03dd d5f1 08f2
00000060: e1ee f906 02b8 f5d9 11fb 2cbd f9d7 0de5
00000070: 23eb f5d6 cfe9 fdf2 04ff 06c4 d2ed 81e9
00000080: f70d ecf8 04f2 1723 1514 eadb 1b0b d0da
00000090: efeb ea17 1516 0bef ddd5 f1e8 c3f9 f702
000000a0: ca24 ddf2 1316 08eb 1a2d 090c 02f6 dcd7
000000b0: eb15 e419 f310 12ed 01db e002 eaf3 e413
000000c0: 02c3 e1bd f6f9 cb11 d120 13c9 01c7 21f2
000000d0: eee9 0213 bf01 fddd 031e 1d13 fe1e e1ef
000000e0: 150f edc9 01ff ae14 fb1d 14e1 eef2 f800
000000f0: 1103 0e04 bb11 f2f4 0be8 1826 fdfa f4e5
2.0440118 0.14407133 0.09004458 0.054026745 0.063031204 1.9539673 0.2611293 1.9809808
2.1160476 2.1520655 0.03601783 2.0980387 1.9359584 2.2871323 2.2961369 0.2341159
0.1710847 0.18909362 2.0530164 2.0980387 0.03601783 0.1710847 2.2691233 0.0
2.2871323 1.9629718 2.1970878 2.107043 2.1880832 2.2511144 2.224101 0.07203566
1.8459139 0.18909362 2.0980387 0.009004458 2.143061 0.10805349 0.09004458 2.1160476
2.0890343 0.12606241 0.009004458 0.24312036 0.22511144 2.1970878 0.0 2.2150967
0.36918277 0.33316493 1.9449629 1.7288558 2.2691233 2.0260031 0.09004458 2.1610699
0.12606241 1.9179496 0.27013373 2.1610699 1.8459139 0.018008916 0.15307578 0.063031204
2.2871323 0.018008916 0.27013373 0.18909362 2.0620208 2.0260031 0.027013373 1.9449629
2.24211 0.027013373 1.9989897 0.009004458 2.143061 0.09904904 1.5577712 2.1790788
2.1340566 2.0620208 0.0 1.7918872 2.1520655 2.0710254 2.0530164 0.18909362
2.260119 1.8279049 0.027013373 1.9899852 1.9179496 2.1700742 0.07203566 2.1790788
2.0260031 2.143061 2.24211 0.054026745 0.018008916 1.6568203 2.2060921 1.9539673
0.15307578 2.260119 0.39619616 1.7018425 2.24211 1.9359584 0.11705795 2.0620208
0.315156 2.1160476 2.2060921 1.926954 1.8639228 2.0980387 2.278128 2.1790788
0.03601783 2.2961369 0.054026745 1.7648737 1.8909361 2.1340566 1.1615751 2.0980387
2.224101 0.11705795 2.125052 2.2331057 0.03601783 2.1790788 0.20710254 0.315156
0.18909362 0.18008916 2.107043 1.9719763 0.24312036 0.09904904 1.8729272 1.9629718
2.1520655 2.1160476 2.107043 0.20710254 0.18909362 0.19809808 0.09904904 2.1520655
1.9899852 1.9179496 2.1700742 2.0890343 1.7558693 2.24211 2.224101 0.018008916
1.8189005 0.3241605 1.9899852 2.1790788 0.1710847 0.19809808 0.07203566 2.1160476
0.2341159 0.4052006 0.08104012 0.10805349 0.018008916 2.2150967 1.9809808 1.9359584
2.1160476 0.18909362 2.0530164 0.22511144 2.1880832 0.14407133 0.16208024 2.1340566
0.009004458 1.9719763 2.0169985 0.018008916 2.107043 2.1880832 2.0530164 0.1710847
0.018008916 1.7558693 2.0260031 1.7018425 2.2150967 2.24211 1.8279049 0.15307578
1.8819317 0.28814265 0.1710847 1.809896 0.009004458 1.7918872 0.2971471 2.1790788
2.143061 2.0980387 0.018008916 0.1710847 1.7198515 0.009004458 2.278128 1.9899852
0.027013373 0.27013373 0.2611293 0.1710847 2.2871323 0.27013373 2.0260031 2.1520655
0.18909362 0.13506687 2.1340566 1.809896 0.009004458 2.2961369 1.5667757 0.18008916
2.260119 0.2611293 0.18008916 2.0260031 2.143061 2.1790788 2.2331057 0.0
0.15307578 0.027013373 0.12606241 0.03601783 1.6838336 0.15307578 2.1790788 2.1970878
0.09904904 2.0890343 0.21610698 0.3421694 2.278128 2.2511144 2.1970878 2.0620208

conv1d_4/conv1d/Conv2D_bias f4 [32]
00000000: 4bd8 00bd f27c 063e a42e 89be 8bf0 77be
00000010: 788d c63d ce79 b8bc 8707 bcbd cc0e 0fbe
00000020: 01c6 143e 650e c43d 8a07 b7bd 7a38 b0bc
00000030: dced e4bd e839 e33d 5ff2 02bf c3ca 31bd
00000040: 3533 03be b45d 9d3d e456 2c3e f45a 37be
00000050: 7d8e a1bc 0210 9f3c 9f1e 3bbd d84d 23be
00000060: db74 25bd 7e9a 2abc 8d4d ef3d 19d7 26bd
00000070: c527 a53d fecb a53b bdba a3bd 0689 3dbd
-0.031456273 0.131336 -0.26793396 -0.24212854 0.09694952 -0.022519019 -0.09181123 -0.13970488
0.14528657 0.09573058 -0.08936985 -0.021511305 -0.111781806 0.11095029 -0.5115108 -0.04340626
-0.12812503 0.07683888 0.16830021 -0.1790579 -0.019721264 0.019416813 -0.0456835 -0.15947664
-0.040394645 -0.01041281 0.116847135 -0.040732477 0.08064226 0.005059718 -0.07994602 -0.046273254

conv1d_4/conv1d/ExpandDims_1 u1 [32, 1, 3, 32] scale=0.008807924 zero_point=0
00000000: fc31 0afd fa24 ec13 e7f6 0904 f1f1 35f8
00000010: 050d f320 f1f7 e6d9 0fec 15e8 0529 1415
00000020: eee6 1fe9 f113 f7f9 0add 2510 e3f4 17f7
00000030: 0afc f4d9 f9f2 15ea f519 e9eb f5e0 0be4
00000040: 0d01 f2ed d6ee 0e05 f9d7 dcf3 f8fc 14dc
00000050: df00 c800 e8d5 f2d6 d50f e5f9 b619 e008
00000060: e0dc ecfb c4f9 f3da cbe7 bfef e3f1 b4e8
00000070: e308 d5ce d0f5 e9cd dad0 bf05 d1e2 0c0e
00000080: f0f6 d3f0 eef6 09e7 edff d8ec 05e6 f2de
00000090: f6e1 20f2 f7f5 fa0a f203 fee1 f93b f01a
000000a0: cd2e 1712 09f6 13e5 080d 2d03 05da 01cf
000000b0: 02eb f615 ff0a 0204 0802 0e0c 282d 1016
000000c0: 22fc 05f9 03e5 e8fd 0514 ea0d 0111 e806
000000d0: 032f e8f9 0b20 05f5 f9ea fe0c e5f7 fef5
000000e0: 0bf4 e10c e60f 09c9 0608 0511 e2f0 f3df
000000f0: 0711 fbcf 0403 1efe edd9 0903 f3fd eafd
2.2195969 0.43158826 0.08807924 2.2284048 2.2019808 0.31708527 2.07867 0.16735055
2.0346303 2.1667492 0.07927132 0.035231695 2.1227095 2.1227095 0.46681994 2.184365
0.04403962 0.11450301 2.1403255 0.28185356 2.1227095 2.1755571 2.0258224 1.9113194
0.13211885 2.07867 0.1849664 2.0434382 0.04403962 0.36112487 0.17615847 0.1849664
2.0962858 2.0258224 0.27304563 2.052246 2.1227095 0.16735055 2.1755571 2.193173
0.08807924 1.9465511 0.32589316 0.14092678 1.9993987 2.1491334 0.20258224 2.1755571
0.08807924 2.2195969 2.1491334 1.9113194 2.193173 2.1315174 0.1849664 2.0610542
2.1579413 0.2201981 2.052246 2.0698621 2.1579413 1.9729749 0.09688716 2.0082066
0.11450301 0.008807924 2.1315174 2.087478 1.8848957 2.0962858 0.12331093 0.04403962
2.193173 1.8937036 1.9377432 2.1403255 2.184365 2.2195969 0.17615847 1.9377432
1.964167 0.0 1.7615848 0.0 2.0434382 1.8760878 2.1315174 1.8848957
1.8760878 0.13211885 2.0170145 2.193173 1.6030421 0.2201981 1.9729749 0.07046339
1.9729749 1.9377432 2.07867 2.2107887 1.726353 2.193173 2.1403255 1.9201274
1.7880085 2.0346303 1.6823134 2.1050937 1.9993987 2.1227095 1.5854262 2.0434382
1.9993987 0.07046339 1.8760878 1.8144323 1.8320482 2.1579413 2.052246 1.8056244
1.9201274 1.8320482 1.6823134 0.04403962 1.8408561 1.9905907 0.105695084 0.12331093
2.1139016 2.1667492 1.8584719 2.1139016 2.0962858 2.1667492 0.07927132 2.0346303
2.087478 2.2460206 1.9025115 2.07867 0.04403962 2.0258224 2.1315174 1.9553591
2.1667492 1.9817828 0.28185356 2.1315174 2.1755571 2.1579413 2.2019808 0.08807924
2.1315174 0.026423771 2.2372127 1.9817828 2.193173 0.5196675 2.1139016 0.22900602
1.8056244 0.40516448 0.20258224 0.15854263 0.07927132 2.1667492 0.16735055 2.0170145
0.07046339 0.11450301 0.39635655 0.026423771 0.04403962 1.9201274 0.008807924 1.8232402
0.017615847 2.0698621 2.1667492 0.1849664 2.2460206 0.08807924 0.017615847 0.035231695
0.07046339 0.017615847 0.12331093 0.105695084 0.35231695 0.39635655 0.14092678 0.19377431
0.2994694 2.2195969 0.04403962 2.193173 0.026423771 2.0170145 2.0434382 2.2284048
0.04403962 0.17615847 2.0610542 0.11450301 0.008807924 0.1497347 2.0434382 0.052847542
0.026423771 0.4139724 2.0434382 2.193173 0.09688716 0.28185356 0.04403962 2.1579413
2.193173 2.0610542 2.2372127 0.105695084 2.0170145 2.1755571 2.2372127 2.1579413
0.09688716 2.1491334 1.9817828 0.105695084 2.0258224 0.13211885 0.07927132 1.7703927
0.052847542 0.07046339 0.04403962 0.1497347 1.9905907 2.1139016 2.1403255 1.964167
0.061655466 0.1497347 2.2107887 1.8232402 0.035231695 0.026423771 0.2642377 2.2372127
2.087478 1.9113194 0.07927132 0.026423771 2.1403255 2.2284048 2.0610542 2.2284048

conv1d_5/conv1d/Conv2D_bias f4 [32]
00000000: 185e ae3d aac2 3cbd 74c0 a4bc 05de 0e3e
00000010: 544e a5bb 5b99 62be ca08 a73d aa6a a1bd
00000020: 1879 85bd 6615 05ba 27f0 96bd 201f 723d
00000030: a9ad 923c 27bc 683d 4055 92bd 6014 a1bd
00000040: d914 013e b475 8dbc d2bc cb3c f1ae 393c
00000050: 1a80 123e ba4c c03d 15b8 03be fdcb fabc
00000060: 7cda 26bd 292f 0abb 9700 303e baae b3bd
00000070: 4cdc f5be 57c7 32be 11fe 28bd d07a 23be
0.08514041 -0.046084084 -0.0201113 0.13951881 -0.005044738 -0.22128813 0.08155973 -0.07881673
-0.065172374 -0.0005076736 -0.07370024 0.059111714 0.017905073 0.05682006 -0.071451664 -0.07865214
0.12605609 -0.01726804 0.02487031 0.011333213 0.1430668 0.093896344 -0.1286319 -0.030614847
-0.040735707 -0.0021085239 0.17187725 -0.08773561 -0.48019636 -0.17458855 -0.04125792 -0.15964818

conv1d_5/conv1d/ExpandDims_1 u1 [32, 1, 3, 32] scale=0.006967719 zero_point=0
00000000: 00be 2409 f1c7 0a1f d8f1 0e25 1216 e1e7
00000010: 06c1 18fe 2dde b0e4 f6ee e4fa f32b 07f8
00000020: 01b5 0101 f8c3 15ec c5f8 e221 f807 ddfb
00000030: 3014 ccd7 1d00 e715 bae2 f2f5 e2f9 021a
00000040: fa08 1d01 d710 bee3 c936 f207 de12 fe0f
00000050: 27e2 f9dd ee01 f0de a7d6 dcbc fbda d6f9
00000060: 05c9 e910 f9e7 0ef6 00e2 d316 deec f2cd
00000070: 2abb cc1c 02bc d1f4 0cce d2f0 cb1b ed2a
00000080: 0ae6 de00 0d01 ed14 f826 ec35 ffcd f61d
00000090: 06ea 06eb d6df f00f ffc1 ef0d ed05 f1e7
000000a0: 0115 f5d4 1e08 e5f6 f7f7 12f3 bed7 f0ce
000000b0: ed1a 34f2 ffc6 d1c2 21e3 1514 24e5 9cb7
000000c0: 0ec1 d6fa e8d3 0dee dcd7 fefa 010d 20d2
000000d0: f013 05eb 05da ffec c6c8 cfcd d0e8 0426
000000e0: fb05 101e da0e 1c06 fde9 fcf0 1219 1202
000000f0: 07e1 9a08 e6f0 08ef 2e06 ebf9 e2ea 0d0f
0.0 1.3238666 0.2508379 0.06270947 1.6792203 1.3865762 0.06967719 0.21599929
1.5050273 1.6792203 0.09754807 0.25780562 0.12541895 0.15328982 1.5677369 1.6095431
0.041806314 1.3447698 0.16722526 1.7698007 0.31354737 1.5468336 1.2263186 1.58864
1.7140589 1.6583172 1.58864 1.7419298 1.6931558 0.29961193 0.048774034 1.7279943
0.006967719 1.2611572 0.006967719 0.006967719 1.7279943 1.3587053 0.1463221 1.6443818
1.3726407 1.7279943 1.5747045 0.22993474 1.7279943 0.048774034 1.539866 1.7488976
0.3344505 0.13935438 1.4214147 1.4980596 0.20206386 0.0 1.6095431 0.1463221
1.2959957 1.5747045 1.686188 1.7070912 1.5747045 1.7349621 0.013935438 0.1811607
1.7419298 0.055741753 0.20206386 0.006967719 1.4980596 0.11148351 1.3238666 1.5816723
1.4005115 0.37625682 1.686188 0.048774034 1.5468336 0.12541895 1.7698007 0.10451579
0.27174106 1.5747045 1.7349621 1.539866 1.6583172 0.006967719 1.6722527 1.5468336
1.1636091 1.4910918 1.5328982 1.3099312 1.7488976 1.5189627 1.4910918 1.7349621
0.034838594 1.4005115 1.6234785 0.11148351 1.7349621 1.6095431 0.09754807 1.7140589
0.0 1.5747045 1.4701887 0.15328982 1.5468336 1.6443818 1.686188 1.4283824
0.2926442 1.3029635 1.4214147 0.19509614 0.013935438 1.3099312 1.4562533 1.7001234
0.08361263 1.4353502 1.4632211 1.6722527 1.414447 0.18812841 1.6513494 0.2926442
0.06967719 1.6025754 1.5468336 0.0 0.09058035 0.006967719 1.6513494 0.13935438
1.7279943 0.26477334 1.6443818 0.36928913 1.7767684 1.4283824 1.7140589 0.20206386
0.041806314 1.6304463 0.041806314 1.637414 1.4910918 1.5538014 1.6722527 0.10451579
1.7767684 1.3447698 1.6652849 0.09058035 1.6513494 0.034838594 1.6792203 1.6095431
0.006967719 0.1463221 1.7070912 1.4771565 0.20903158 0.055741753 1.5956076 1.7140589
1.7210267 1.7210267 0.12541895 1.6931558 1.3238666 1.4980596 1.6722527 1.4353502
1.6513494 0.1811607 0.3623214 1.686188 1.7767684 1.3796084 1.4562533 1.3517375
0.22993474 1.5816723 0.1463221 0.13935438 0.2508379 1.5956076 1.0869642 1.2750926
0.09754807 1.3447698 1.4910918 1.7419298 1.6165109 1.4701887 0.09058035 1.6583172
1.5328982 1.4980596 1.7698007 1.7419298 0.006967719 0.09058035 0.22296701 1.4632211
1.6722527 0.13238667 0.034838594 1.637414 0.034838594 1.5189627 1.7767684 1.6443818
1.3796084 1.3935438 1.4423178 1.4283824 1.4492856 1.6165109 0.027870877 0.26477334
1.7488976 0.034838594 0.11148351 0.20903158 1.5189627 0.09754807 0.19509614 0.041806314
1.762833 1.6234785 1.7558652 1.6722527 0.12541895 0.17419298 0.12541895 0.013935438
0.048774034 1.5677369 1.0730288 0.055741753 1.6025754 1.6722527 0.055741753 1.6652849
0.3205151 0.041806314 1.637414 1.7349621 1.5747045 1.6304463 0.09058035 0.10451579

conv1d_6/conv1d/Conv2D_bias f4 [256]
00000000: 2623 a6bd f006 f1bc a188 16be 3ab1 71be
00000010: fb95 983d 21a8 9c3a 28c0 86bd 0ef6 b33d
00000020: c64c f0be 88cd 5e3d de4c f73d c9a4 a9be
00000030: b92d 86be c7cf a83d d4b6 f6be c99e f8bd
00000040: 3b34 72be aa28 293e 4623 90be d3df 8abe
00000050: a42c a4be 93a6 fbbd a1df 85bd 738d f9bd
00000060: 1e77 22bd 695d 83be 0ce3 08bd f508 07be
00000070: 3b13 dfbe e6bb 293e 306d d4be 955f febd
00000080: 71c1 d1bd 4905 a7be 412d c43d 90b1 02be
00000090: eaf6 b0be 2074 c6bc 537e 97be cea3 3b3e
000000a0: 02e9 ccbe fce6 6fbe 0aeb bdbe 3670 b0bd
000000b0: b1a0 b2bd a1a5 d03d fa21 8bbe ef12 9abe
000000c0: 3553 36be d1bf a5be 1f29 02be 8749 90be
000000d0: 2aee 47be de56 9dbd 97a2 12be c0b1 b4be
000000e0: ff13 8dbe b5e4 36be cee9 73bd c568 67be
000000f0: 9ae0 40be b622 49ba 0c31 d6bc 060d 98be
00000100: 3091 91be 93b2 aabd 6c24 65be 796a a4be
00000110: d7ee aabe b9c5 3ebc 74a6 62be 254a acbe
00000120: 265f 57be bd4a 05bd fed2 e9bd a39a 443d
00000130: 88e1 b1be ef16 b1be 9616 5fbe 5b75 6cbe
00000140: fdb7 84be ff68 07bb a91c 90be aa8a b0bd
00000150: be75 54be 2e0a 06be 55cf 963d 63d8 8b3d
00000160: e2d3 8dbe 2c81 05bd 9b7d cdbd 1aa4 3cbd
00000170: d43d 98be 5962 7b3d 5b5f 99be e37a 213d
00000180: 12ca 3cbe fae7 a53d c20c cdbd f7a5 d1bd
00000190: 1aab 7ebe 9142 56be e446 bbbe de5d 10be
000001a0: 3717 503e befa c1be 34f4 98be d4ed bcbd
000001b0: 129f 99be 8821 ccbd 97eb a5bd a551 8ebd
000001c0: 0bd1 17be a226 4fbc 13cc f6bc 944b 83be
000001d0: 53dc 13be 3c67 05be dde8 b8be 765e efbd
000001e0: f96e 9cbd 83c8 90be 6697 90be 5c89 76bd
000001f0: c6fc 7dbd 1d5c 58be d346 75be fb5b 4abe
00000200: 4af4 0cbe 9159 81be 1f30 3fbe 8c1a 8abe
00000210: 80e6 76be 5017 303e b798 9dbd 1925 37be
00000220: ff27 8abd 9216 9bbe ba38 2ebd ee39 9ebd
00000230: 254d 83bc 88b7 ca3d 113d 0b3e f9e8 08be
00000240: 8747 54be 875c 9dbe b1b0 19be 9261 8ebe
00000250: 5d31 94bd d1a8 49be dbb7 013e e8e0 3fbe
00000260: 7b70 4e3d 0b57 c73d 52e2 6d3d 2a0d f5be
00000270: 07c4 0ebe fac2 5e3e 36ee 4cbe 906a 33be
00000280: d99b 09bc 4a86 e0be bf08 b1bd 038e ccbe
00000290: d812 113e c3b4 b9bd 2c22 1cbe a5cc bcbe
000002a0: 8745 80be f609 bcbd 50b1 aebe 40a3 093c
000002b0: 345b 92be 39ee 22be 69ab 31bd 0eb9 91be
000002c0: bc4b 83be ed80 8cbe ea99 5fbe 9164 94be
000002d0: b76e 4bbe 2473 7abe f3ee 0ebe ef0e 04be
000002e0: bbbb 9fbd f22c 17be 7afe 01bd ded6 62be
000002f0: 9270 6ebe e49f 4bbe 7ef8 43be 7cca 39be
00000300: 257c aebe 7a54 c9be 43bb 4abc cff5 58be
00000310: c863 2abe 54b6 70be 6429 a3be e7f0 303d
00000320: 3f40 6fbe 9cb9 ef3c 5b59 5fbd 8f4f 6dbe
00000330: dec7 623e 69a8 9abe a3f5 11bd 7e05 b6be
00000340: 2ef3 9cbe c8a0 a1be ba67 513e becc 5ebe
00000350: d909 b7be 142a c4be 2b6c c23d 8838 9e3d
00000360: 6398 32be 5c66 34be 39cf fabd 9a8b 73be
00000370: 3e49 87be 92dc a03d 8473 90be 12ea f7bd
00000380: 11fa 5bbd 5818 84be 1e76 8ebe 7588 5cbe
00000390: 3e07 91bd 19ce 81be f30b 213e 439a 91bc
000003a0: 0757 aabd c3be f63c 7498 ffbd bb0c a8be
000003b0: 6635 0bbd 9193 9d3b b65f 153c e4c8 a5bc
000003c0: 2db6 34be c09b 593a ea70 77be 6836 91bc
000003d0: 7eef 8cbe 272c 8bbe a3af 2bbd 9f5e 5fbe
000003e0: 3027 f4bd 6b19 adbc d48a 11bd 9287 a8be
000003f0: 7b8e d7bd 60b7 8bbd e5bd 8cbd 2748 e1be
-0.08112173 -0.029422253 -0.14700557 -0.23602763 0.074504815 0.0011951962 -0.0657962 0.087871656
-0.46933573 0.05439523 0.12075208 -0.33133534 -0.2620676 0.082427554 -0.48186362 -0.12139661
-0.23652737 0.16519418 -0.28151911 -0.2712389 -0.32065308 -0.12287631 -0.065367945 -0.121851824
-0.03966438 -0.25657204 -0.033419654 -0.1318701 -0.4356936 0.16575584 -0.41489553 -0.124205746
-0.10241974 -0.3262122 0.09578944 -0.12763047 -0.3456338 -0.024225295 -0.29588565 0.18324205
-0.4002152 -0.23427957 -0.37093383 -0.086151525 -0.08722056 0.10187841 -0.2717436 -0.3009257
-0.17805178 -0.32372907 -0.12710999 -0.28181097 -0.19524446 -0.07682584 -0.14319836 -0.35291862
-0.27554318 -0.17860682 -0.059549145 -0.2259856 -0.18835679 -0.0007672714 -0.026146434 -0.29697436
-0.28431082 -0.083348416 -0.22377175 -0.32112482 -0.33385345 -0.01164382 -0.2213381 -0.33650318
-0.2103239 -0.03254198 -0.11417197 0.047999036 -0.3474238 -0.3458781 -0.2178596 -0.23091643
-0.25921622 -0.0020661948 -0.28146866 -0.08620198 -0.2074804 -0.1308982 0.07363764 0.06828382
-0.27700716 -0.03259389 -0.10033723 -0.046054937 -0.2973467 0.06137309 -0.29955563 0.039423835
-0.18436459 0.08100887 -0.10012199 -0.102367334 -0.24869958 -0.2092383 -0.36577523 -0.14098307
0.20321356 -0.37886614 -0.29873812 -0.092250496 -0.30004174 -0.09967333 -0.08101576 -0.06949166
-0.14825837 -0.012643488 -0.030126607 -0.256436 -0.14439516 -0.13027662 -0.3611516 -0.11687939
-0.07638354 -0.28277978 -0.28240508 -0.06018959 -0.06200864 -0.21128888 -0.23952799 -0.1976165
-0.13765064 -0.25263646 -0.186707 -0.2697338 -0.24111366 0.17196393 -0.07695144 -0.17885245
-0.0674591 -0.30290657 -0.042534567 -0.07725893 -0.016027996 0.09898287 0.13597514 -0.13370122
-0.2073041 -0.30734655 -0.15008809 -0.27808815 -0.07235978 -0.19693305 0.12667792 -0.18738139
0.05040024 0.09733399 0.058077164 -0.47861606 -0.13941966 0.21754065 -0.20012745 -0.17521119
-0.008398973 -0.43852454 -0.08644246 -0.39952096 0.14167345 -0.09067681 -0.1524741 -0.3687488
-0.25053045 -0.091815874 -0.34119654 0.008400738 -0.28585207 -0.15911187 -0.04337636 -0.28461498
-0.25643718 -0.27442113 -0.21836057 -0.28982976 -0.19866453 -0.24457985 -0.1395834 -0.12896322
-0.077994786 -0.14763239 -0.03173683 -0.22152278 -0.2328513 -0.19885212 -0.19137761 -0.18143648
-0.3407909 -0.39322263 -0.012373748 -0.21187519 -0.16639626 -0.23507053 -0.31867516 0.043198492
-0.23364352 0.02926331 -0.054528575 -0.2317488 0.22146556 -0.30206612 -0.035634648 -0.35551065
-0.3065428 -0.3156798 0.20449725 -0.2175779 -0.357497 -0.38313353 0.09493288 0.07725626
-0.17440943 -0.17617172 -0.12246556 -0.23783723 -0.26423067 0.078545704 -0.2821313 -0.12105192
-0.05370528 -0.25799823 -0.2782449 -0.21536429 -0.070814595 -0.25352553 0.15727215 -0.017773753
-0.083173804 0.03012026 -0.1248025 -0.32822213 -0.03398647 0.004808851 0.009117058 -0.020237394
-0.1764762 0.00083011016 -0.24164167 -0.017726138 -0.27526468 -0.27182123 -0.041915547 -0.21813439
-0.11921537 -0.021130284 -0.035532787 -0.32915932 -0.10525223 -0.068220854 -0.06872157 -0.4400036

conv1d_6/conv1d/ExpandDims_1 u1 [256, 1, 3, 32] scale=0.01086244 zero_point=0
00000000: 0d15 120f 01ff fcf7 edff f4fa 0009 11e7
00000010: fcfd 0c06 05f5 efef ec05 08e8 e5e6 fe16
00000020: f81b 0d03 ecff 00eb e8fa f1f0 f615 0aef
00000030: cd03 f7d3 14fd e6f0 f4d6 02fa f205 1611
00000040: f608 ec0d f716 000d 0c03 f40a f2f8 0cf1
00000050: 08eb fbf6 07e5 eff1 dc0b ec0a ecfa fd0a
00000060: fbee 02f4 f9f5 0704 0ce4 070e fef1 0b18
00000070: fbe7 17e9 07f2 e1f5 c6fd 1ecc effa f918
00000080: f708 fe03 f600 0408 0bd8 00f4 0909 fefc
00000090: edc3 feda fef9 0a01 f408 f202 fbf8 0116
000000a0: f80d fffb f6fa 1af2 fce0 00f0 eff5 fbf8
000000b0: 05c0 0201 fef4 01f7 ea0b f7f1 e0e9 110a
000000c0: f506 03ef f30c f4f7 0ef6 050c f20c fef1
000000d0: 0501 eee4 fdf9 0cfb f5f4 1c09 0d00 fe06
000000e0: f1f7 f30b d909 f1ff 07f4 fff1 f60b 00f6
000000f0: f3f1 ff01 0bee fff8 edf5 f90f 05f4 fd0c
0.14121172 0.22811124 0.19552392 0.1629366 0.01086244 2.7699223 2.7373347 2.6830227
2.5743983 2.7699223 2.6504354 2.71561 0.0 0.09776196 0.18466148 2.5092237
2.7373347 2.7481973 0.13034928 0.06517464 0.0543122 2.6612978 2.5961232 2.5961232
2.5635357 0.0543122 0.08689952 2.520086 2.4874988 2.498361 2.7590597 0.23897368
2.693885 0.29328588 0.14121172 0.03258732 2.5635357 2.7699223 0.0 2.5526733
2.520086 2.71561 2.617848 2.6069856 2.6721601 0.22811124 0.1086244 2.5961232
2.2268002 0.03258732 2.6830227 2.2919748 0.2172488 2.7481973 2.498361 2.6069856
2.6504354 2.324562 0.02172488 2.71561 2.6287105 0.0543122 0.23897368 0.18466148
2.6721601 0.08689952 2.5635357 0.14121172 2.6830227 0.23897368 0.0 0.14121172
0.13034928 0.03258732 2.6504354 0.1086244 2.6287105 2.693885 0.13034928 2.617848
0.08689952 2.5526733 2.7264724 2.6721601 0.07603708 2.4874988 2.5961232 2.617848
2.3897367 0.11948684 2.5635357 0.1086244 2.5635357 2.71561 2.7481973 0.1086244
2.7264724 2.5852606 0.02172488 2.6504354 2.7047474 2.6612978 0.07603708 0.04344976
0.13034928 2.4766364 0.07603708 0.15207416 2.7590597 2.617848 0.11948684 0.26069856
2.7264724 2.5092237 0.24983612 2.5309484 0.07603708 2.6287105 2.444049 2.6612978
2.150763 2.7481973 0.3258732 2.2159376 2.5961232 2.71561 2.7047474 0.26069856
2.6830227 0.08689952 2.7590597 0.03258732 2.6721601 0.0 0.04344976 0.08689952
0.11948684 2.346287 0.0 2.6504354 0.09776196 0.09776196 2.7590597 2.7373347
2.5743983 2.1181757 2.7590597 2.368012 2.7590597 2.7047474 0.1086244 0.01086244
2.6504354 0.08689952 2.6287105 0.02172488 2.7264724 2.693885 0.01086244 0.23897368
2.693885 0.14121172 2.7699223 2.7264724 2.6721601 2.71561 0.28242344 2.6287105
2.7373347 2.4331865 0.0 2.6069856 2.5961232 2.6612978 2.7264724 2.693885
0.0543122 2.0855885 0.02172488 0.01086244 2.7590597 2.6504354 0.01086244 2.6830227
2.541811 0.11948684 2.6830227 2.617848 2.4331865 2.5309484 0.18466148 0.1086244
2.6612978 0.06517464 0.03258732 2.5961232 2.6395729 0.13034928 2.6504354 2.6830227
0.15207416 2.6721601 0.0543122 0.13034928 2.6287105 0.13034928 2.7590597 2.617848
0.0543122 0.01086244 2.5852606 2.4766364 2.7481973 2.7047474 0.13034928 2.7264724
2.6612978 2.6504354 0.30414832 0.09776196 0.14121172 0.0 2.7590597 0.06517464
2.617848 2.6830227 2.6395729 0.11948684 2.3571494 0.09776196 2.617848 2.7699223
0.07603708 2.6504354 2.7699223 2.617848 2.6721601 0.11948684 0.0 2.6721601
2.6395729 2.617848 2.7699223 0.01086244 0.11948684 2.5852606 2.7699223 2.693885
2.5743983 2.6612978 2.7047474 0.1629366 0.0543122 2.6504354 2.7481973 0.13034928

conv1d_7/conv1d/Conv2D_bias f4 [256]
00000000: b693 f03d ad25 873d c4bf 7fbe 5f04 8abd
00000010: 169c 75bd 9fdd 48bd cdda 27bd 072b cebc
00000020: f63a d7bc 06eb d93c 246f 9f3d b309 94bd
00000030: 7686 9dbc 941a 0ebe 87b8 83be 93e5 aa3d
00000040: 6e41 3ebd 8195 4dbd a2b4 4bbd f0f9 3abd
00000050: cecf 87be 3bbd 55bd 35ad 1dbe e9be ecbc
00000060: 7ce4 e9bd b4ac fd3d b1ff 813e 6b59 f7bd
00000070: 2650 893c 73bc 423e 8277 ebbd e573 98bd
00000080: 0da3 853d 0863 0bbf e29a 603d 2d13 e73d
00000090: 3ae2 14be ba70 93bd 8875 f3bc ce9d b8bd
000000a0: 1e3e 29be 394c 78bd 8d13 36bd 6beb 873d
000000b0: e42e f1bd 4026 9cbd 6873 94be bf37 debe
000000c0: 7cde b6bd b9df 19bd a804 86bc 25de 4dbd
000000d0: 9518 58bd 0f3f 1bbd d8d6 dc3d f29f 0ebe
000000e0: bf07 94bd 2900 81bb d310 b2be 0dcb 3abe
000000f0: 843f d8bd 7e89 8abe 737b f9bc 506f 8e3d
00000100: 8f13 9ebb 74f3 bebe da26 1c3e 5d88 a2bd
00000110: 2b57 943d 4d76 efbd e444 6dbd 9d89 043d
00000120: e8c4 abbe c1cb 993d 8e44 57be 36ef f3bd
00000130: 907d c2bc 0986 873c e7b8 92bd c2eb 93bb
00000140: a673 1dbd d38a 8fbd bada cbbc e24c b1bd
00000150: 2e5e 85bd cec8 193e c50d 7fbd 7def bebd
00000160: db3c aabd e32e c3bc 4c77 98bd ec40 973d
00000170: 8755 64bd 5821 0b3e 8695 15be 0ef1 193d
00000180: 8648 9bbe 48e9 52be 83b3 42be ad9d 633d
00000190: 67e7 053e e960 d3bc 3f16 083e 2149 66bd
000001a0: d27f ecbd c928 163e 0407 243e 0a5e 16be
000001b0: a7a3 9bbd 32e4 75bd 77bf e23d 089b 79bd
000001c0: 9361 a73d cc03 6cbd 5973 f73b 7763 9cbd
000001d0: 67c5 8cbe 8597 13bd 4763 2bbd c53d debd
000001e0: b179 28bc 402b 243e e990 a53c d73e a4bd
000001f0: d9b6 49be 8683 b03d 1454 11bd 87a4 393d
00000200: 9d9c b73d 124c 813c a59f 86bd 58cf a73d
00000210: 7c97 093d 6970 88bd 1982 c33d 7b3d 8dbe
00000220: 21c2 2fbe 3cec 92bd e1d9 35bd 2495 163e
00000230: af00 19bd abb2 e7bc f8f9 b23d 03ef c7bc
00000240: 6877 06be a6e8 773d b4e2 b2be 775f 86bd
00000250: bb23 84be 3428 263d 933f b8bd 9bff 3e3e
00000260: 94f4 3dbe ac8d 053e e20b 8f3d fd13 163d
00000270: 9a78 673d 9a28 f7bc 362e 18bd 9970 d4bd
00000280: fdb4 823d 8506 63bd 4d0e 4abd 8d0d 51bd
00000290: 72e2 d33d e84a 38be 6434 5cbe c123 943c
000002a0: 10e3 d83b b306 073e fa2e 1c3d e7d1 67be
000002b0: 91be 7ebd e1e2 e2bc ada3 0dbe 3776 88bd
000002c0: dbfb eabd 3581 17be c7cd 0a3d 60bb 14be
000002d0: 0bc3 1d3b 1ecb 85bd 9ecb e33d 49bb 58bd
000002e0: e49c 44be aa4b b8bd 946e ca3d 7f4d 73bd
000002f0: a696 64bd f0aa a8bd dd81 69bd 77dc 86bd
00000300: 47c0 97bc 86d7 04bd 0b65 0fbe 23bf 8b3d
00000310: 2abb 163e edf7 9c3c 35bd 923d f201 3fbe
00000320: 5310 063d 4cc9 46be da77 273d fe72 233d
00000330: ee9a eebd a151 27bb e6f4 e3bd 514f 01be
00000340: ee1b 06be 0eda 08bd 7c75 e9bd 844e ccbe
00000350: 18c0 48bd a777 11be c9da 0a3e b230 88be
00000360: 5d27 3d3e 7959 01bd 860c 8ebb 4072 f6bd
00000370: 6c60 3cbd 77c3 92be ad0a 04bd 776b e5bc
00000380: 2252 51bd 3e15 da3d 3a91 eabe c07c 29be
00000390: 6cd8 c5bc 1b48 1b3d 5799 a13d 046b 323e
000003a0: f883 643c a374 fcbd f374 98be 6dc5 a3be
000003b0: 899b 4fbb 2bb7 8bbc a4d4 c8be 5609 06bd
000003c0: bbe0 b2be 6c4d c4be 783e 2cbb c6ca 01bd
000003d0: d604 dcbc ffbf 29bd 96c6 333c 8976 313e
000003e0: 9633 a4bd 51cb 7e3c f4a1 9a3d fe59 16bd
000003f0: e9b2 07be cc6a 63be 680b d7bc 85d1 46be
0.117469236 0.06598983 -0.24975497 -0.06739115 -0.05996331 -0.04903948 -0.04098015 -0.025167001
-0.026273232 0.026601326 0.0778487 -0.072284125 -0.019229155 -0.13877326 -0.2572672 0.08344569
-0.046449117 -0.050191406 -0.04973281 -0.045648515 -0.2652573 -0.052182417 -0.15398104 -0.028899627
-0.11420533 0.12386456 0.2539039 -0.12077602 0.01676185 0.190172 -0.11497404 -0.0744398
0.0652524 -0.54447985 0.054835208 0.11282954 -0.14539424 -0.07199235 -0.02971913 -0.09014474
-0.16527602 -0.060619567 -0.04445224 0.06636699 -0.11776522 -0.07624483 -0.28994298 -0.43401906
-0.08929154 -0.037566874 -0.016359642 -0.05026068 -0.05275782 -0.037901934 0.10783166 -0.13928202
-0.0722804 -0.0039367867 -0.3477846 -0.1824152 -0.1055899 -0.27058023 -0.030454373 0.06954825
-0.004824109 -0.37295115 0.15249196 -0.079361655 0.072431885 -0.11692486 -0.057927027 0.0323578
-0.33548665 0.07509566 -0.21022245 -0.1191086 -0.023741513 0.016543405 -0.071641736 -0.0045141885
-0.03844037 -0.070089005 -0.02488457 -0.08657242 -0.06512104 0.15018007 -0.06226899 -0.093230225
-0.083123885 -0.023826068 -0.07444629 0.0738543 -0.055745628 0.13586938 -0.1460782 0.037583403
-0.30328768 -0.20596802 -0.19013791 0.055570293 0.13076554 -0.025803046 0.13289736 -0.056222085
-0.11547817 0.14663996 0.16018301 -0.1468431 -0.075995736 -0.060032077 0.11071675 -0.060938865
0.08172908 -0.05762081 0.0075515923 -0.07636159 -0.27494356 -0.036033172 -0.041842725 -0.10851625
-0.01028292 0.16032124 0.0202107 -0.08019798 -0.19698657 0.08618836 -0.035480574 0.04532292
0.089654185 0.015783343 -0.065734185 0.081938446 0.033591732 -0.066620655 0.095462985 -0.27585968
-0.17163898 -0.071739644 -0.04439724 0.1470533 -0.037354168 -0.028283438 0.08739084 -0.024405962
-0.13131487 0.060524605 -0.34938586 -0.06561177 -0.2580851 0.040565684 -0.08996501 0.18652193
-0.1855033 0.13042325 0.06984688 0.036640156 0.0565115 -0.030170728 -0.037153445 -0.10373039
0.06382177 -0.05542614 -0.049330045 -0.051038314 0.103459254 -0.17997324 -0.2150436 0.018083455
0.006618865 0.1318615 0.038130738 -0.22638665 -0.062193457 -0.027696075 -0.13831969 -0.06663173
-0.11473819 -0.14795382 0.03388765 -0.14524603 0.0024072553 -0.06532882 0.11122821 -0.052912984
-0.19200474 -0.08998807 0.09884372 -0.059400078 -0.055807732 -0.08235729 -0.057008613 -0.06585019
-0.018524302 -0.0324321 -0.14003389 0.06823566 0.14719835 0.019161189 0.071649946 -0.18653086
0.03273041 -0.19412726 0.040885784 0.039904587 -0.11650644 -0.0025530832 -0.11130695 -0.12627913
-0.13096592 -0.03341108 -0.113993615 -0.39903653 -0.04901132 -0.142058 0.13560022 -0.26599652
0.18472047 -0.03157947 -0.004334989 -0.1203351 -0.045990393 -0.28664753 -0.032236744 -0.028005345
-0.05110372 0.10648583 -0.45813924 -0.16551495 -0.02415105 0.037910562 0.078905754 0.17423636
0.013947479 -0.12326934 -0.29776725 -0.3198656 -0.00316784 -0.017055115 -0.39224732 -0.032723747
-0.3493708 -0.38340318 -0.0026282351 -0.03168752 -0.026857775 -0.041442867 0.01097264 0.17330374
-0.08017652 0.015551404 0.07550421 -0.036706917 -0.13251843 -0.22208709 -0.026250556 -0.19415863

conv1d_7/conv1d/ExpandDims_1 u1 [256, 1, 3, 256] scale=0.009767814 zero_point=0
00000000: 19f3 26f8 02f4 fa01 fb0b 0ffb 05ee 12ef
00000010: 12f7 fef9 08fc fe03 f430 e802 24e5 111a
00000020: 0101 1806 f50f f2fc 0e11 11f2 fc0a 0d0a
00000030: f7f0 05f4 f807 03f6 0f0c 0e06 fffd 1707
00000040: 1005 081e 0ef2 f304 0d1c 11fe f3f8 2a18
00000050: 03d8 0fee f803 e309 13e7 11fa 0c14 24f5
00000060: 1507 1b03 0b06 1307 f5ff 14ff 0817 0ffb
00000070: 0913 eb0c 02ff 13fb fc0c 0806 02f8 11fc
00000080: 0601 0bf2 10f9 00f4 ee41 ff18 0af9 f51a
00000090: f423 0711 0201 f80e f8f5 f101 f914 0626
000000a0: 0000 eeea 1610 1d08 1220 10e2 0925 fb07
000000b0: 0c1b 0020 fdfe fefe 21ee deed 1bff f804
000000c0: faf4 0d06 0021 0003 0e13 0103 05fb fff0
000000d0: 1a04 fd0d f117 f0fb 0510 f1f7 1108 04ee
000000e0: fc10 f418 0001 fb18 ff15 260e 0e00 0bf0
000000f0: 0ee9 0805 fa1c 0fff ff01 0408 15f7 eae4
0.24419534 2.3735788 0.37117693 2.4224179 0.019535627 2.3833466 2.4419534 0.009767814
2.4517212 0.10744595 0.1465172 2.4517212 0.04883907 2.3247397 0.17582065 2.3345075
0.17582065 2.4126499 2.4810247 2.4321856 0.07814251 2.461489 2.4810247 0.02930344
2.3833466 0.46885505 2.2661328 0.019535627 0.3516413 2.2368293 0.16605283 0.25396314
0.009767814 0.009767814 0.23442753 0.05860688 2.3931143 0.1465172 2.3638108 2.461489
0.13674939 0.16605283 0.16605283 2.3638108 2.461489 0.09767814 0.12698157 0.09767814
2.4126499 2.3442752 0.04883907 2.3833466 2.4224179 0.06837469 0.02930344 2.402882
0.1465172 0.11721376 0.13674939 0.05860688 2.4907925 2.4712567 0.22465971 0.06837469
0.15628502 0.04883907 0.07814251 0.2930344 0.13674939 2.3638108 2.3735788 0.039071254
0.12698157 0.27349877 0.16605283 2.4810247 2.3735788 2.4224179 0.41024816 0.23442753
0.02930344 2.1098478 0.1465172 2.3247397 2.4224179 0.02930344 2.2172937 0.087910324
0.18558846 2.256365 0.16605283 2.4419534 0.11721376 0.19535628 0.3516413 2.3931143
0.20512408 0.06837469 0.26373097 0.02930344 0.10744595 0.05860688 0.18558846 0.06837469
2.3931143 2.4907925 0.19535628 2.4907925 0.07814251 0.22465971 0.1465172 2.4517212
0.087910324 0.18558846 2.2954361 0.11721376 0.019535627 2.4907925 0.18558846 2.4517212
2.461489 0.11721376 0.07814251 0.05860688 0.019535627 2.4224179 0.16605283 2.461489
0.05860688 0.009767814 0.10744595 2.3638108 0.15628502 2.4321856 0.0 2.3833466
2.3247397 0.6349079 2.4907925 0.23442753 0.09767814 2.4321856 2.3931143 0.25396314
2.3833466 0.34187347 0.06837469 0.16605283 0.019535627 0.009767814 2.4224179 0.13674939
2.4224179 2.3931143 2.354043 0.009767814 2.4321856 0.19535628 0.05860688 0.37117693
0.0 0.0 2.3247397 2.2856684 0.2148919 0.15628502 0.2832666 0.07814251
0.17582065 0.31257004 0.15628502 2.207526 0.087910324 0.3614091 2.4517212 0.06837469
0.11721376 0.26373097 0.0 0.31257004 2.4712567 2.4810247 2.4810247 2.4810247
0.32233784 2.3247397 2.1684546 2.314972 0.26373097 2.4907925 2.4224179 0.039071254
2.4419534 2.3833466 0.12698157 0.05860688 0.0 0.32233784 0.0 0.02930344
0.13674939 0.18558846 0.009767814 0.02930344 0.04883907 2.4517212 2.4907925 2.3442752
0.25396314 0.039071254 2.4712567 0.12698157 2.354043 0.22465971 2.3442752 2.4517212
0.04883907 0.15628502 2.354043 2.4126499 0.16605283 0.07814251 0.039071254 2.3247397
2.461489 0.15628502 2.3833466 0.23442753 0.0 0.009767814 2.4517212 0.23442753
2.4907925 0.20512408 0.37117693 0.13674939 0.13674939 0.0 0.10744595 2.3442752
0.13674939 2.2759006 0.07814251 0.04883907 2.4419534 0.27349877 0.1465172 2.4907925
2.4907925 0.009767814 0.039071254 0.07814251 0.20512408 2.4126499 2.2856684 2.2270615

dense/MatMul_bias f4 [64]
00000000: 9337 babe 515d d5bd 4549 4d3e 18d6 5b3e
00000010: 98d3 2bbd c594 a83e 1089 b3be 8c06 9abc
00000020: 2c9d 30be 654b 103f b763 f6bd 822f d4bd
00000030: 6420 29be bd39 3d3e 027a 9bbe 05df abbe
00000040: f6b0 bbbd cf43 e33d af0e dcbe d1be b5be
00000050: 2a82 98be d569 be3c 431f 6ebe 26a3 b5be
00000060: 4b6d a23e e532 02bf 6518 8abe 3038 11be
00000070: f517 dcbc 2ffd 74be be7e 21be 30c8 a3be
00000080: 10c2 25be 7927 b0bd 8905 57bd dd9a b83e
00000090: aec6 4fbd 3b9d e4bd 5ceb 8f3d de0b b93c
000000a0: e911 34bd 026e 9d3e 3bc7 303e f7bf cabd
000000b0: dbcd 1cbe 1862 9ebe 5d7c cbbd cb99 883e
000000c0: 2eeb c0bd c891 853e 92dd 1bbe 858a 423d
000000d0: e67a 1d3d f27b 03bf 48aa ab3d faa8 a1be
000000e0: 60c4 bdbe 6ebd 4cbe af97 d6be ccab 7cbd
000000f0: 1dee 9bbe 1c59 8fbd 6ef7 4e3f 9187 13be
-0.36370525 -0.10418189 0.20047481 0.21468389 -0.04194984 0.32926002 -0.35065508 -0.01880195
-0.17247456 0.5636504 -0.12030738 -0.10360624 -0.16516262 0.18479057 -0.30366522 -0.33568588
-0.09164612 0.11096918 -0.42979953 -0.35497144 -0.29786807 0.023243824 -0.23254113 -0.35476035
0.3172401 -0.5085891 -0.26971737 -0.1418159 -0.026866892 -0.23924707 -0.15771005 -0.31988668
-0.1618731 -0.08601279 -0.052495513 0.3605565 -0.050726585 -0.11162802 0.07027313 0.022588667
-0.043962393 0.30747992 0.172635 -0.09899896 -0.15312903 -0.30934215 -0.0993583 0.26679835
-0.09419857 0.26087785 -0.15221241 0.047495384 0.038447283 -0.51361 0.08382088 -0.3157423
-0.37063885 -0.19994137 -0.419126 -0.061687276 -0.30455104 -0.06999418 0.808463 -0.14407183

dense/kernel/transpose u1 [64, 256] scale=0.0072961203 zero_point=0
00000000: 08f6 e203 0703 0400 e006 18f5 09f6 200c
00000010: 18ec 01f9 08fa 01fa fee5 f202 daea ea06
00000020: fcef f0ea 3301 f906 090c f906 f5e6 0ae1
00000030: 05f1 f6f8 f30d f2fb 01e5 fbf4 0c04 f502
00000040: da1b 0601 fde6 f5e6 0ff7 0cea 08e1 f00e
00000050: 1401 fcfe fd09 e1ec ffee ee08 0107 2ffe
00000060: 1a01 0fdd e709 0605 ebdd 1ef3 0cf8 e903
00000070: e707 ed0d 0a0e f015 0410 df09 03e7 faeb
00000080: fbf9 06f9 e1ea 0afd f8f6 f8fc 12f3 f2f1
00000090: 0f13 0afc 00eb e0d0 16eb f3e6 ec05 0afa
000000a0: ecef 1210 f619 1afd 0122 f716 0005 09d8
000000b0: f50a ff02 e40a ee02 0a28 ebf1 f9e8 faed
000000c0: 15f5 3101 1cf6 eff2 00ec ed1a eae6 f604
000000d0: fb12 1418 07f0 ee18 f4f1 f7e0 f6f9 f705
000000e0: f108 ea24 f3f8 fcf2 eef7 2521 0e01 03f8
000000f0: 1b04 f50d f8ff dbe8 0bec 0a04 f011 f3ff
0.058368962 1.7948456 1.6489232 0.02188836 0.051072843 0.02188836 0.029184481 0.0
1.634331 0.04377672 0.17510688 1.7875495 0.06566508 1.7948456 0.23347585 0.08755344
0.17510688 1.7218844 0.0072961203 1.816734 0.058368962 1.82403 0.0072961203 1.82403
1.8532145 1.6708115 1.7656611 0.014592241 1.5905542 1.7072922 1.7072922 0.04377672
1.8386223 1.7437727 1.7510688 1.7072922 0.37210214 0.0072961203 1.816734 0.04377672
0.06566508 0.08755344 1.816734 0.04377672 1.7875495 1.6781076 0.072961204 1.6416271
0.036480602 1.758365 1.7948456 1.8094379 1.7729572 0.094849564 1.7656611 1.8313262
0.0072961203 1.6708115 1.8313262 1.7802533 0.08755344 0.029184481 1.7875495 0.014592241
1.5905542 0.19699524 0.04377672 0.0072961203 1.8459184 1.6781076 1.7875495 1.6781076
0.1094418 1.8021417 0.08755344 1.7072922 0.058368962 1.6416271 1.7510688 0.10214569
0.14592241 0.0072961203 1.8386223 1.8532145 1.8459184 0.06566508 1.6416271 1.7218844
1.8605107 1.7364767 1.7364767 0.058368962 0.0072961203 0.051072843 0.34291765 1.8532145
0.18969913 0.0072961203 0.1094418 1.6124426 1.6854038 0.06566508 0.04377672 0.036480602
1.7145883 1.6124426 0.2188836 1.7729572 0.08755344 1.8094379 1.699996 0.02188836
1.6854038 0.051072843 1.7291805 0.094849564 0.072961204 0.10214569 1.7510688 0.15321852
0.029184481 0.116737925 1.6270348 0.06566508 0.02188836 1.6854038 1.82403 1.7145883
1.8313262 1.816734 0.04377672 1.816734 1.6416271 1.7072922 0.072961204 1.8459184
1.8094379 1.7948456 1.8094379 1.8386223 0.13133016 1.7729572 1.7656611 1.758365
0.1094418 0.13862629 0.072961204 1.8386223 0.0 1.7145883 1.634331 1.517593
0.16051465 1.7145883 1.7729572 1.6781076 1.7218844 0.036480602 0.072961204 1.82403
1.7218844 1.7437727 0.13133016 0.116737925 1.7948456 0.18240301 0.18969913 1.8459184
0.0072961203 0.2480681 1.8021417 0.16051465 0.0 0.036480602 0.06566508 1.575962
1.7875495 0.072961204 1.8605107 0.014592241 1.6635154 0.072961204 1.7364767 0.014592241
0.072961204 0.29184482 1.7145883 1.758365 1.816734 1.6926999 1.82403 1.7291805
0.15321852 1.7875495 0.35750988 0.0072961203 0.20429137 1.7948456 1.7437727 1.7656611
0.0 1.7218844 1.7291805 0.18969913 1.7072922 1.6781076 1.7948456 0.029184481
1.8313262 0.13133016 0.14592241 0.17510688 0.051072843 1.7510688 1.7364767 0.17510688
1.7802533 1.758365 1.8021417 1.634331 1.7948456 1.816734 1.8021417 0.036480602
1.758365 0.058368962 1.7072922 0.26266032 1.7729572 1.8094379 1.8386223 1.7656611
1.7364767 1.8021417 0.26995644 0.24077196 0.10214569 0.0072961203 0.02188836 1.8094379
0.19699524 0.029184481 1.7875495 0.094849564 1.8094379 1.8605107 1.5978503 1.6926999
0.08025733 1.7218844 0.072961204 0.029184481 1.7510688 0.12403405 1.7729572 1.8605107
