raspberry_pi/models/gunshot_sound_model.tflite (tflite, 333464 bytes, 22 tensors)

conv1d/conv1d/ExpandDims_1 f4 [1, 1, 9, 16]
000000 7b 44 00 be 89 22 d4 3e da 27 66 3d 17 18 b2 be
       -0.12526123 0.41432598 0.05619035 -0.34784004
000010 51 39 e6 be 72 68 fd be 54 12 dc be 4e 46 15 3f
       -0.44965604 -0.49493748 -0.42982733 0.583104
000020 a7 4f 2d 3d aa 3a ee be 5a 9e 45 bf b5 1b 92 be
       0.04231229 -0.46529132 -0.7719475 -0.28536764
000030 99 0b 75 bd d7 82 2a bf f3 93 3f 3d 16 bf 78 be
       -0.059825514 -0.66605896 0.046771955 -0.24291644
000040 88 d0 f2 3c 94 da e9 bd f1 5f ec 3e 54 c7 17 3f
       0.029640451 -0.114186436 0.46166947 0.59288526
000050 4d ab 9d 3e f1 f9 e5 3e d0 a4 45 3f f6 fa 99 3e
       0.30794755 0.44917253 0.7720461 0.3007428
000060 bf a4 f4 3c d4 58 9c 3e ee ce 6e 3d ed ef 46 3f
       0.029863713 0.3053652 0.058302812 0.7770985
000070 1e cb 35 3e 8f c4 d5 3b 4c 0d 0a 3f c8 af 9f 3e
       0.17753264 0.0065236758 0.5392654 0.31188798
000080 6e 3d 84 3e 34 6e e9 3c cc 25 89 3e 02 1c d8 be
       0.25828117 0.028494932 0.2678665 -0.42208868
000090 ec 41 29 bf ee 2d 68 bd 9d 69 ec be e6 45 f0 be
       -0.66116214 -0.056684427 -0.46174327 -0.46928328
0000a0 da bd f3 3e 11 9f 25 3f d9 a8 f3 3e 7f 4d 36 be
       0.47605783 0.6469584 0.47589758 -0.17803
0000b0 f5 5a 09 bf 48 bc 92 3e 37 c3 2e bf 34 b5 86 3d
       -0.53654414 0.28659272 -0.68266624 0.065775305
0000c0 e1 d8 b1 3e 93 0e 37 bf 71 df 2a 3e 01 d5 ec be
       0.34735778 -0.71506613 0.16686799 -0.4625626
0000d0 5d 55 9c 3e e2 6a 71 be 29 6d bd 3e a0 3c 0d bf
       0.30533877 -0.23575929 0.36997345 -0.5517063
0000e0 84 1c e7 3d 1d c6 59 be 67 3e 2d bd 98 e3 9d be
       0.11284736 -0.2126698 -0.04229584 -0.30837703
0000f0 17 6d ef be 62 72 ff 3e b0 1d b5 3e 1a 45 4d 3d
       -0.46762916 0.49891955 0.35374212 0.05011473
000100 fe a0 f0 3d 31 81 ef 3d 30 60 85 3e 06 f2 ab 3e
       0.11749457 0.11694563 0.26049948 0.33583087
000110 14 62 29 3d 0b 96 73 be 24 56 ae bd 8b ea 80 3e
       0.0413533 -0.23787706 -0.08512524 0.25178942
000120 fc 72 31 bf 86 f4 8a 3d 8d e8 1e bf 31 fb 5b 3e
       -0.6931608 0.067849204 -0.62073594 0.2148254
000130 12 9e 4e be d7 f3 8f 3e 77 f1 89 be 57 2a 13 3e
       -0.20177487 0.28115723 -0.26942036 0.1437162
000140 8d e2 3f bf 15 ec 12 3e a2 54 b8 3d 2c 08 1f 3f
       -0.74955064 0.1434787 0.090005174 0.62121844
000150 21 38 b6 3e 52 7f 41 3d 73 4c 54 3d 4d f0 8b 3e
       0.35589698 0.047240563 0.05183072 0.27331772
000160 f8 6b a9 bd f5 6b 4e 3e db 82 db bd 13 3d 44 3d
       -0.082725465 0.2015837 -0.10718318 0.047909807
000170 47 af 78 be 79 70 b4 be 8b a0 54 be b5 ac 5d 3e
       -0.24285613 -0.3524206 -0.20764367 0.21647914
000180 e2 20 b5 bd e4 f4 03 3f 0e f1 61 be 5c b3 03 bf
       -0.088441625 0.5154555 -0.22064611 -0.51445556
000190 95 6e 97 be be 97 25 be 6f aa df be de 13 d0 3e
       -0.29576555 -0.16171166 -0.43684718 0.40640157
0001a0 a8 5a dc 3e a5 3e 65 be 3c bb 12 3f 5b e1 6e 3d
       0.43037915 -0.22387178 0.57316947 0.058320384
0001b0 35 ee 8b 3e 23 44 67 be eb 70 d3 bd f9 92 ce bd
       0.27330175 -0.22584586 -0.10324272 -0.100866266
0001c0 c2 06 6e 3e 6f 6c 94 bd 23 75 ee 3d 14 5f 16 3f
       0.23244765 -0.072472446 0.11643436 0.5873883
0001d0 f2 60 9b be 43 50 7e be 9b da ba 3e e6 21 2c bf
       -0.303474 -0.24835305 0.36494908 -0.67239225
0001e0 71 56 e3 3d ae 92 ab be e6 28 5c bc ad 35 e7 be
       0.11100472 -0.33510345 -0.013437485 -0.4515814
0001f0 5f 75 03 bf b7 49 b2 3e e1 39 1d 3f 1d 29 6f 3e
       -0.5135097 0.34821865 0.6141644 0.23355527
000200 7f 91 1e be fd 74 86 3e 2a 4f 3d be 79 d7 43 be
       -0.1548519 0.2626113 -0.1848723 -0.19125165
000210 b2 9d 35 bd 09 4b c8 be 5a 8e 08 bf c7 4b a4 be
       -0.044339843 -0.39119747 -0.5334221 -0.32089064
000220 c7 ca 2d bf 0c 83 e9 be 6a b0 4d 3e 85 5a 1d 3f
       -0.6788754 -0.45607793 0.20086828 0.61466247
000230 f0 c5 5b bb 2d 4f 55 3f 64 f4 1c be ab 2a f1 bd
       -0.0033534728 0.8332394 -0.15327603 -0.117757164

conv1d/conv1d_bias f4 [16]
000000 f8 2f 06 bc ff b7 f6 3c 25 48 f5 bd 2e 00 7e 3a
       -0.008190148 0.030117033 -0.11976651 0.0009689358
000010 ca cb 35 3c dd 5d 4c 3c 2a 19 de 3b 97 8f 02 3d
       0.01109595 0.012473551 0.006777902 0.03187522
000020 5f 87 ea bc a3 d4 21 3a 6f c5 50 bb 0b c8 f8 3c
       -0.028629003 0.0006173348 -0.003185596 0.030368825
000030 59 62 d7 3b ec a9 c6 3c 5e 4c 3e 3c c8 74 60 3c
       0.0065730033 0.024250947 0.011614887 0.013699718

conv1d_1/conv1d/ExpandDims_1 i1 [16, 1, 9, 16] scale=0.009956433 zero_point=0
000000 01 ee ef 07 06 ef ef 03 f2 05 f5 09 f6 f2 04 ff
       0.009956433 -0.1792158 -0.16925937 0.06969503 0.0597386 -0.16925937 -0.16925937 0.0298693 -0.13939007 0.049782168 -0.10952077 0.0896079 -0.099564336 -0.13939007 0.039825734 -0.009956433
000010 f7 f3 0c f2 fb f0 f1 03 00 fc f6 f2 f3 00 fb f1
       -0.0896079 -0.12943363 0.1194772 -0.13939007 -0.049782168 -0.15930294 -0.1493465 0.0298693 0.0 -0.039825734 -0.099564336 -0.13939007 -0.12943363 0.0 -0.049782168 -0.1493465
000020 f9 02 02 00 f9 08 07 f5 f6 f5 ed f7 f7 f1 06 09
       -0.06969503 0.019912867 0.019912867 0.0 -0.06969503 0.07965147 0.06969503 -0.10952077 -0.099564336 -0.10952077 -0.18917224 -0.0896079 -0.0896079 -0.1493465 0.0597386 0.0896079
000030 08 ef 00 03 f0 fd 03 fb f0 f8 fd f5 ef f9 f0 fd
       0.07965147 -0.16925937 0.0 0.0298693 -0.15930294 -0.0298693 0.0298693 -0.049782168 -0.15930294 -0.07965147 -0.0298693 -0.10952077 -0.16925937 -0.06969503 -0.15930294 -0.0298693
000040 f0 ee f0 f0 05 01 f0 04 f7 06 02 fd fd f0 fe 06
       -0.15930294 -0.1792158 -0.15930294 -0.15930294 0.049782168 0.009956433 -0.15930294 0.039825734 -0.0896079 0.0597386 0.019912867 -0.0298693 -0.0298693 -0.15930294 -0.019912867 0.0597386
000050 05 fe f6 fe ed ed fa fd f7 0c ee 04 03 06 f9 f1
       0.049782168 -0.019912867 -0.099564336 -0.019912867 -0.18917224 -0.18917224 -0.0597386 -0.0298693 -0.0896079 0.1194772 -0.1792158 0.039825734 0.0298693 0.0597386 -0.06969503 -0.1493465
000060 fb f4 f5 f1 08 08 f6 0a 06 f6 fe 02 f0 fa f9 02
       -0.049782168 -0.1194772 -0.10952077 -0.1493465 0.07965147 0.07965147 -0.099564336 0.099564336 0.0597386 -0.099564336 -0.019912867 0.019912867 -0.15930294 -0.0597386 -0.06969503 0.019912867
000070 07 f3 fb 07 01 f0 f8 ff fd f0 03 f8 07 03 f3 f7
       0.06969503 -0.12943363 -0.049782168 0.06969503 0.009956433 -0.15930294 -0.07965147 -0.009956433 -0.0298693 -0.15930294 0.0298693 -0.07965147 0.06969503 0.0298693 -0.12943363 -0.0896079
000080 03 04 fa f7 fb f4 0b 04 f5 f5 00 f8 f5 f9 04 f9
       0.0298693 0.039825734 -0.0597386 -0.0896079 -0.049782168 -0.1194772 0.10952077 0.039825734 -0.10952077 -0.10952077 0.0 -0.07965147 -0.10952077 -0.06969503 0.039825734 -0.06969503
000090 e4 d7 01 18 09 0c 28 ec fa fd e0 ef e3 d7 1a fc
       -0.27878013 -0.40821376 0.009956433 0.2389544 0.0896079 0.1194772 0.39825734 -0.19912867 -0.0597386 -0.0298693 -0.31860587 -0.16925937 -0.28873658 -0.40821376 0.25886726 -0.039825734
0000a0 00 11 e1 06 c7 d3 cf 05 d4 f5 f5 2c 1a 02 d1 fd
       0.0 0.16925937 -0.30864945 0.0597386 -0.5675167 -0.4480395 -0.48786524 0.049782168 -0.43808308 -0.10952077 -0.10952077 0.43808308 0.25886726 0.019912867 -0.46795237 -0.0298693
0000b0 ea db ee 09 26 f0 27 db 01 07 f3 df f3 ee 2e 02
       -0.21904154 -0.36838803 -0.1792158 0.0896079 0.37834448 -0.15930294 0.3883009 -0.36838803 0.009956433 0.06969503 -0.12943363 -0.3285623 -0.12943363 -0.1792158 0.45799595 0.019912867
0000c0 0a 2b 0f fb c2 08 eb 1a f5 26 01 e5 e6 f7 cb 06
       0.099564336 0.42812663 0.1493465 -0.049782168 -0.6172989 0.07965147 -0.2090851 0.25886726 -0.10952077 0.37834448 0.009956433 -0.2688237 -0.25886726 -0.0896079 -0.52769095 0.0597386
0000d0 02 c7 09 15 2a 20 2f f0 f1 26 12 28 0c 02 23 17
       0.019912867 -0.5675167 0.0896079 0.2090851 0.4181702 0.31860587 0.46795237 -0.15930294 -0.1493465 0.37834448 0.1792158 0.39825734 0.1194772 0.019912867 0.34847516 0.22899798
0000e0 00 1d e4 e7 b9 0a f9 f2 f6 11 de cb e6 d5 f1 d1
       0.0 0.28873658 -0.27878013 -0.24891083 -0.7069068 0.099564336 -0.06969503 -0.13939007 -0.099564336 0.16925937 -0.33851874 -0.52769095 -0.25886726 -0.42812663 -0.1493465 -0.46795237
0000f0 f2 d1 06 12 1b 1b 07 f2 10 fa 13 25 0e 0a f3 04
       -0.13939007 -0.46795237 0.0597386 0.1792158 0.2688237 0.2688237 0.06969503 -0.13939007 0.15930294 -0.0597386 0.18917224 0.36838803 0.13939007 0.099564336 -0.12943363 0.039825734

conv1d_1/conv1d_bias f4 [16]
000000 ae bf 34 bd 31 e3 4a 3a ae f2 e3 bd 95 4e c0 bc
       -0.044128112 0.00077395426 -0.11130272 -0.02347497
000010 b7 e9 b6 ba 5b 96 9a bc eb 0e 0e bd c7 eb e4 bc
       -0.001395515 -0.018870523 -0.034682196 -0.027944459
000020 01 cf a9 3c 68 e1 cf 3c b7 72 b2 3d 44 b8 1a bc
       0.02072859 0.025376037 0.08713286 -0.009443346
000030 34 e6 85 be f2 7d 9d 3b 99 d8 f7 bd a9 0c 2e bb
       -0.26152194 0.0048062736 -0.121018596 -0.002655784

conv1d_2/conv1d/ExpandDims_1 i1 [32, 1, 3, 16] scale=0.011813181 zero_point=0
000000 f4 02 f7 16 02 02 f2 06 f2 dc ef ec 03 1f 06 f0
       -0.14175817 0.023626363 -0.10631863 0.25989 0.023626363 0.023626363 -0.16538455 0.07087909 -0.16538455 -0.42527452 -0.20082408 -0.23626363 0.035439543 0.3662086 0.07087909 -0.1890109
000010 ef f4 e7 0c f7 04 19 f1 e3 ed 2f e6 06 18 1e e1
       -0.20082408 -0.14175817 -0.29532954 0.14175817 -0.10631863 0.047252726 0.29532954 -0.17719772 -0.34258226 -0.22445045 0.55521953 -0.3071427 0.07087909 0.28351635 0.35439545 -0.3662086
000020 0c 02 f6 04 05 fb f3 07 f2 fb 14 e1 f4 eb cf f6
       0.14175817 0.023626363 -0.11813182 0.047252726 0.05906591 -0.05906591 -0.15357135 0.08269227 -0.16538455 -0.05906591 0.23626363 -0.3662086 -0.14175817 -0.24807681 -0.5788459 -0.11813182
000030 08 f9 0a 15 00 f8 e0 f7 ef 0d 17 1f 21 21 21 0a
       0.09450545 -0.08269227 0.11813182 0.24807681 0.0 -0.09450545 -0.3780218 -0.10631863 -0.20082408 0.15357135 0.27170318 0.3662086 0.389835 0.389835 0.389835 0.11813182
000040 0e 07 fd 08 15 0e ec 08 0c 00 05 1a 0a e9 eb 00
       0.16538455 0.08269227 -0.035439543 0.09450545 0.24807681 0.16538455 -0.23626363 0.09450545 0.14175817 0.0 0.05906591 0.3071427 0.11813182 -0.27170318 -0.24807681 0.0
000050 fe 0e e7 f7 0e fc 02 01 07 02 e8 06 f1 f0 ed f4
       -0.023626363 0.16538455 -0.29532954 -0.10631863 0.16538455 -0.047252726 0.023626363 0.011813181 0.08269227 0.023626363 -0.28351635 0.07087909 -0.17719772 -0.1890109 -0.22445045 -0.14175817
000060 08 eb df e0 e9 09 0f 0c f6 ef 2b 00 13 f8 f3 ec
       0.09450545 -0.24807681 -0.389835 -0.3780218 -0.27170318 0.10631863 0.17719772 0.14175817 -0.11813182 -0.20082408 0.5079668 0.0 0.22445045 -0.09450545 -0.15357135 -0.23626363
000070 f2 ee 06 16 04 00 e4 fb ef 00 08 f6 1e 09 02 fd
       -0.16538455 -0.21263726 0.07087909 0.25989 0.047252726 0.0 -0.3307691 -0.05906591 -0.20082408 0.0 0.09450545 -0.11813182 0.35439545 0.10631863 0.023626363 -0.035439543
000080 0b dd 06 25 04 f3 0c fd ff eb 17 ec 21 03 f8 03
       0.129945 -0.41346136 0.07087909 0.4370877 0.047252726 -0.15357135 0.14175817 -0.035439543 -0.011813181 -0.24807681 0.27170318 -0.23626363 0.389835 0.035439543 -0.09450545 0.035439543
000090 03 16 f3 fa ec fe 15 fe 08 ec 24 ff f1 f0 d8 1a
       0.035439543 0.25989 -0.15357135 -0.07087909 -0.23626363 -0.023626363 0.24807681 -0.023626363 0.09450545 -0.23626363 0.42527452 -0.011813181 -0.17719772 -0.1890109 -0.47252727 0.3071427
0000a0 07 ff 05 23 f3 08 18 fc fb d2 eb eb f3 1d ff 0f
       0.08269227 -0.011813181 0.05906591 0.41346136 -0.15357135 0.09450545 0.28351635 -0.047252726 -0.05906591 -0.54340637 -0.24807681 -0.24807681 -0.15357135 0.34258226 -0.011813181 0.17719772
0000b0 0b f6 cd 16 ef 08 f7 13 f8 dc 08 e9 fd fd b7 fc
       0.129945 -0.11813182 -0.60247225 0.25989 -0.20082408 0.09450545 -0.10631863 0.22445045 -0.09450545 -0.42527452 0.09450545 -0.27170318 -0.035439543 -0.035439543 -0.86236227 -0.047252726
0000c0 05 ec e9 fd 04 11 de f4 f7 02 31 16 db df eb 11
       0.05906591 -0.23626363 -0.27170318 -0.035439543 0.047252726 0.20082408 -0.40164816 -0.14175817 -0.10631863 0.023626363 0.5788459 0.25989 -0.4370877 -0.389835 -0.24807681 0.20082408
0000d0 0b f2 e2 f4 0d 0d fa 11 fe ff e1 04 bf 11 00 ed
       0.129945 -0.16538455 -0.35439545 -0.14175817 0.15357135 0.15357135 -0.07087909 0.20082408 -0.023626363 -0.011813181 -0.3662086 0.047252726 -0.7678568 0.20082408 0.0 -0.22445045
0000e0 fb e9 d4 01 ea f8 22 fe ee df 13 e9 e8 f6 f4 de
       -0.05906591 -0.27170318 -0.51978 0.011813181 -0.25989 -0.09450545 0.40164816 -0.023626363 -0.21263726 -0.389835 0.22445045 -0.27170318 -0.28351635 -0.11813182 -0.14175817 -0.40164816
0000f0 ed fb e6 ef d6 f4 22 0e f5 f3 db d4 e5 f2 fa ff
       -0.22445045 -0.05906591 -0.3071427 -0.20082408 -0.49615362 -0.14175817 0.40164816 0.16538455 -0.129945 -0.15357135 -0.4370877 -0.51978 -0.3189559 -0.16538455 -0.07087909 -0.011813181

conv1d_2/conv1d_bias f4 [32]
000000 a7 ce 00 bc e5 c2 8b be bd 89 b1 3d 3c cf 87 bd
       -0.00786177 -0.2729713 0.086688496 -0.06631324
000010 1c f6 b4 3d 8d 80 5a bd 31 a0 16 3e 5e 02 52 3d
       0.08836004 -0.05334525 0.14709546 0.05127179
000020 80 86 dc bd 1e ee ff bd ac 01 7d bd f9 82 cc 3d
       -0.10767841 -0.12496589 -0.061769173 0.099859186
000030 c7 8a c2 3d b1 d0 e9 bd 1a 00 a9 39 f9 d2 15 3e
       0.09499126 -0.11416758 0.00032234268 0.14631261
000040 9d 65 96 3b 70 76 a7 3d 26 3a 42 3d 13 b1 d9 3d
       0.00458975 0.08176887 0.047418736 0.10629477
000050 31 84 08 bc 63 19 fa 3c 2c ed 2e 3d f7 85 09 3c
       -0.008332298 0.030529683 0.042706653 0.008393756
000060 6d 28 d4 be 2a fa eb 3b b0 0a 09 bd 9d 14 25 3e
       -0.41437092 0.0072014527 -0.033457458 0.16121145
000070 af 5f 0b 3d 47 fe 56 bd c2 d8 8f 3d df c4 14 3d
       0.034026798 -0.05248859 0.07023765 0.036320563

conv1d_3/conv1d/ExpandDims_1 i1 [32, 1, 3, 32] scale=0.009543135 zero_point=0
000000 09 fa d7 16 10 29 0b e9 07 16 ed e6 f2 e3 01 f6
       0.085888214 -0.057258807 -0.39126852 0.20994897 0.15269016 0.39126852 0.104974486 -0.21949211 0.06680194 0.20994897 -0.18131956 -0.2481215 -0.13360389 -0.27675092 0.009543135 -0.09543135
000010 f8 10 e9 f6 10 0a d0 23 08 21 0e 11 1d f0 12 09
       -0.07634508 0.15269016 -0.21949211 -0.09543135 0.15269016 0.09543135 -0.45807046 0.3340097 0.07634508 0.31492344 0.13360389 0.1622333 0.27675092 -0.15269016 0.17177643 0.085888214
000020 18 01 ef f7 d0 20 e9 03 16 f4 b1 f3 de e2 2e f7
       0.22903523 0.009543135 -0.1622333 -0.085888214 -0.45807046 0.3053803 -0.21949211 0.028629404 0.20994897 -0.114517614 -0.7539077 -0.12406075 -0.3244666 -0.28629404 0.43898422 -0.085888214
000030 fa 2a 02 17 f1 ef c1 ed 19 c6 10 1b fd 14 07 00
       -0.057258807 0.40081167 0.01908627 0.21949211 -0.14314702 -0.1622333 -0.6012175 -0.18131956 0.23857836 -0.55350184 0.15269016 0.25766465 -0.028629404 0.1908627 0.06680194 0.0
000040 0d d7 0c d8 f6 23 12 18 0f e5 fa 28 fb d3 16 ed
       0.12406075 -0.39126852 0.114517614 -0.3817254 -0.09543135 0.3340097 0.17177643 0.22903523 0.14314702 -0.25766465 -0.057258807 0.3817254 -0.047715675 -0.42944106 0.20994897 -0.18131956
000050 1f f5 15 17 15 08 f2 f1 34 01 08 1f 02 fa 02 15
       0.2958372 -0.104974486 0.20040584 0.21949211 0.20040584 0.07634508 -0.13360389 -0.14314702 0.496243 0.009543135 0.07634508 0.2958372 0.01908627 -0.057258807 0.01908627 0.20040584
000060 ee f9 da e2 ef f3 fc fd 0e 0b f7 f3 f2 e2 f5 f6
       -0.17177643 -0.06680194 -0.36263913 -0.28629404 -0.1622333 -0.12406075 -0.03817254 -0.028629404 0.13360389 0.104974486 -0.085888214 -0.12406075 -0.13360389 -0.28629404 -0.104974486 -0.09543135
000070 18 06 11 f8 05 fb f2 0c f4 05 08 00 fb db 11 11
       0.22903523 0.057258807 0.1622333 -0.07634508 0.047715675 -0.047715675 -0.13360389 0.114517614 -0.114517614 0.047715675 0.07634508 0.0 -0.047715675 -0.35309598 0.1622333 0.1622333
000080 09 f2 00 02 d7 f6 fa cc 0f dd cd 02 11 fc 36 ea
       0.085888214 -0.13360389 0.0 0.01908627 -0.39126852 -0.09543135 -0.057258807 -0.496243 0.14314702 -0.3340097 -0.48669988 0.01908627 0.1622333 -0.03817254 0.5153293 -0.20994897
000090 f1 15 e5 01 ed dd bb db 20 fb 03 03 16 e3 14 01
       -0.14314702 0.20040584 -0.25766465 0.009543135 -0.18131956 -0.3340097 -0.6584763 -0.35309598 0.3053803 -0.047715675 0.028629404 0.028629404 0.20994897 -0.27675092 0.1908627 0.009543135
0000a0 fb f0 27 0f 06 19 25 d6 05 e8 f7 04 f8 df 13 e6
       -0.047715675 -0.15269016 0.37218225 0.14314702 0.057258807 0.23857836 0.35309598 -0.40081167 0.047715675 -0.22903523 -0.085888214 0.03817254 -0.07634508 -0.31492344 0.18131956 -0.2481215
0000b0 0d ef 05 ff ea 04 d8 03 33 12 1b ed f1 13 f4 e6
       0.12406075 -0.1622333 0.047715675 -0.009543135 -0.20994897 0.03817254 -0.3817254 0.028629404 0.48669988 0.17177643 0.25766465 -0.18131956 -0.14314702 0.18131956 -0.114517614 -0.2481215
0000c0 17 f5 ef 02 00 04 ea ef f0 18 0f ee cf e7 ea f7
       0.21949211 -0.104974486 -0.1622333 0.01908627 0.0 0.03817254 -0.20994897 -0.1622333 -0.15269016 0.22903523 0.14314702 -0.17177643 -0.4676136 -0.23857836 -0.20994897 -0.085888214
0000d0 32 f4 fe 00 0a 0b cb 07 f3 0a 2b f6 f8 00 ff fd
       0.47715673 -0.114517614 -0.01908627 0.0 0.09543135 0.104974486 -0.5057861 0.06680194 -0.12406075 0.09543135 0.4103548 -0.09543135 -0.07634508 0.0 -0.009543135 -0.028629404
0000e0 2b 1e e8 03 e6 f3 b5 0e e5 17 f6 f2 a6 14 fd d5
       0.4103548 0.28629404 -0.22903523 0.028629404 -0.2481215 -0.12406075 -0.71573514 0.13360389 -0.25766465 0.21949211 -0.09543135 -0.13360389 -0.8588821 0.1908627 -0.028629404 -0.4103548
0000f0 1c 02 2e 0e 08 f9 c3 eb ef ef 02 0a 02 15 22 02
       0.26720777 0.01908627 0.43898422 0.13360389 0.07634508 -0.06680194 -0.5821312 -0.20040584 -0.1622333 -0.1622333 0.01908627 0.09543135 0.01908627 0.20040584 0.3244666 0.01908627

conv1d_3/conv1d_bias f4 [32]
000000 d6 8b 6a bd 4d 83 fd bb 72 dc c0 bc e4 35 e8 bd
       -0.057262264 -0.0077365995 -0.023542617 -0.11338404
000010 c6 0f 8e 3d 17 37 64 3d e6 2f 9b 3c 58 ff 2e bd
       0.06936602 0.0557166 0.018943738 -0.042723984
000020 33 77 f9 bb f7 07 9a 3d 91 d1 0a 3d ee bb 29 be
       -0.0076130866 0.075210504 0.033891264 -0.16575596
000030 73 25 df 3c 12 a3 8d bd cb 89 9a bc b7 1e b2 bc
       0.027239537 -0.06915869 -0.018864533 -0.021743162
000040 1e 28 92 bd 27 13 d2 bd ad ef 49 3d 99 10 af 3d
       -0.07136558 -0.10257559 0.04930084 0.085480876
000050 7b d9 fb 3b e4 8a c7 be 42 66 52 bd 88 2c 2d be
       0.007685838 -0.38973153 -0.051367052 -0.16911519
000060 2c 96 48 bc cb 97 44 3d 70 f4 9a bd 07 47 02 3e
       -0.012242835 0.047996324 -0.07566154 0.12722407
000070 39 94 48 be b0 9d 24 be c7 ef 8d 3b c3 c3 41 3d
       -0.19587792 -0.16075778 0.004331562 0.047305834

conv1d_4/conv1d/ExpandDims_1 i1 [32, 1, 3, 32] scale=0.012549591 zero_point=0
000000 ab d9 c8 e1 01 ed 08 d1 d6 c5 f5 ec e9 d5 f1 e8
       -1.0667152 -0.48943406 -0.7027771 -0.38903734 0.012549591 -0.23844223 0.10039673 -0.5898308 -0.52708286 -0.7404259 -0.1380455 -0.25099182 -0.2886406 -0.53963244 -0.18824387 -0.3011902
000010 f3 da fe e0 dc f0 d8 c9 e2 da c6 e4 e0 e6 e9 b8
       -0.1631447 -0.47688445 -0.025099183 -0.40158692 -0.4517853 -0.20079346 -0.50198364 -0.6902275 -0.37648773 -0.47688445 -0.7278763 -0.35138854 -0.40158692 -0.3262894 -0.2886406 -0.9035706
000020 eb f6 e0 bc 01 17 0b ec eb ff 01 f6 23 e6 0a e8
       -0.26354143 -0.12549591 -0.40158692 -0.8533722 0.012549591 0.2886406 0.1380455 -0.25099182 -0.26354143 -0.012549591 0.012549591 -0.12549591 0.4392357 -0.3262894 0.12549591 -0.3011902
000030 02 d0 08 00 0b 0a dd e9 0f fd c9 f3 e2 00 f8 fb
       0.025099183 -0.6023804 0.10039673 0.0 0.1380455 0.12549591 -0.4392357 -0.2886406 0.18824387 -0.037648775 -0.6902275 -0.1631447 -0.37648773 0.0 -0.10039673 -0.062747955
000040 06 02 1a 02 2c 17 03 12 1c 1b 0f 11 29 f3 06 02
       0.07529755 0.025099183 0.3262894 0.025099183 0.552182 0.2886406 0.037648775 0.22589265 0.35138854 0.33883896 0.18824387 0.21334305 0.5145332 -0.1631447 0.07529755 0.025099183
000050 19 f1 09 10 22 d8 f8 fe 15 0d d3 13 0d ec 1a 07
       0.31373978 -0.18824387 0.112946324 0.20079346 0.4266861 -0.50198364 -0.10039673 -0.025099183 0.26354143 0.1631447 -0.5647316 0.23844223 0.1631447 -0.25099182 0.3262894 0.087847136
000060 d2 e2 00 e5 0c 08 dc 09 fc 0d ee fd e6 e2 e2 f9
       -0.5772812 -0.37648773 0.0 -0.33883896 0.1505951 0.10039673 -0.4517853 0.112946324 -0.050198365 0.1631447 -0.22589265 -0.037648775 -0.3262894 -0.37648773 -0.37648773 -0.087847136
000070 f8 e9 c9 f9 09 fc 0b db 16 f0 0c e7 e0 f5 08 ff
       -0.10039673 -0.2886406 -0.6902275 -0.087847136 0.112946324 -0.050198365 0.1380455 -0.46433488 0.276091 -0.20079346 0.1505951 -0.31373978 -0.40158692 -0.1380455 0.10039673 -0.012549591
000080 09 f7 23 fb 03 0d fc 0e f2 f9 06 14 18 ef f7 0a
       0.112946324 -0.112946324 0.4392357 -0.062747955 0.037648775 0.1631447 -0.050198365 0.17569427 -0.17569427 -0.087847136 0.07529755 0.25099182 0.3011902 -0.21334305 -0.112946324 0.12549591
000090 12 f4 e0 f4 11 02 f3 ec 0d 19 24 e3 01 09 03 0d
       0.22589265 -0.1505951 -0.40158692 -0.1505951 0.21334305 0.025099183 -0.1631447 -0.25099182 0.1631447 0.31373978 0.4517853 -0.36393815 0.012549591 0.112946324 0.037648775 0.1631447
0000a0 f8 ee e0 fd f4 06 26 13 19 f2 06 04 e6 f3 05 f6
       -0.10039673 -0.22589265 -0.40158692 -0.037648775 -0.1505951 0.07529755 0.47688445 0.23844223 0.31373978 -0.17569427 0.07529755 0.050198365 -0.3262894 -0.1631447 0.062747955 -0.12549591
0000b0 f8 fc d8 fd 0e 25 05 fc 07 ef 15 df fc 1c 04 da
       -0.10039673 -0.050198365 -0.50198364 -0.037648775 0.17569427 0.46433488 0.062747955 -0.050198365 0.087847136 -0.21334305 0.26354143 -0.4141365 -0.050198365 0.35138854 0.050198365 -0.47688445
0000c0 f6 f5 03 f5 06 06 f6 04 11 f2 00 f2 0a f3 df f2
       -0.12549591 -0.1380455 0.037648775 -0.1380455 0.07529755 0.07529755 -0.12549591 0.050198365 0.21334305 -0.17569427 0.0 -0.17569427 0.12549591 -0.1631447 -0.4141365 -0.17569427
0000d0 10 f5 00 f2 ff d4 03 f6 04 f3 18 f3 e5 dc f4 eb
       0.20079346 -0.1380455 0.0 -0.17569427 -0.012549591 -0.552182 0.037648775 -0.12549591 0.050198365 -0.1631447 0.3011902 -0.1631447 -0.33883896 -0.4517853 -0.1505951 -0.26354143
0000e0 f7 ef 0d fd 05 04 f6 04 f9 0e 08 eb fb f4 01 ff
       -0.112946324 -0.21334305 0.1631447 -0.037648775 0.062747955 0.050198365 -0.12549591 0.050198365 -0.087847136 0.17569427 0.10039673 -0.26354143 -0.062747955 -0.1505951 0.012549591 -0.012549591
0000f0 0b e1 fe 00 f0 02 06 ec 07 e9 ff f6 c2 01 12 02
       0.1380455 -0.38903734 -0.025099183 0.0 -0.20079346 0.025099183 0.07529755 -0.25099182 0.087847136 -0.2886406 -0.012549591 -0.12549591 -0.7780747 0.012549591 0.22589265 0.025099183

conv1d_4/conv1d_bias f4 [32]
000000 09 78 27 3d 84 90 ec bb 93 0f 2c be c2 99 2c be
       0.04088596 -0.007219376 -0.16802816 -0.16855529
000010 f9 e4 aa 3d a1 cf ca bd 1b af 17 bd a2 df 2a be
       0.08344454 -0.09902883 -0.037032228 -0.16686872
000020 58 01 42 3d fa cc 00 bd 8f 67 bf 3d 16 ee 90 bd
       0.047364563 -0.03144548 0.09345924 -0.07076661
000030 5c 6b 18 3d 26 91 77 be 78 93 6d be 03 0e 24 bd
       0.03721176 -0.24176463 -0.23200786 -0.040052425
000040 9e 20 63 be 7b 6b 6f bd 31 3c 29 be 65 de b2 be
       -0.22180411 -0.05845211 -0.16526867 -0.349353
000050 cd a3 10 3d 2d 2d e6 be 24 3d 93 bd d4 ad 2c 3d
       0.035312463 -0.4495634 -0.07189396 0.042157963
000060 fb 75 16 bc b3 31 96 bd f2 90 08 3e 75 49 93 bd
       -0.009183402 -0.07333698 0.13336542 -0.07191745
000070 7b 9e 8a 3d 6d 06 53 3c b2 f9 3e be 0a a9 a0 be
       0.06768509 0.01287995 -0.18649939 -0.31378967

conv1d_5/conv1d/ExpandDims_1 i1 [32, 1, 3, 32] scale=0.008731924 zero_point=0
000000 ab da 91 eb db 0d dc 29 02 d6 b4 eb e8 04 83 e5
       -0.74221355 -0.3318131 -0.9692436 -0.18337041 -0.3230812 0.11351501 -0.31434926 0.3580089 0.017463848 -0.36674082 -0.6636262 -0.18337041 -0.20956618 0.034927696 -1.0914905 -0.23576194
000010 ec cd 16 d6 29 f4 40 d4 e0 d2 1c 90 0c ca 08 1f
       -0.17463848 -0.44532812 0.19210233 -0.36674082 0.3580089 -0.10478309 0.55884314 -0.38420466 -0.27942157 -0.4016685 0.24449387 -0.9779755 0.10478309 -0.47152388 0.06985539 0.27068964
000020 11 f8 cb f9 20 cf d8 e1 ee f4 17 f4 03 04 e8 fd
       0.14844272 -0.06985539 -0.46279198 -0.061123468 0.27942157 -0.42786428 -0.34927696 -0.27068964 -0.15717463 -0.10478309 0.20083424 -0.10478309 0.026195772 0.034927696 -0.20956618 -0.026195772
000030 ee 02 09 13 f8 0c f1 fb 2b f3 f5 f3 12 03 1c f6
       -0.15717463 0.017463848 0.078587316 0.16590655 -0.06985539 0.10478309 -0.13097885 -0.04365962 0.37547272 -0.11351501 -0.096051164 -0.11351501 0.15717463 0.026195772 0.24449387 -0.08731924
000040 e4 38 26 fb fe ef ec ff 23 f3 1b ee 03 02 22 07
       -0.24449387 0.48898774 0.3318131 -0.04365962 -0.017463848 -0.14844272 -0.17463848 -0.008731924 0.30561733 -0.11351501 0.23576194 -0.15717463 0.026195772 0.017463848 0.29688543 0.061123468
000050 1c dc 19 19 1a 0f ed 02 ec 12 df 14 fd 0b 0f cc
       0.24449387 -0.31434926 0.2182981 0.2182981 0.22703002 0.13097885 -0.16590655 0.017463848 -0.17463848 0.15717463 -0.2881535 0.17463848 -0.026195772 0.096051164 0.13097885 -0.45406005
000060 0d fd fb ca fc 32 10 0d f2 ca f9 0d 00 eb 04 eb
       0.11351501 -0.026195772 -0.04365962 -0.47152388 -0.034927696 0.4365962 0.13971078 0.11351501 -0.122246936 -0.47152388 -0.061123468 0.11351501 0.0 -0.18337041 0.034927696 -0.18337041
000070 ed d0 fe 20 25 08 0f 0f b9 fb 12 eb 0b 04 ff f1
       -0.16590655 -0.41913235 -0.017463848 0.27942157 0.3230812 0.06985539 0.13097885 0.13097885 -0.6199666 -0.04365962 0.15717463 -0.18337041 0.096051164 0.034927696 -0.008731924 -0.13097885
000080 18 39 14 f0 ed 01 1b 23 d2 bc 18 09 0a eb ec f8
       0.20956618 0.49771968 0.17463848 -0.13971078 -0.16590655 0.008731924 0.23576194 0.30561733 -0.4016685 -0.59377086 0.20956618 0.078587316 0.08731924 -0.18337041 -0.17463848 -0.06985539
000090 f9 01 1c fe 07 13 fa d4 0d 00 24 0a d0 1f 19 00
       -0.061123468 0.008731924 0.24449387 -0.017463848 0.061123468 0.16590655 -0.052391544 -0.38420466 0.11351501 0.0 0.31434926 0.08731924 -0.41913235 0.27068964 0.2182981 0.0
0000a0 eb 05 13 f3 f7 1b ee fe e3 ed 00 04 f6 0b 20 00
       -0.18337041 0.04365962 0.16590655 -0.11351501 -0.078587316 0.23576194 -0.15717463 -0.017463848 -0.2532258 -0.16590655 0.0 0.034927696 -0.08731924 0.096051164 0.27942157 0.0
0000b0 04 0c 04 1b 20 21 f9 f5 ef 20 17 41 ed 3d 1e f5
       0.034927696 0.10478309 0.034927696 0.23576194 0.27942157 0.2881535 -0.061123468 -0.096051164 -0.14844272 0.27942157 0.20083424 0.56757504 -0.16590655 0.5326474 0.2619577 -0.096051164
0000c0 0b e2 0c a7 fd fa 11 1c b8 f6 fd dd d7 f6 f9 df
       0.096051164 -0.2619577 0.10478309 -0.7771412 -0.026195772 -0.052391544 0.14844272 0.24449387 -0.6286985 -0.08731924 -0.026195772 -0.30561733 -0.3580089 -0.08731924 -0.061123468 -0.2881535
0000d0 f7 d0 d6 ec e2 ff 06 bd 03 04 00 fb e9 02 cf fa
       -0.078587316 -0.41913235 -0.36674082 -0.17463848 -0.2619577 -0.008731924 0.052391544 -0.5850389 0.026195772 0.034927696 0.0 -0.04365962 -0.20083424 0.017463848 -0.42786428 -0.052391544
0000e0 19 cb 09 0c f4 0e 1d 18 da 1b 14 fb 04 ee 08 dc
       0.2182981 -0.46279198 0.078587316 0.10478309 -0.10478309 0.122246936 0.2532258 0.20956618 -0.3318131 0.23576194 0.17463848 -0.04365962 0.034927696 -0.15717463 0.06985539 -0.31434926
0000f0 03 18 01 d0 0b 07 0a d8 e0 1b e4 01 b6 de 0d cf
       0.026195772 0.20956618 0.008731924 -0.41913235 0.096051164 0.061123468 0.08731924 -0.34927696 -0.27942157 0.23576194 -0.24449387 0.008731924 -0.6461624 -0.29688543 0.11351501 -0.42786428

conv1d_5/conv1d_bias f4 [32]
000000 e9 b4 72 be 5e e3 b0 bd 06 e2 c9 bb 4c 99 a7 3d
       -0.23701824 -0.08637117 -0.0061609773 0.08183536
000010 ad 87 60 be fe 7f 04 3c 07 1d 99 3b 33 f9 27 3d
       -0.21926756 0.008087156 0.00467265 0.04100914
000020 98 5a 2c bc f5 64 18 3c e2 f2 22 bd ca b3 83 bd
       -0.010519646 0.009301414 -0.039782412 -0.064307764
000030 d4 f3 84 3c b1 29 7b 3d 86 96 fe bb cb 70 9c 3d
       0.016229548 0.061319057 -0.0077694086 0.07638701
000040 5c a5 09 be 6d e6 f4 bd f5 f5 4c be d3 98 e5 bc
       -0.13441986 -0.11958013 -0.200157 -0.028026974
000050 e9 76 b4 bd 49 42 f1 bc 57 77 a9 3b 47 f3 b2 bd
       -0.08811743 -0.029450553 0.005171697 -0.08737808
000060 5e b7 94 3d 9b 2a 16 bb 97 1c 4d be 3a 18 29 bb
       0.07261537 -0.0022913578 -0.20030437 -0.0025801794
000070 5a 81 cb 3d a5 1f 85 3c 4f b2 ef 3c 40 09 cb ba
       0.09936781 0.01625044 0.029259829 -0.0015490428

conv1d_6/conv1d/ExpandDims_1 i1 [256, 1, 3, 32] scale=0.011917803 zero_point=0
000000 ed f0 fd 02 0a e8 f0 f1 e4 02 04 f6 07 13 26 f2
       -0.22643827 -0.19068485 -0.03575341 0.023835607 0.119178034 -0.28602728 -0.19068485 -0.17876706 -0.3336985 0.023835607 0.047671214 -0.119178034 0.08342463 0.22643827 0.45287654 -0.16684926
000010 f4 fd 01 07 e2 04 e4 e2 f8 05 ea c0 ef f6 01 d3
       -0.14301364 -0.03575341 0.011917803 0.08342463 -0.3575341 0.047671214 -0.3336985 -0.3575341 -0.09534243 0.059589017 -0.26219168 -0.7627394 -0.20260265 -0.119178034 0.011917803 -0.53630114
000020 08 08 1b 18 08 0b ff 14 f4 fd 08 eb fc f5 06 fe
       0.09534243 0.09534243 0.32178068 0.28602728 0.09534243 0.13109584 -0.011917803 0.23835607 -0.14301364 -0.03575341 0.09534243 -0.25027388 -0.047671214 -0.13109584 0.07150682 -0.023835607
000030 df ff ef fc 09 02 eb f6 1b f8 eb f5 fe 00 e7 f6
       -0.3932875 -0.011917803 -0.20260265 -0.047671214 0.10726023 0.023835607 -0.25027388 -0.119178034 0.32178068 -0.09534243 -0.25027388 -0.13109584 -0.023835607 0.0 -0.29794508 -0.119178034
000040 12 ea 0e 13 f1 13 18 0e 05 fc e7 ee 01 00 10 00
       0.21452045 -0.26219168 0.16684926 0.22643827 -0.17876706 0.22643827 0.28602728 0.16684926 0.059589017 -0.047671214 -0.29794508 -0.21452045 0.011917803 0.0 0.19068485 0.0
000050 f4 f4 e4 f7 ef 12 18 eb 14 08 ea fa e8 0d 09 ed
       -0.14301364 -0.14301364 -0.3336985 -0.10726023 -0.20260265 0.21452045 0.28602728 -0.25027388 0.23835607 0.09534243 -0.26219168 -0.07150682 -0.28602728 0.15493144 0.10726023 -0.22643827
000060 ec f3 fc 10 fa e5 01 f9 0b 06 0c fd 11 f9 e4 18
       -0.23835607 -0.15493144 -0.047671214 0.19068485 -0.07150682 -0.32178068 0.011917803 -0.08342463 0.13109584 0.07150682 0.14301364 -0.03575341 0.20260265 -0.08342463 -0.3336985 0.28602728
000070 1d 04 16 02 07 c3 23 0b 18 ee 08 07 0f 0a 0a 13
       0.3456163 0.047671214 0.26219168 0.023835607 0.08342463 -0.726986 0.4171231 0.13109584 0.28602728 -0.21452045 0.09534243 0.08342463 0.17876706 0.119178034 0.119178034 0.22643827
000080 f0 de fc 34 04 fc 06 de 07 ed d0 0c f5 00 04 35
       -0.19068485 -0.4052053 -0.047671214 0.61972576 0.047671214 -0.047671214 0.07150682 -0.4052053 0.08342463 -0.22643827 -0.57205456 0.14301364 -0.13109584 0.0 0.047671214 0.6316436
000090 0a 00 e5 0a 0a f5 13 02 cc e1 f0 ed 0e 17 08 ee
       0.119178034 0.0 -0.32178068 0.119178034 0.119178034 -0.13109584 0.22643827 0.023835607 -0.61972576 -0.3694519 -0.19068485 -0.22643827 0.16684926 0.27410948 0.09534243 -0.21452045
0000a0 e3 f3 e5 d7 f7 f0 f8 dc e8 03 e3 f9 03 07 f6 e8
       -0.3456163 -0.15493144 -0.32178068 -0.48862994 -0.10726023 -0.19068485 -0.09534243 -0.4290409 -0.28602728 0.03575341 -0.3456163 -0.08342463 0.03575341 0.08342463 -0.119178034 -0.28602728
0000b0 ee fd d9 03 f7 e6 d8 e1 e1 d4 c2 cc fe f9 20 dd
       -0.21452045 -0.03575341 -0.46479434 0.03575341 -0.10726023 -0.30986288 -0.47671214 -0.3694519 -0.3694519 -0.52438337 -0.7389038 -0.61972576 -0.023835607 -0.08342463 0.3813697 -0.4171231
0000c0 fa f5 02 e5 fb f5 f7 f7 01 02 11 04 06 f7 fd f7
       -0.07150682 -0.13109584 0.023835607 -0.32178068 -0.059589017 -0.13109584 -0.10726023 -0.10726023 0.011917803 0.023835607 0.20260265 0.047671214 0.07150682 -0.10726023 -0.03575341 -0.10726023
0000d0 f7 fd 10 ed fb f7 f4 f9 f4 02 e5 11 de f1 fa fd
       -0.10726023 -0.03575341 0.19068485 -0.22643827 -0.059589017 -0.10726023 -0.14301364 -0.08342463 -0.14301364 0.023835607 -0.32178068 0.20260265 -0.4052053 -0.17876706 -0.07150682 -0.03575341
0000e0 fc 03 e5 03 fb ed f0 f9 02 f1 07 07 00 ff 03 04
       -0.047671214 0.03575341 -0.32178068 0.03575341 -0.059589017 -0.22643827 -0.19068485 -0.08342463 0.023835607 -0.17876706 0.08342463 0.08342463 0.0 -0.011917803 0.03575341 0.047671214
0000f0 f8 fd f2 f8 f3 f7 0e f6 01 12 ed f6 ff fb 00 fe
       -0.09534243 -0.03575341 -0.16684926 -0.09534243 -0.15493144 -0.10726023 0.16684926 -0.119178034 0.011917803 0.21452045 -0.22643827 -0.119178034 -0.011917803 -0.059589017 0.0 -0.023835607

conv1d_6/conv1d_bias f4 [256]
000000 fa 54 28 3d b3 7f 04 be d4 94 21 3c a1 b2 6d be
       0.041096665 -0.12939338 0.009862144 -0.23212673
000010 0f 28 ca 3b 8f 58 dd be 65 5c 85 be e5 ba 76 bd
       0.006169326 -0.43231627 -0.26047054 -0.06023683
000020 52 5d d9 3d 08 29 55 bc 11 4e 80 bb 81 b5 d9 3b
       0.106135026 -0.013010271 -0.0039155562 0.0066439514
000030 78 a8 50 be 84 ec 7b bd 00 1e 9a be de a0 04 bf
       -0.20376766 -0.061504856 -0.30101013 -0.51807964
000040 37 65 04 bc d7 9f 37 be b0 d3 9c bd 84 d7 23 3d
       -0.008080772 -0.17932068 -0.07657564 0.040000454
000050 8d f4 10 bd 30 ca c4 be 01 31 27 3d cc 51 3b 3d
       -0.03538947 -0.38435507 0.04081822 0.045732304
000060 fc cc c9 be 4b ed 2c be cd 93 d2 bc 93 b4 70 3e
       -0.39414203 -0.16887395 -0.025705243 0.23506384
000070 fa a2 3e bc 07 70 2b be fc fb 77 be 31 e4 a9 bd
       -0.011635536 -0.16741954 -0.24217218 -0.08295477
000080 90 c3 9b be 47 1a d0 ba 24 8b 01 bd 85 c4 fb bd
       -0.3042264 -0.0015876972 -0.031626835 -0.122933425
000090 b3 e1 46 bc 7b 26 3b bc e6 32 97 bd d2 8e 43 be
       -0.012138772 -0.011422749 -0.07382755 -0.1909745
0000a0 04 1b 59 3d 27 fa 34 bc aa 81 86 be 40 4c 9f be
       0.05300428 -0.011045969 -0.262708 -0.31112862
0000b0 5c fa 0f bf b1 f2 71 be a5 96 96 be 02 fc 5d bc
       -0.56241393 -0.23627736 -0.29411808 -0.013548853
0000c0 e2 07 ab bc 9b 65 f8 be 8d 15 f4 be a9 ef 0b be
       -0.020877782 -0.4851502 -0.47672692 -0.13665642
0000d0 2a 5b de bc 28 f5 71 be de 1a 50 3d bd 67 12 3e
       -0.02714308 -0.23628676 0.050806873 0.14297386
0000e0 5b 60 4a be e0 c9 25 be 80 ed 41 be b6 24 93 bd
       -0.19763319 -0.1619029 -0.18938255 -0.071847364
0000f0 aa 5d 57 be 96 60 13 bd 92 16 5d bc 8f 26 90 bd
       -0.21031824 -0.035980783 -0.013494151 -0.070386045
000100 88 5a 30 bc 4f b4 ba 3a 45 77 b8 3b 96 a4 22 bc
       -0.010763772 0.001424441 0.0056294524 -0.009926936
000110 56 0e 42 3d 09 a3 21 3c 23 55 d4 be 9d c4 cc be
       0.047376953 0.009865531 -0.41471204 -0.39993754
000120 06 18 24 bd 1a a8 c4 bc 50 03 1b be 77 3f ba be
       -0.040061973 -0.024005938 -0.15137982 -0.36376545
000130 ff 08 ef bd 76 1e 8e bd 3a 4a 0d 3c 6b 07 95 be
       -0.11671638 -0.06939404 0.008623654 -0.29107222
000140 4b 77 10 3d 5a 68 e0 be 7f 71 92 bc bb 18 0c be
       0.035270017 -0.43829614 -0.017876385 -0.13681309
000150 f5 b3 58 bc 78 7d e5 bd db de b4 bb 6e 39 f1 bd
       -0.013226499 -0.11205572 -0.0055197305 -0.11778532
000160 7d 07 a2 be 48 ac ef bc ee d4 d6 bd 6e 3d 8e bd
       -0.31646338 -0.029256955 -0.10489832 -0.069453105
000170 0d a0 ee bd 87 26 b3 bc 1a f1 3d bc 78 25 cb 3e
       -0.11651621 -0.021868957 -0.011593128 0.39677024
000180 3d 40 ba bc eb d2 67 be a6 e8 29 be 56 f7 ec be
       -0.02273571 -0.22639053 -0.16592655 -0.46282452
000190 c9 76 55 bc bd f4 23 bc a8 87 b3 be e0 86 02 be
       -0.013028809 -0.010007081 -0.35064435 -0.12746763
0001a0 c0 5d 2d be df 60 3b bd f5 02 b2 be 34 3e 86 bc
       -0.16930294 -0.04574668 -0.3476788 -0.016387083
0001b0 d3 38 b6 be 74 5f 86 be 44 55 e6 be e1 b7 80 be
       -0.35590228 -0.262447 -0.44986928 -0.25140288
0001c0 d0 5f 18 bd 79 de a9 3d f8 ef aa be ef 89 47 bc
       -0.03720075 0.082943864 -0.33386207 -0.012178882
0001d0 e8 3b 4a be 3f cf be bc 1a 42 8a be 25 29 d6 bc
       -0.19749415 -0.023292182 -0.27003556 -0.026142666
0001e0 9e eb 85 be 02 62 cd bd c1 20 81 bd 7e e4 9a 3b
       -0.26156324 -0.10028459 -0.063050754 0.0047269454
0001f0 fe 5d 17 be 81 2e c1 be 93 5f 89 bb 62 a4 59 be
       -0.14781949 -0.37730792 -0.0041923015 -0.21254113
000200 47 01 4c bc 1d 82 5d bc 80 6a fc bc 5a 10 82 3c
       -0.012451476 -0.013519791 -0.030812502 0.015876938
000210 37 7f 5b bc c0 6c f6 3d 82 0d 50 bc da 64 13 3e
       -0.01339703 0.12032461 -0.012698533 0.1439394
000220 41 af cb be 68 87 c3 be f1 44 1e be 83 82 e0 be
       -0.39782146 -0.38189244 -0.15455987 -0.43849573
000230 0d 18 0c be ba f3 99 be 5c 87 79 be d1 25 ba 3d
       -0.1368105 -0.3006876 -0.24368042 0.09089244
000240 17 5a 06 bc 9a 63 ab ba a7 2a 10 3e e5 c0 24 be
       -0.00820019 -0.0013075948 0.1407877 -0.16089208
000250 79 ee 04 3d be b6 eb bd 9d db 82 be e9 d6 e9 be
       0.032453988 -0.11509465 -0.25558177 -0.45671776
000260 3e 16 7f bc 21 37 24 be 83 71 c0 bd f0 ac d3 bd
       -0.015569268 -0.16036655 -0.09396651 -0.103357196
000270 a8 fc b2 be 3b e4 1d be 07 e8 ae bd 2d f0 25 bf
       -0.34958386 -0.15419094 -0.085403495 -0.64819604
000280 b5 9f 08 bd 1b 85 4c bc 86 7b 77 be 54 fe 33 be
       -0.033355433 -0.012482907 -0.24168214 -0.17577487
000290 19 c0 ad be 02 55 e0 3c 8e e9 4d be 3a 88 17 be
       -0.3393562 0.027384285 -0.20108625 -0.1479806
0002a0 d6 c8 28 be d3 5d d0 be 9d 23 3a be ee c0 bf bc
       -0.16482863 -0.40696582 -0.18177648 -0.023407426
0002b0 01 e1 30 3b 07 cb 9a 3d 6b 76 fb be a8 e2 c0 be
       0.0026989582 0.07558256 -0.49113783 -0.37672925
0002c0 03 3b 4c bd d3 41 94 3d bf 33 c1 3d c9 73 15 bd
       -0.049860965 0.072391175 0.09433698 -0.036487374
0002d0 8e ed 20 bb b3 0d f3 3e f2 f3 f7 be ea 5f 0f be
       -0.0024555656 0.4747139 -0.48428303 -0.14001432
0002e0 b5 f1 be bd 4e 77 3d bd 74 d4 a3 be 46 cb 8d bc
       -0.09323446 -0.046256356 -0.31998026 -0.017308842
0002f0 97 ea bf bd 6f 4f 1b be 54 c8 0f bb 0e f4 17 bf
       -0.09370916 -0.1516702 -0.0021939473 -0.5935677
000300 52 c2 8b bd 46 02 46 be 14 73 2c bf bb 28 50 bd
       -0.06824173 -0.19336805 -0.67363095 -0.050820094
000310 e0 6a 21 bd 67 4a 86 bb 9d 35 c8 bc 88 3c 3b be
       -0.039408565 -0.004098225 -0.024439627 -0.1828481
000320 ca c2 80 bd 24 70 05 be 56 c7 19 be 87 ac ce bd
       -0.06287153 -0.1303106 -0.15017447 -0.10091501
000330 98 26 72 be b5 5e 41 be 29 c5 3e 3c e6 70 7e be
       -0.23647535 -0.18883784 0.011643686 -0.24847755
000340 9f f8 83 bc df 96 f7 bd 29 30 86 3d c9 88 3c bf
       -0.016109763 -0.12089323 0.065521546 -0.7364622
000350 06 82 56 be 15 55 07 bf 57 d8 06 be b1 c4 18 bf
       -0.20948038 -0.528642 -0.13168465 -0.5967513
000360 5d e6 3f 3c c8 d3 7b bd 3f 8d 32 bd 35 6f 64 bd
       0.011712638 -0.061481267 -0.043591734 -0.055770118
000370 b5 de d3 be 5e 48 80 bc b9 d5 6d be b0 b7 4c bd
       -0.4138085 -0.015659507 -0.2322606 -0.049979866
000380 d5 e4 b4 be 9a ab 94 be 3d 2b 1b bd b0 3b f2 be
       -0.35330835 -0.29037172 -0.037883032 -0.47311163
000390 fa 4d 5f be 60 03 ae 3d c6 83 5a 3e 6f c3 94 be
       -0.2180709 0.084967375 0.2133933 -0.29055354
0003a0 32 bf 55 3c 1d 0f 31 bd 95 66 4e bc cc 26 b6 3d
       0.013046073 -0.043227304 -0.0125977 0.08894119
0003b0 2e 41 4d be e1 1e 3c be 88 be 58 bb 77 1c 8f 3b
       -0.20044395 -0.18371154 -0.003307255 0.004367407
0003c0 09 40 f5 bd 66 54 74 be 88 24 e7 bd 71 51 d5 be
       -0.11975104 -0.2386032 -0.11286265 -0.41663697
0003d0 0d 06 d5 bd 93 ce 75 be 22 c5 d8 bd bf dc 9e 3d
       -0.10401545 -0.24004583 -0.10584475 0.07756948
0003e0 c5 78 5b bc dc f3 ca be 0e 49 15 3e a5 fd f4 bd
       -0.013395493 -0.39639175 0.1457865 -0.11962441
0003f0 42 47 8c bc d0 81 0a be ff 85 f9 bc c4 31 d9 be
       -0.017123822 -0.13526082 -0.030459402 -0.4242078

conv1d_7/conv1d/ExpandDims_1 i1 [256, 1, 3, 256] scale=0.012891735 zero_point=0
000000 de ef 05 12 06 0d fb 04 08 27 0b 01 02 ff 16 11
       -0.438319 -0.2191595 0.064458676 0.23205122 0.07735041 0.16759256 -0.064458676 0.05156694 0.10313388 0.50277764 0.14180909 0.012891735 0.02578347 -0.012891735 0.28361818 0.2191595
000010 0c e2 05 f0 12 13 06 f4 f3 f9 09 ff 07 02 0b ed
       0.15470082 -0.38675204 0.064458676 -0.20626776 0.23205122 0.24494296 0.07735041 -0.15470082 -0.16759256 -0.09024215 0.11602561 -0.012891735 0.09024215 0.02578347 0.14180909 -0.24494296
000020 fc 19 10 f3 f7 1b 18 f7 06 1b fe fa 18 09 0f 16
       -0.05156694 0.32229337 0.20626776 -0.16759256 -0.11602561 0.34807685 0.30940163 -0.11602561 0.07735041 0.34807685 -0.02578347 -0.07735041 0.30940163 0.11602561 0.19337602 0.28361818
000030 04 f6 15 20 14 2f e6 00 04 df 10 27 17 27 19 1c
       0.05156694 -0.12891735 0.27072644 0.41253552 0.2578347 0.60591155 -0.3351851 0.0 0.05156694 -0.42542726 0.20626776 0.50277764 0.2965099 0.50277764 0.32229337 0.3609686
000040 0a fa 2c 2b 0f 01 14 22 16 10 0f 05 02 25 0f 05
       0.12891735 -0.07735041 0.56723636 0.5543446 0.19337602 0.012891735 0.2578347 0.438319 0.28361818 0.20626776 0.19337602 0.064458676 0.02578347 0.4769942 0.19337602 0.064458676
000050 09 14 07 f1 01 01 19 03 e2 35 1d 06 01 e7 2b fb
       0.11602561 0.2578347 0.09024215 -0.19337602 0.012891735 0.012891735 0.32229337 0.038675204 -0.38675204 0.68326193 0.3738603 0.07735041 0.012891735 -0.32229337 0.5543446 -0.064458676
000060 14 fd 03 01 02 07 14 f3 fc 0b 17 f1 0d 03 20 03
       0.2578347 -0.038675204 0.038675204 0.012891735 0.02578347 0.09024215 0.2578347 -0.16759256 -0.05156694 0.14180909 0.2965099 -0.19337602 0.16759256 0.038675204 0.41253552 0.038675204
000070 f9 02 ff 1c 0c 15 0e 0e fb 00 06 fe 04 10 15 12
       -0.09024215 0.02578347 -0.012891735 0.3609686 0.15470082 0.27072644 0.1804843 0.1804843 -0.064458676 0.0 0.07735041 -0.02578347 0.05156694 0.20626776 0.27072644 0.23205122
000080 ef fb 0c f2 16 fb fd 08 01 fe e4 2f 20 f7 ee fe
       -0.2191595 -0.064458676 0.15470082 -0.1804843 0.28361818 -0.064458676 -0.038675204 0.10313388 0.012891735 -0.02578347 -0.3609686 0.60591155 0.41253552 -0.11602561 -0.23205122 -0.02578347
000090 04 01 01 ec 0f 05 10 02 13 12 01 fc 25 fd 10 15
       0.05156694 0.012891735 0.012891735 -0.2578347 0.19337602 0.064458676 0.20626776 0.02578347 0.24494296 0.23205122 0.012891735 -0.05156694 0.4769942 -0.038675204 0.20626776 0.27072644
0000a0 f1 1b 06 00 0f 17 0b 21 1a 14 f8 17 30 fb f9 f9
       -0.19337602 0.34807685 0.07735041 0.0 0.19337602 0.2965099 0.14180909 0.42542726 0.3351851 0.2578347 -0.10313388 0.2965099 0.61880326 -0.064458676 -0.09024215 -0.09024215
0000b0 ff fb f7 0b 0f 00 f7 1d 13 0e 0a 18 04 13 fd ed
       -0.012891735 -0.064458676 -0.11602561 0.14180909 0.19337602 0.0 -0.11602561 0.3738603 0.24494296 0.1804843 0.12891735 0.30940163 0.05156694 0.24494296 -0.038675204 -0.24494296
0000c0 13 fe ef 21 fb 09 19 f4 00 f9 0f 03 0a 03 fb fa
       0.24494296 -0.02578347 -0.2191595 0.42542726 -0.064458676 0.11602561 0.32229337 -0.15470082 0.0 -0.09024215 0.19337602 0.038675204 0.12891735 0.038675204 -0.064458676 -0.07735041
0000d0 23 10 07 f4 f6 0d ff 04 40 06 27 fd 1a 03 16 0f
       0.45121074 0.20626776 0.09024215 -0.15470082 -0.12891735 0.16759256 -0.012891735 0.05156694 0.82507104 0.07735041 0.50277764 -0.038675204 0.3351851 0.038675204 0.28361818 0.19337602
0000e0 14 f5 0c 20 fa 07 ea 02 0c 20 1a f2 03 ef 0c 0d
       0.2578347 -0.14180909 0.15470082 0.41253552 -0.07735041 0.09024215 -0.28361818 0.02578347 0.15470082 0.41253552 0.3351851 -0.1804843 0.038675204 -0.2191595 0.15470082 0.16759256
0000f0 d4 f9 11 ed f9 0e 04 ef 25 29 fd 08 11 11 fd 04
       -0.56723636 -0.09024215 0.2191595 -0.24494296 -0.09024215 0.1804843 0.05156694 -0.2191595 0.4769942 0.5285611 -0.038675204 0.10313388 0.2191595 0.2191595 -0.038675204 0.05156694

conv1d_7/conv1d_bias f4 [256]
000000 72 fc 06 be b8 e0 b7 bd a0 cd c7 bc 7b 6f 2d bd
       -0.13182238 -0.089784086 -0.024390042 -0.042342644
000010 e8 77 41 3d 9e 10 95 3c a1 d6 dd bc 78 a6 1e 3d
       0.047233492 0.0181964 -0.027079882 0.038732976
000020 26 fe f7 bc 81 12 90 bd 7b 5a 8f bc 1a c2 23 be
       -0.030272555 -0.07034779 -0.0174992 -0.15992013
000030 f9 b1 d1 bc 2f 6c 09 3b f9 7c 6b bc 18 a6 9b 3c
       -0.02559756 0.0020969023 -0.0143730575 0.019000098
000040 53 99 a0 3d 44 89 fd 38 12 56 2f bc 45 58 22 be
       0.07841744 0.00012089548 -0.010701673 -0.15853985
000050 5a cc 3b be 68 6c 22 bc dd bc 3f be 9f 1a 15 3d
       -0.18339673 -0.009913541 -0.1872439 0.03640234
000060 4f 75 da bd 9b de 7f 3d 8f 5b 03 3e db 58 af 3d
       -0.10666906 0.062468152 0.12827896 0.0856187
000070 65 2a ac ba 48 e0 7e bd d9 af c0 bc c3 ea 0b 3e
       -0.0013135193 -0.06222561 -0.02352135 0.13663773
000080 c3 be a9 3c b2 00 f2 bd b1 37 28 bc b3 b1 bb bc
       0.020720845 -0.11816539 -0.010267184 -0.022911882
000090 6c f3 04 3e 44 a3 88 bc e3 af 76 bd 27 77 81 be
       0.12983483 -0.016679414 -0.060226332 -0.2528622
0000a0 96 14 f0 3d 0f 5f 94 bc 6f 0b 16 bd 44 94 6f 3d
       0.117226765 -0.018111734 -0.036631998 0.058491006
0000b0 97 5d f1 3d 43 c2 99 bd de 3e 93 3b c9 70 c7 3d
       0.11785429 -0.075077556 0.0044935783 0.09738309
0000c0 81 f3 b4 bc 2b 31 c8 3d 7d 32 26 3e 89 73 36 be
       -0.022088768 0.09775003 0.16230197 -0.1781751
0000d0 cb 82 64 bd 42 5d 7f 3d 05 37 a7 bc 8a f6 27 3e
       -0.055788796 0.062344797 -0.020411978 0.16402641
0000e0 13 4b e2 bc 57 8a e0 bd 62 83 f3 bc 9c 42 15 bd
       -0.027623689 -0.10963886 -0.029725734 -0.036440477
0000f0 ba 05 88 be b4 13 7d be a3 e0 19 bd ce 53 6e be
       -0.2656687 -0.24714547 -0.037567746 -0.23274156
000100 0e d7 57 be 61 17 7b bd ee f3 99 3c 14 ed 12 bd
       -0.2107813 -0.061301593 0.018793073 -0.035870627
000110 3a 97 14 bd 91 b2 c0 bd 5c 11 e7 3d 27 2a 3c bc
       -0.036277033 -0.09409059 0.11282608 -0.011484659
000120 20 b2 88 be 59 1e b3 bc db f2 cc ba 84 6e 80 bd
       -0.266984 -0.021865057 -0.0015636341 -0.06271079
000130 c5 1d 02 3e f1 87 8c 3b 27 f1 c7 bd 5f c7 cb bd
       0.12706669 0.0042886664 -0.09762793 -0.099501364
000140 3a f8 10 bd 17 2c 99 bd f8 fd 06 bc 5d 7a 80 be
       -0.035392977 -0.074791126 -0.008239262 -0.25093356
000150 f3 5e 1d be 9d 40 cf be f8 d9 a4 bb 5e 76 d1 bd
       -0.15368252 -0.40478984 -0.0050308667 -0.10227655
000160 53 3f 97 bc fd 1f b1 be ac dc af 3d 75 cc 12 3d
       -0.018462813 -0.34594718 0.08587012 0.035839517
000170 58 c9 84 3d ca fe 35 bc cc 5b fa bc e3 18 5f bc
       0.06483716 -0.01110811 -0.03056135 -0.013616773
000180 fa e6 9e bc 20 ba 17 3d 2a 1e 1b be 3d fc a2 be
       -0.019397248 0.037042737 -0.15148225 -0.31833068
000190 9a 4f 94 3e a4 4d cb be e2 a4 07 bf 1c 3b 30 3e
       0.2896698 -0.39707673 -0.52985966 0.17210048
0001a0 b7 0a 31 be c7 dd b5 be 4a b6 b6 3d 88 fe 14 bd
       -0.17289244 -0.35520765 0.08921488 -0.036375552
0001b0 c6 dc 02 bd 07 e5 83 3d 26 73 3c bf b7 1b 9f be
       -0.031948827 0.06440168 -0.736132 -0.31075832
0001c0 e8 8b 5c bd 07 aa ac bd db 01 00 bb 5d 43 fa bd
       -0.053844362 -0.08430868 -0.0019532356 -0.1221988
0001d0 e1 a4 ca 3d 14 08 99 bd 80 c5 0d bd 99 26 2d bd
       0.098947294 -0.07472244 -0.03461218 -0.042273138
0001e0 c7 50 a6 bd 95 81 39 3d f3 64 0e bd 49 77 c2 bd
       -0.08120876 0.045289595 -0.03476424 -0.09495408
0001f0 1d 0c 12 3e cb 2b b6 be 47 53 57 be 9d d0 7f bd
       0.14262433 -0.35580286 -0.21027862 -0.06245481
000200 0d a1 52 3e a3 40 b7 bc e6 14 69 bd ad f5 4b bd
       0.20569248 -0.022369688 -0.056904696 -0.04979484
000210 6e bc 96 bd 34 0d 74 bd de f7 98 be fc 64 e6 be
       -0.07360159 -0.059582904 -0.29876608 -0.4499892
000220 31 24 5f be 5c 3c b6 3d 26 da 26 bd 68 bd c1 bc
       -0.2179115 0.088982314 -0.040735386 -0.023649886
000230 dd 28 0e 3e 13 a3 a8 be 92 ae 2e be 36 46 bd bd
       0.13882776 -0.32936916 -0.17058781 -0.09241907
000240 8d 52 1c bd d1 2b 9f bc ad 7e 5b bd 46 95 95 bd
       -0.038164664 -0.019430073 -0.053587604 -0.07303862
000250 f8 f0 0e 3e c0 af 8c bd 22 7b 7a 3d a7 50 b9 3d
       0.1395911 -0.06869459 0.061152585 0.09048586
000260 32 76 54 be bc 74 11 3d 08 67 dd bc 06 35 42 bd
       -0.20748213 0.035511717 -0.027026668 -0.04741385
000270 d9 ae 81 3d 91 14 ce 3d 18 76 2b 3e 95 fb db bc
       0.06332178 0.100625165 0.16744268 -0.026853362
000280 7b 47 53 be 7e 44 62 3d 86 e3 1d bf 02 f4 8f bd
       -0.20632736 0.0552411 -0.616753 -0.07028963
000290 b2 1b f0 bd e5 29 6f 3e 9b 79 21 3c 4c 70 3d bc
       -0.117240325 0.23355825 0.009855653 -0.011562418
0002a0 08 de c6 3e cf 19 16 bd c1 fb 3d 3d 80 82 a4 3d
       0.3884127 -0.036645707 0.04638267 0.080327034
0002b0 23 f8 c7 bd b0 a0 0c ba b7 46 8f be ed 70 10 bd
       -0.09764125 -0.00053645205 -0.2798364 -0.035263944
0002c0 89 a9 9c bc ea e6 c4 bc a3 d4 8c bc 2d 92 09 bc
       -0.01912381 -0.02403589 -0.017191237 -0.008396667
0002d0 08 65 05 3e b0 4e 3a be d3 6c c7 bb 38 f6 13 bd
       0.13026822 -0.1819408 -0.006085971 -0.036123484
0002e0 6e 7b e4 bc bc 3d 0e 3e 80 9d 05 3d 00 04 bf bc
       -0.027890887 0.13890737 0.032620907 -0.023317337
0002f0 c0 fc f7 bb aa de ae bd 78 31 6c bc 30 a8 be 3d
       -0.007567972 -0.085385635 -0.014416091 0.09309423
000300 6f 2c 47 bc b8 ef 12 bd 33 ab bf be 78 34 c9 3a
       -0.01215659 -0.035873145 -0.37435302 0.001535072
000310 74 d0 84 3b 3e 4d e3 be e7 f4 69 3c 23 87 28 bd
       0.00405317 -0.4439487 0.014279581 -0.0411445
000320 36 10 83 3d 8c 07 1f be fc 02 44 3a 38 ae ba be
       0.06399576 -0.15530223 0.00074772513 -0.36461043
000330 87 0a 98 3d f5 40 f9 bd 59 f0 0f bd 10 40 57 bc
       0.07423883 -0.12170593 -0.035141323 -0.013137832
000340 7e 15 ee bd 3f 8b 4d be 3e d2 20 be ff 31 7c bd
       -0.11625193 -0.2007265 -0.15705201 -0.061571117
000350 82 6c 2b 3e 10 ba 55 bc 4c b4 18 bd 77 e1 42 3e
       0.16740611 -0.013044849 -0.03728132 0.1903132
000360 3f 09 64 bd 8e be af bc 2a 6a fa bc 46 92 3b be
       -0.05567288 -0.021453168 -0.030568201 -0.18317518
000370 06 43 03 bd d9 48 da be 87 6b 80 3d 8d f0 81 bd
       -0.03204634 -0.42633703 0.06270509 -0.063447095
000380 92 6f 1d bd 9f cf 04 bd 24 56 18 3e c7 58 4c bd
       -0.03843648 -0.032424565 0.1487661 -0.049889352
000390 17 de 00 bd 66 a7 81 bc 1f 3f 14 3e 9a df f6 bc
       -0.0314618 -0.015826892 0.14477204 -0.030135918
0003a0 f4 b7 10 3e 8c 55 0e bc 41 be a5 bc e2 89 3f bd
       0.14132673 -0.008687388 -0.020232322 -0.046762355
0003b0 28 39 b4 be 11 8b cc bc f9 19 e1 bd d6 53 1d bd
       -0.35199857 -0.024968656 -0.10991282 -0.03841003
0003c0 c4 02 99 be 72 b4 d5 be d6 04 f8 bd 70 d0 55 bd
       -0.29884923 -0.4173923 -0.121102974 -0.052200735
0003d0 da 82 c6 be 3b b1 25 be aa 70 a7 bd 14 4f fe bd
       -0.38771707 -0.1618089 -0.08175786 -0.12417427
0003e0 d8 e1 52 bc 37 91 87 be 86 d8 02 bb 46 44 e0 bc
       -0.012871228 -0.26477978 -0.0019965484 -0.027376305
0003f0 b0 fe 0d 3e 00 43 e7 bc 08 b8 16 be c4 69 90 3d
       0.13866687 -0.02823019 -0.1471864 0.07051423
