raspberry_pi/models/gunshot_sound_model.tflite (tflite, 333464 bytes, 22 tensors)

conv1d/conv1d/ExpandDims_1 f4 [1, 1, 9, 16]
000000 fb 5e 66 bf 7d 1d 95 3e 50 b9 0f be 68 7b 0e 3f
       -0.8998868 0.2912406 -0.14035535 0.55657053
000010 3f b2 dc be ae 0d a9 be f6 a0 01 be ca 99 ef be
       -0.4310474 -0.3301825 -0.12659058 -0.4679702
000020 56 67 92 3e 6f 59 ca 3c 9d f7 98 3e 27 6e f3 3d
       0.28594464 0.024700848 0.29876414 0.11886244
000030 bf bf 3e 3f e6 72 83 3c 98 e0 d3 3d b8 9c ee 3e
       0.7451133 0.016045999 0.10345572 0.46603942
000040 8d 70 1c 3f 97 26 8d bd d1 b5 9d 3e 84 05 a7 3e
       0.6110924 -0.06892126 0.30802777 0.32621396
000050 dd d1 37 be 74 6d 45 3d 78 2b d3 3e 04 ff 6b 3e
       -0.1795115 0.048200086 0.41244102 0.230465
000060 fd 3a db be 23 3f eb 3e be 2b 6a 3e aa fe a7 be
       -0.42818442 0.45946607 0.22868249 -0.3281148
000070 ad e4 d0 be 74 f8 7f be ed 79 28 3e c6 9b 6e 3e
       -0.40799466 -0.24997121 0.16452761 0.2330161
000080 56 14 bf bd 88 58 38 be 88 2d 12 be b7 88 97 be
       -0.09330051 -0.18002522 -0.14275181 -0.29596493
000090 9b d8 a0 be a6 f1 bd 3d 16 87 b1 be 27 c0 9c 3e
       -0.31415257 0.092746064 -0.34673375 0.3061535
0000a0 64 cd 8f 3e 46 26 a4 be 8d 2c 3c bf 31 c3 96 be
       0.28086388 -0.3206045 -0.7350548 -0.29445794
0000b0 56 1d a8 3e 73 18 fc bd 28 b4 f1 be 65 aa c9 bd
       0.32834882 -0.12309351 -0.4720776 -0.09846953
0000c0 2e b6 da be 71 17 8a be 29 b9 5e 3d 1b e2 c7 be
       -0.42717117 -0.2697101 0.0543758 -0.39039692
0000d0 a7 dc 34 3f 1c 63 d0 3e 94 d8 a7 bd 17 b9 f2 be
       0.7064919 0.40700614 -0.08195606 -0.47406837
0000e0 e9 00 e9 be 0b 39 33 be 53 de 52 be 1a 33 0d 3d
       -0.45508507 -0.17502229 -0.20592622 0.034472562
0000f0 12 e3 91 3d 41 28 34 3f b6 0d 4e 3e 8f ba 7f 3d
       0.07123388 0.7037392 0.20122418 0.062433776
000100 f0 fd 24 be e3 c7 16 3f 03 ea 5c be 4e e4 f0 bd
       -0.16112494 0.5889875 -0.21573643 -0.11762296
000110 49 6f 93 be de fb a7 3e 84 d0 aa 3c a8 cb 7d 3e
       -0.2879584 0.32809347 0.020851381 0.2478472
000120 02 1b cd 3e 8a 62 3b be 54 6c 27 3f 07 26 b3 be
       0.40059668 -0.18299308 0.6539967 -0.3498995
000130 fa 05 70 3d ed a8 53 bf cf c5 0a bf 73 de 56 be
       0.05859945 -0.82679635 -0.5420808 -0.20983295
000140 92 99 b9 3e 59 2a 53 be c2 c3 ea be fb e1 6d be
       0.36249977 -0.20621623 -0.45852476 -0.23230736
000150 9d 3d 42 3e 0b c4 96 be cd ec bf 3d 6a 2c 8f 3e
       0.18968816 -0.29446444 0.09371338 0.27963573
000160 70 cb d9 bc f1 94 9b bd 74 bf c4 3d 54 0e 6f bc
       -0.026586264 -0.07596768 0.09606829 -0.014590818
000170 70 c3 c2 3d 38 69 0c 3f 34 38 08 3d 69 c9 a4 3e
       0.09509933 0.5484805 0.033256724 0.32184914
000180 71 cb 29 3e 23 3f 90 be 50 04 96 bd 34 56 46 be
       0.16581513 -0.2817317 -0.07325041 -0.19368821
000190 56 c1 55 bd 6c 12 0f bf 1d 3e 73 bc fb 9d e0 3e
       -0.052186333 -0.55887485 -0.014846352 0.4387053
0001a0 a0 48 fd 3d e0 c8 77 bf 09 63 13 bf cd fa 7c 3d
       0.12367368 -0.96790886 -0.5757299 0.06176262
0001b0 c5 05 90 be aa 59 17 3e de 48 05 3d 46 fb 91 3d
       -0.28129402 0.14780298 0.032540195 0.07128005
0001c0 38 42 09 3f c4 37 db 3d cc 32 9f be 27 fe 5e be
       0.53616667 0.10703996 -0.31093442 -0.21776639
0001d0 96 c5 46 be 86 4c 15 3f 85 a7 20 3f 4c be f2 be
       -0.1941131 0.5831989 0.62755615 -0.4741081
0001e0 2a bd e0 be da ac b5 3e 35 da 7c be 61 d8 c4 be
       -0.4389432 0.35483438 -0.24692614 -0.38446334
0001f0 20 4a c8 be 27 c5 08 3e c2 1d 1b 3f d8 ff d3 bc
       -0.39119053 0.13356458 0.6059228 -0.025878832
000200 b9 c2 0f bf eb 8a 8d 3e 07 4d 98 be 1b d6 ef be
       -0.561565 0.27645048 -0.29746267 -0.46843037
000210 55 18 08 3f 26 64 df be 50 00 40 bf 1f 0e 33 bf
       0.5316213 -0.43631095 -0.75000477 -0.6994342
000220 f8 98 52 3d 65 1b 45 3f 32 e5 36 3c bd bf 53 3e
       0.051415414 0.76994926 0.011163043 0.20678611
000230 74 8f 5a 3e 79 ff 84 be a7 cc 0f bf fd d7 ad 3e
       0.21343786 -0.2597616 -0.5617165 0.33953848

conv1d/conv1d_bias f4 [16]
000000 69 9a 4b 3c 0b 4a 1a 3d 20 d4 50 bd 4b 0d 8d be
       0.012426951 0.03766827 -0.05098355 -0.27549204
000010 b2 3c 18 3c 99 37 59 ba 57 61 c3 3c 49 15 e0 3c
       0.009291815 -0.0008286178 0.023850126 0.0273539
000020 4c e7 f5 3b e6 48 14 3c 06 26 83 3c 76 dd ae bd
       0.0075043794 0.0090505835 0.016009342 -0.08538334
000030 c7 a2 44 3c 0a 2b 1c 3d a8 7b e3 3b b8 ec 11 3b
       0.0120017 0.038126983 0.006942231 0.002226634

conv1d_1/conv1d/ExpandDims_1 i1 [16, 1, 9, 16] scale=0.01251034 zero_point=0
000000 dc 08 1b 1a 09 e8 e0 e1 ff ef e6 1a 14 00 05 0f
       -0.45037222 0.10008272 0.33777916 0.32526883 0.112593055 -0.30024815 -0.40033087 -0.38782054 -0.01251034 -0.21267578 -0.32526883 0.32526883 0.2502068 0.0 0.0625517 0.18765509
000010 04 f4 1d 1b f4 f1 0b f7 0b fb fa 20 08 ed ea 15
       0.05004136 -0.15012407 0.36279985 0.33777916 -0.15012407 -0.18765509 0.13761374 -0.112593055 0.13761374 -0.0625517 -0.07506204 0.40033087 0.10008272 -0.23769645 -0.2752275 0.26271713
000020 f2 fb 09 2d f7 ea 05 e5 05 e1 01 14 0c fd 09 ff
       -0.17514476 -0.0625517 0.112593055 0.5629653 -0.112593055 -0.2752275 0.0625517 -0.33777916 0.0625517 -0.38782054 0.01251034 0.2502068 0.15012407 -0.03753102 0.112593055 -0.01251034
000030 da 05 1e 36 ff f1 cf e0 04 f6 f5 12 0d 02 e7 09
       -0.4753929 0.0625517 0.37531018 0.6755583 -0.01251034 -0.18765509 -0.61300665 -0.40033087 0.05004136 -0.1251034 -0.13761374 0.22518611 0.16263442 0.02502068 -0.3127585 0.112593055
000040 0a f2 f5 30 0e 02 10 fc ef 08 fd 26 fb f1 f6 10
       0.1251034 -0.17514476 -0.13761374 0.6004963 0.17514476 0.02502068 0.20016544 -0.05004136 -0.21267578 0.10008272 -0.03753102 0.4753929 -0.0625517 -0.18765509 -0.1251034 0.20016544
000050 0a 06 fe 2b 03 03 10 f0 f5 e3 eb 0b f6 08 fc 15
       0.1251034 0.07506204 -0.02502068 0.5379446 0.03753102 0.03753102 0.20016544 -0.20016544 -0.13761374 -0.36279985 -0.26271713 0.13761374 -0.1251034 0.10008272 -0.05004136 0.26271713
000060 e7 04 f4 25 f7 e7 e6 f0 0a e6 ef 14 04 0d 06 0f
       -0.3127585 0.05004136 -0.15012407 0.46288258 -0.112593055 -0.3127585 -0.32526883 -0.20016544 0.1251034 -0.32526883 -0.21267578 0.2502068 0.05004136 0.16263442 0.07506204 0.18765509
000070 ed 04 f9 17 e4 08 00 f4 fe 08 02 09 fa de ea 0f
       -0.23769645 0.05004136 -0.08757238 0.28773782 -0.35028952 0.10008272 0.0 -0.15012407 -0.02502068 0.10008272 0.02502068 0.112593055 -0.07506204 -0.42535156 -0.2752275 0.18765509
000080 d7 ff 0d fd 00 f3 07 da fe d8 e6 03 ee 09 02 0e
       -0.51292396 -0.01251034 0.16263442 -0.03753102 0.0 -0.16263442 0.08757238 -0.4753929 -0.02502068 -0.5004136 -0.32526883 0.03753102 -0.22518611 0.112593055 0.02502068 0.17514476
000090 05 17 08 13 e8 06 fe 17 11 03 0d c3 f9 e1 e5 f8
       0.0625517 0.28773782 0.10008272 0.23769645 -0.30024815 0.07506204 -0.02502068 0.28773782 0.21267578 0.03753102 0.16263442 -0.7631307 -0.08757238 -0.38782054 -0.33777916 -0.10008272
0000a0 e7 f7 14 f3 16 00 05 16 e4 1c ec 10 0f 1c 16 18
       -0.3127585 -0.112593055 0.2502068 -0.16263442 0.2752275 0.0 0.0625517 0.2752275 -0.35028952 0.35028952 -0.2502068 0.20016544 0.18765509 0.35028952 0.2752275 0.30024815
0000b0 f5 fa d2 01 ed fe e3 0c 14 f8 e6 e9 fe f5 04 ed
       -0.13761374 -0.07506204 -0.57547563 0.01251034 -0.23769645 -0.02502068 -0.36279985 0.15012407 0.2502068 -0.10008272 -0.32526883 -0.28773782 -0.02502068 -0.13761374 0.05004136 -0.23769645
0000c0 09 eb 1e e9 09 04 0d 11 f0 09 0b 01 f6 f5 07 fb
       0.112593055 -0.26271713 0.37531018 -0.28773782 0.112593055 0.05004136 0.16263442 0.21267578 -0.20016544 0.112593055 0.13761374 0.01251034 -0.1251034 -0.13761374 0.08757238 -0.0625517
0000d0 e7 15 f1 ea dd 09 f2 e9 10 da f3 fd 11 08 0a 17
       -0.3127585 0.26271713 -0.18765509 -0.2752275 -0.4378619 0.112593055 -0.17514476 -0.28773782 0.20016544 -0.4753929 -0.16263442 -0.03753102 0.21267578 0.10008272 0.1251034 0.28773782
0000e0 0d f3 12 f7 0a f4 ff 19 ff f8 fd ed f5 e2 f3 cc
       0.16263442 -0.16263442 0.22518611 -0.112593055 0.1251034 -0.15012407 -0.01251034 0.3127585 -0.01251034 -0.10008272 -0.03753102 -0.23769645 -0.13761374 -0.37531018 -0.16263442 -0.65053767
0000f0 f7 fc ec fe 0d 06 f6 07 fe 13 ee 0a 0d fc f7 ff
       -0.112593055 -0.05004136 -0.2502068 -0.02502068 0.16263442 0.07506204 -0.1251034 0.08757238 -0.02502068 0.23769645 -0.22518611 0.1251034 0.16263442 -0.05004136 -0.112593055 -0.01251034

conv1d_1/conv1d_bias f4 [16]
000000 14 18 45 3d e1 16 09 bd fa 3b 7b be f8 4c 5d bd
       0.048118666 -0.033469085 -0.24534598 -0.05402848
000010 d9 db cb 3d c1 60 26 bd cb 40 87 bc 89 33 68 3d
       0.09954042 -0.040619615 -0.016510388 0.056689773
000020 37 55 51 bd c9 28 df 3c 81 2e 13 bd 15 1a de 3d
       -0.051106658 0.027241128 -0.03593302 0.108448185
000030 b1 d8 40 bc 1d f1 56 3d 69 43 5b bd bb 42 d6 3c
       -0.011770413 0.052476037 -0.053531084 0.026154866

conv1d_2/conv1d/ExpandDims_1 i1 [32, 1, 3, 16] scale=0.0075737406 zero_point=0
000000 11 27 02 19 f5 13 11 04 0f fb 10 0d f7 2a 0d 31
       0.12875359 0.29537588 0.015147481 0.18934351 -0.08331115 0.14390106 0.12875359 0.030294962 0.11360611 -0.0378687 0.12117985 0.098458625 -0.06816366 0.3180971 0.098458625 0.3711133
000010 f5 27 d2 1c f0 12 e9 50 f7 f7 ed f5 e4 12 e9 9d
       -0.08331115 0.29537588 -0.34839207 0.21206474 -0.12117985 0.13632733 -0.17419603 0.6058992 -0.06816366 -0.06816366 -0.14390106 -0.08331115 -0.21206474 0.13632733 -0.17419603 -0.7498003
000020 db 0f b7 ef d4 1a ff b8 02 cb ee e3 05 18 09 e7
       -0.2802284 0.11360611 -0.5528831 -0.12875359 -0.3332446 0.19691725 -0.0075737406 -0.5453093 0.015147481 -0.40140826 -0.13632733 -0.21963848 0.0378687 0.18176977 0.06816366 -0.18934351
000030 fb ef 1a fa d6 f7 e7 ce f6 2b f1 df 26 d7 04 e6
       -0.0378687 -0.12875359 0.19691725 -0.045442443 -0.3180971 -0.06816366 -0.18934351 -0.37868702 -0.0757374 0.32567084 -0.11360611 -0.24993344 0.28780213 -0.31052336 0.030294962 -0.19691725
000040 f9 ef e8 12 ea ee 0d e5 ee 9f 00 f4 e6 d3 0c 07
       -0.053016186 -0.12875359 -0.18176977 0.13632733 -0.1666223 -0.13632733 0.098458625 -0.20449099 -0.13632733 -0.7346528 0.0 -0.09088489 -0.19691725 -0.34081832 0.09088489 0.053016186
000050 06 08 06 eb ec ff ed ef f0 de 10 1f f3 ff ef 06
       0.045442443 0.060589924 0.045442443 -0.15904856 -0.1514748 -0.0075737406 -0.14390106 -0.12875359 -0.12117985 -0.25750718 0.12117985 0.23478596 -0.098458625 -0.0075737406 -0.12875359 0.045442443
000060 05 f5 d8 05 0e 19 e3 d7 0d e8 e5 3e 33 d7 f9 d9
       0.0378687 -0.08331115 -0.3029496 0.0378687 0.10603237 0.18934351 -0.21963848 -0.31052336 0.098458625 -0.18176977 -0.20449099 0.46957192 0.38626078 -0.31052336 -0.053016186 -0.29537588
000070 0b f8 d4 ea 36 df 0d cc 0c ed 09 1d 55 e9 17 e6
       0.08331115 -0.060589924 -0.3332446 -0.1666223 0.40898198 -0.24993344 0.098458625 -0.3938345 0.09088489 -0.14390106 0.06816366 0.21963848 0.64376795 -0.17419603 0.17419603 -0.19691725
000080 0a fc 16 e2 12 fc f7 d8 bc c5 16 0d fa f6 0e e0
       0.0757374 -0.030294962 0.1666223 -0.22721222 0.13632733 -0.030294962 -0.06816366 -0.3029496 -0.51501435 -0.4468507 0.1666223 0.098458625 -0.045442443 -0.0757374 0.10603237 -0.2423597
000090 e5 cd fd e7 e4 f4 08 20 e8 06 16 de f2 f6 0c fd
       -0.20449099 -0.38626078 -0.022721222 -0.18934351 -0.21206474 -0.09088489 0.060589924 0.2423597 -0.18176977 0.045442443 0.1666223 -0.25750718 -0.10603237 -0.0757374 0.09088489 -0.022721222
0000a0 da 05 e4 05 de 15 0e fa cc d8 f2 da fa d5 ee d6
       -0.28780213 0.0378687 -0.21206474 0.0378687 -0.25750718 0.15904856 0.10603237 -0.045442443 -0.3938345 -0.3029496 -0.10603237 -0.28780213 -0.045442443 -0.32567084 -0.13632733 -0.3180971
0000b0 e0 1c f1 05 ff f3 0e ef e2 fc 07 f1 f3 29 01 2d
       -0.2423597 0.21206474 -0.11360611 0.0378687 -0.0075737406 -0.098458625 0.10603237 -0.12875359 -0.22721222 -0.030294962 0.053016186 -0.11360611 -0.098458625 0.31052336 0.0075737406 0.34081832
0000c0 05 a0 81 05 a5 ef fd e7 a5 b8 04 e6 b7 b1 0e ab
       0.0378687 -0.7270791 -0.96186507 0.0378687 -0.6892104 -0.12875359 -0.022721222 -0.18934351 -0.6892104 -0.5453093 0.030294962 -0.19691725 -0.5528831 -0.5983255 0.10603237 -0.64376795
0000d0 03 b6 a4 f1 e5 04 15 b0 d0 cd 00 dd ba ca fc b0
       0.022721222 -0.5604568 -0.69678414 -0.11360611 -0.20449099 0.030294962 0.15904856 -0.6058992 -0.36353955 -0.38626078 0.0 -0.26508093 -0.53016186 -0.40898198 -0.030294962 -0.6058992
0000e0 1e 38 19 09 19 19 f5 37 10 0d fe 20 cb 03 0c 19
       0.22721222 0.4241295 0.18934351 0.06816366 0.18934351 0.18934351 -0.08331115 0.41655573 0.12117985 0.098458625 -0.015147481 0.2423597 -0.40140826 0.022721222 0.09088489 0.18934351
0000f0 06 05 d9 ed e6 0b e5 cd d0 f9 10 f1 c6 ef 16 d8
       0.045442443 0.0378687 -0.29537588 -0.14390106 -0.19691725 0.08331115 -0.20449099 -0.38626078 -0.36353955 -0.053016186 0.12117985 -0.11360611 -0.43927696 -0.12875359 0.1666223 -0.3029496

conv1d_2/conv1d_bias f4 [32]
000000 f8 aa f0 3c 64 ba 1a 3d 7e 46 a7 3d f1 db c5 bd
       0.0293784 0.037775412 0.08167742 -0.09661091
000010 a8 d2 17 be 1c 32 33 3e 5f 47 0b be ae 48 c3 be
       -0.14826453 0.17499584 -0.13601445 -0.38141388
000020 bc 64 7e 3d 19 81 1f 3c d8 d3 57 bd 72 da 26 bd
       0.062107787 0.009735369 -0.052692264 -0.04073567
000030 36 b5 ce 3d a0 d4 d0 3d 96 17 b4 3d ad ea 73 bd
       0.10093157 0.10196805 0.08793561 -0.059549976
000040 4b e7 06 3c a9 72 b3 bd 63 82 c8 3b 84 fb 12 3d
       0.0082338555 -0.08762104 0.006119059 0.035884395
000050 70 e9 3e 3c e0 fc 65 3d a0 66 67 bd a7 30 39 bd
       0.0116523355 0.056149364 -0.056494355 -0.045212414
000060 4c 0d 04 be 84 55 89 3d 83 80 c7 3c 1f 73 70 bd
       -0.12895697 0.06705764 0.024353271 -0.058703538
000070 9f 27 0c bc 7f 76 44 3a ee 43 c7 3d 98 43 cb bc
       -0.008554368 0.0007494464 0.097297534 -0.024812505

conv1d_3/conv1d/ExpandDims_1 i1 [32, 1, 3, 32] scale=0.0056516267 zero_point=0
000000 fc e9 dc eb b2 f8 2b 0d b8 14 0b 28 b1 bb c3 db
       -0.022606507 -0.12998742 -0.20345856 -0.11868416 -0.4408269 -0.045213014 0.24301995 0.073471144 -0.40691712 0.113032535 0.062167894 0.22606507 -0.44647852 -0.38996226 -0.34474924 -0.20911019
000010 9c 03 0b ce 0c bd 0e d9 2a e8 ea e3 3a ef cf fa
       -0.56516266 0.01695488 0.062167894 -0.28258133 0.06781952 -0.37865898 0.079122774 -0.22041345 0.23736832 -0.13563904 -0.12433579 -0.16389717 0.32779434 -0.09607765 -0.2769297 -0.03390976
000020 28 2c 0e 29 b3 ec 1f f8 ec 15 06 ef ce 20 e0 0e
       0.22606507 0.24867158 0.079122774 0.23171669 -0.43517527 -0.113032535 0.17520043 -0.045213014 -0.113032535 0.11868416 0.03390976 -0.09607765 -0.28258133 0.18085206 -0.18085206 0.079122774
000030 ea da 31 ff 14 36 34 37 00 f1 f6 ff 01 1e 19 34
       -0.12433579 -0.21476182 0.2769297 -0.0056516267 0.113032535 0.30518785 0.29388458 0.31083947 0.0 -0.084774405 -0.056516267 -0.0056516267 0.0056516267 0.16954881 0.14129066 0.29388458
000040 02 ee f7 e3 eb e7 ca 0c dd 43 03 39 e0 dc 19 13
       0.0113032535 -0.10172928 -0.05086464 -0.16389717 -0.11868416 -0.14129066 -0.30518785 0.06781952 -0.19780694 0.37865898 0.01695488 0.32214272 -0.18085206 -0.20345856 0.14129066 0.10738091
000050 13 e4 cf 4c e3 d7 f4 0d e7 31 fd 35 51 f6 eb 01
       0.10738091 -0.15824555 -0.2769297 0.42952365 -0.16389717 -0.23171669 -0.06781952 0.073471144 -0.14129066 0.2769297 -0.01695488 0.29953623 0.45778176 -0.056516267 -0.11868416 0.0056516267
000060 d3 ce 1f fc cf f5 f5 c0 a2 12 3e 31 bb f4 b5 11
       -0.2543232 -0.28258133 0.17520043 -0.022606507 -0.2769297 -0.062167894 -0.062167894 -0.3617041 -0.5312529 0.10172928 0.35040087 0.2769297 -0.38996226 -0.06781952 -0.423872 0.09607765
000070 ca d3 32 10 30 0f cd 10 07 d7 e2 1e dc f2 b4 32
       -0.30518785 -0.2543232 0.28258133 0.09042603 0.27127808 0.084774405 -0.28823295 0.09042603 0.039561387 -0.23171669 -0.16954881 0.16954881 -0.20345856 -0.079122774 -0.42952365 0.28258133
000080 ae 21 d2 24 da fb e4 eb e1 2c d8 df ed f1 f5 1a
       -0.46343338 0.18650368 -0.25997484 0.20345856 -0.21476182 -0.028258134 -0.15824555 -0.11868416 -0.17520043 0.24867158 -0.22606507 -0.18650368 -0.10738091 -0.084774405 -0.062167894 0.14694229
000090 21 cf e4 ff 20 d0 24 26 11 02 e2 f6 39 e3 f2 39
       0.18650368 -0.2769297 -0.15824555 -0.0056516267 0.18085206 -0.27127808 0.20345856 0.21476182 0.09607765 0.0113032535 -0.16954881 -0.056516267 0.32214272 -0.16389717 -0.079122774 0.32214272
0000a0 0f c5 0a a9 cc e4 0b ea e9 1a ef 1f ef ae da 00
       0.084774405 -0.33344597 0.056516267 -0.49169153 -0.29388458 -0.15824555 0.062167894 -0.12433579 -0.12998742 0.14694229 -0.09607765 0.17520043 -0.09607765 -0.46343338 -0.21476182 0.0
0000b0 bb 0f 26 0d 09 05 ca 1a 21 2d ed 1d 04 2a db 12
       -0.38996226 0.084774405 0.21476182 0.073471144 0.05086464 0.028258134 -0.30518785 0.14694229 0.18650368 0.2543232 -0.10738091 0.16389717 0.022606507 0.23736832 -0.20911019 0.10172928
0000c0 fb bf 0b d3 d5 f4 dd c8 e6 ef 44 0a 1e f5 27 10
       -0.028258134 -0.36735573 0.062167894 -0.2543232 -0.24301995 -0.06781952 -0.19780694 -0.3164911 -0.14694229 -0.09607765 0.3843106 0.056516267 0.16954881 -0.062167894 0.22041345 0.09042603
0000d0 c8 e8 18 24 df fb e4 e9 e5 0f bd e1 48 1b 01 e7
       -0.3164911 -0.13563904 0.13563904 0.20345856 -0.18650368 -0.028258134 -0.15824555 -0.12998742 -0.15259393 0.084774405 -0.37865898 -0.17520043 0.40691712 0.15259393 0.0056516267 -0.14129066
0000e0 a6 ee e1 d9 fc ff da b7 08 cb 01 e6 02 da 0c e6
       -0.5086464 -0.10172928 -0.17520043 -0.22041345 -0.022606507 -0.0056516267 -0.21476182 -0.41256875 0.045213014 -0.29953623 0.0056516267 -0.14694229 0.0113032535 -0.21476182 0.06781952 -0.14694229
0000f0 0e 17 1c 2e 20 d6 dc 08 b4 f5 eb 27 3a 01 ea fa
       0.079122774 0.12998742 0.15824555 0.25997484 0.18085206 -0.23736832 -0.20345856 0.045213014 -0.42952365 -0.062167894 -0.11868416 0.22041345 0.32779434 0.0056516267 -0.12433579 -0.03390976

conv1d_3/conv1d_bias f4 [32]
000000 da f8 81 3b b2 e3 a0 bd c1 5d 9e 3d e9 90 f0 3d
       0.003966433 -0.078559294 0.07732726 0.117463894
000010 fc 9e 21 bd 62 65 d5 3c bc 4e 3f bb 94 86 89 3d
       -0.03945826 0.02604932 -0.0029191216 0.06715122
000020 fb b9 45 3c 11 75 02 3e cb e9 58 3d d2 da eb bd
       0.012068267 0.1273997 0.052957337 -0.11516346
000030 79 52 dd 3c 9e 17 7f bc 78 91 11 be 9b 2b e2 3b
       0.027016865 -0.015569596 -0.14215648 0.006902171
000040 4d 25 43 3d 79 f4 ac bd e7 0a dc 3d cc fb 92 be
       0.047642995 -0.08445067 0.10744267 -0.2870773
000050 23 38 38 3d 69 7e 29 3b 09 1d 39 bd 72 d0 d9 be
       0.04497541 0.00258627 -0.045193706 -0.42541844
000060 87 aa 0b 3e 19 4e 06 bd 36 f8 67 3d 86 06 58 bd
       0.1363927 -0.032789323 0.056633197 -0.052740596
000070 ce af 24 3d 9f 17 15 bc e5 40 86 3d f6 ba 08 3c
       0.040206723 -0.00909987 0.065553464 0.008345356

conv1d_4/conv1d/ExpandDims_1 i1 [32, 1, 3, 32] scale=0.007179016 zero_point=0
000000 0f e1 17 d4 05 eb f0 03 cd dd f1 f1 1d 0c 1f 04
       0.10768524 -0.22254948 0.16511737 -0.3158767 0.03589508 -0.15075932 -0.11486425 0.021537047 -0.36612982 -0.25126556 -0.10768524 -0.10768524 0.20819145 0.08614819 0.22254948 0.028716063
000010 a7 e2 fe 13 f2 ea 4b de ef f6 13 09 00 e0 05 f2
       -0.6389324 -0.21537048 -0.014358032 0.1364013 -0.100506224 -0.15793835 0.53842616 -0.24408653 -0.12204327 -0.07179016 0.1364013 0.064611144 0.0 -0.2297285 0.03589508 -0.100506224
000020 d4 c4 c8 df e5 f7 11 fd 08 f7 ed 08 10 fa f1 03
       -0.3158767 -0.43074095 -0.4020249 -0.23690753 -0.19383343 -0.064611144 0.12204327 -0.021537047 0.057432126 -0.064611144 -0.1364013 0.057432126 0.11486425 -0.043074094 -0.10768524 0.021537047
000030 e5 fc e4 06 c0 0c 0a 07 f0 f2 f3 ea e8 ed 13 f8
       -0.19383343 -0.028716063 -0.20101245 0.043074094 -0.459457 0.08614819 0.07179016 0.050253112 -0.11486425 -0.100506224 -0.0933272 -0.15793835 -0.17229638 -0.1364013 0.1364013 -0.057432126
000040 fd 13 02 ef f1 f1 f9 fe f1 d1 df 00 e7 11 ec d7
       -0.021537047 0.1364013 0.014358032 -0.12204327 -0.10768524 -0.10768524 -0.050253112 -0.014358032 -0.10768524 -0.33741373 -0.23690753 0.0 -0.1794754 0.12204327 -0.14358032 -0.29433966
000050 09 03 e3 fa 0a fa 2c ff c6 ec e2 af d6 0c 05 ec
       0.064611144 0.021537047 -0.20819145 -0.043074094 0.07179016 -0.043074094 0.3158767 -0.007179016 -0.4163829 -0.14358032 -0.21537048 -0.5815003 -0.30151865 0.08614819 0.03589508 -0.14358032
000060 d3 f2 be d6 0c d6 31 cb d2 e0 de 25 c6 d0 00 f2
       -0.3230557 -0.100506224 -0.47381505 -0.30151865 0.08614819 -0.30151865 0.35177177 -0.38048783 -0.33023474 -0.2297285 -0.24408653 0.26562357 -0.4163829 -0.34459275 0.0 -0.100506224
000070 cc 08 f2 ef ed c9 f9 08 d3 bc d3 e7 c2 e5 e0 81
       -0.3733088 0.057432126 -0.100506224 -0.12204327 -0.1364013 -0.39484587 -0.050253112 0.057432126 -0.3230557 -0.48817307 -0.3230557 -0.1794754 -0.44509897 -0.19383343 -0.2297285 -0.911735
000080 b3 d9 08 ca 14 e6 20 ef dc fc dc ff cf e4 ec fe
       -0.5527842 -0.2799816 0.057432126 -0.38766685 0.14358032 -0.1866544 0.2297285 -0.12204327 -0.25844458 -0.028716063 -0.25844458 -0.007179016 -0.35177177 -0.20101245 -0.14358032 -0.014358032
000090 e3 e7 e8 e6 a2 cd f2 31 ce bf dd b7 cd d4 f5 c9
       -0.20819145 -0.1794754 -0.17229638 -0.1866544 -0.67482746 -0.36612982 -0.100506224 0.35177177 -0.3589508 -0.46663603 -0.25126556 -0.5240682 -0.36612982 -0.3158767 -0.07896917 -0.39484587
0000a0 fd f8 2c bb 05 00 ed f9 b8 ed 05 e0 f6 14 10 fb
       -0.021537047 -0.057432126 0.3158767 -0.4953521 0.03589508 0.0 -0.1364013 -0.050253112 -0.51688915 -0.1364013 0.03589508 -0.2297285 -0.07179016 0.14358032 0.11486425 -0.03589508
0000b0 ea f8 03 ee 09 06 cc 0f ef 07 14 05 cc d1 f9 19
       -0.15793835 -0.057432126 0.021537047 -0.12922229 0.064611144 0.043074094 -0.3733088 0.10768524 -0.12204327 0.050253112 0.14358032 0.03589508 -0.3733088 -0.33741373 -0.050253112 0.1794754
0000c0 d7 bd cb f5 cf f0 12 d8 1d ef f8 e9 0b e9 e9 07
       -0.29433966 -0.48099405 -0.38048783 -0.07896917 -0.35177177 -0.11486425 0.12922229 -0.28716063 0.20819145 -0.12204327 -0.057432126 -0.16511737 0.07896917 -0.16511737 -0.16511737 0.050253112
0000d0 e0 d9 f6 ff f3 0b f0 e9 11 d7 c6 28 f0 06 f3 e7
       -0.2297285 -0.2799816 -0.07179016 -0.007179016 -0.0933272 0.07896917 -0.11486425 -0.16511737 0.12204327 -0.29433966 -0.4163829 0.28716063 -0.11486425 0.043074094 -0.0933272 -0.1794754
0000e0 b5 05 f5 23 15 eb e9 21 11 01 14 cc 06 02 df f9
       -0.53842616 0.03589508 -0.07896917 0.25126556 0.15075932 -0.15075932 -0.16511737 0.23690753 0.12204327 0.007179016 0.14358032 -0.3733088 0.043074094 0.014358032 -0.23690753 -0.050253112
0000f0 cf e9 e4 ee ef 00 24 f3 10 00 22 03 e4 15 d5 f0
       -0.35177177 -0.16511737 -0.20101245 -0.12922229 -0.12204327 0.0 0.25844458 -0.0933272 0.11486425 0.0 0.24408653 0.021537047 -0.20101245 0.15075932 -0.30869767 -0.11486425

conv1d_4/conv1d_bias f4 [32]
000000 8b f8 2d be 87 5c 51 3e bd 7d dc bd 99 76 c9 be
       -0.16989343 0.20445453 -0.1076617 -0.39348295
000010 76 ff ee bc c1 14 76 be f1 c2 93 bd cb fa 3e be
       -0.029174548 -0.24031354 -0.072149165 -0.18650357
000020 e9 e9 84 be bf 00 67 3e 9e e1 25 bc 86 db 65 bd
       -0.2595971 0.22558878 -0.010124592 -0.056117557
000030 04 57 16 3d 14 41 34 3d 92 c7 81 be c9 d6 fa bd
       0.03670408 0.044007376 -0.25347573 -0.12247998
000040 03 2a be 3d be 91 74 3b 2a 2f cb bc 41 c7 12 3e
       0.09285357 0.0037318314 -0.024802763 0.14333822
000050 aa 8b cf bd b7 0e 17 be fd 62 9c 3b ea 27 da bd
       -0.10134061 -0.14751707 0.0047725425 -0.10652144
000060 a9 d1 92 bd 7f 6a e5 3d 75 71 60 be 79 e8 d4 bc
       -0.07168896 0.11201953 -0.2191828 -0.025989758
000070 ab df 6a be 14 87 ad bd 4d 7b de bd cb 92 be bd
       -0.22936885 -0.0847303 -0.108633615 -0.09305342

conv1d_5/conv1d/ExpandDims_1 i1 [32, 1, 3, 32] scale=0.00719506 zero_point=0
000000 e8 db f0 3f f1 10 04 10 0f 03 12 02 dd fa 18 df
       -0.17268145 -0.26621723 -0.11512096 0.4532888 -0.1079259 0.11512096 0.02878024 0.11512096 0.1079259 0.021585181 0.12951109 0.01439012 -0.2518271 -0.043170363 0.17268145 -0.23743698
000010 1e 06 f8 c6 1b 25 00 15 fa 09 09 05 f1 e3 f1 11
       0.2158518 0.043170363 -0.05756048 -0.4173135 0.19426662 0.26621723 0.0 0.15109627 -0.043170363 0.064755544 0.064755544 0.0359753 -0.1079259 -0.20865674 -0.1079259 0.122316025
000020 0c ef f0 02 da 16 fe 10 16 fa 0b 2e f7 db 01 19
       0.086340725 -0.122316025 -0.11512096 0.01439012 -0.2734123 0.15829132 -0.01439012 0.11512096 0.15829132 -0.043170363 0.07914566 0.33097276 -0.064755544 -0.26621723 0.00719506 0.1798765
000030 eb 23 fc fa 36 1f e3 30 f6 fd 07 f5 09 e1 e2 fc
       -0.15109627 0.2518271 -0.02878024 -0.043170363 0.38853323 0.22304687 -0.20865674 0.3453629 -0.0719506 -0.021585181 0.050365422 -0.07914566 0.064755544 -0.22304687 -0.2158518 -0.02878024
000040 f5 07 f5 33 21 0f fa 34 12 0e ce 15 db 07 3b b6
       -0.07914566 0.050365422 -0.07914566 0.36694807 0.23743698 0.1079259 -0.043170363 0.37414312 0.12951109 0.100730844 -0.359753 0.15109627 -0.26621723 0.050365422 0.42450854 -0.53243446
000050 d1 01 21 f7 19 cd 0e 02 27 13 26 16 21 f6 c6 f5
       -0.33816782 0.00719506 0.23743698 -0.064755544 0.1798765 -0.36694807 0.100730844 0.01439012 0.28060734 0.13670614 0.2734123 0.15829132 0.23743698 -0.0719506 -0.4173135 -0.07914566
000060 12 e8 1f da e3 f1 ee 2a d3 f5 11 0d 26 b6 09 06
       0.12951109 -0.17268145 0.22304687 -0.2734123 -0.20865674 -0.1079259 -0.12951109 0.30219254 -0.3237777 -0.07914566 0.122316025 0.09353578 0.2734123 -0.53243446 0.064755544 0.043170363
000070 c6 0f fb f7 17 e6 1e 05 00 07 f4 27 02 ca ff eb
       -0.4173135 0.1079259 -0.0359753 -0.064755544 0.16548638 -0.18707156 0.2158518 0.0359753 0.0 0.050365422 -0.086340725 0.28060734 0.01439012 -0.38853323 -0.00719506 -0.15109627
000080 24 e1 1b 2d f1 c5 de e2 0b 07 26 15 17 e1 fc 21
       0.25902218 -0.22304687 0.19426662 0.3237777 -0.1079259 -0.42450854 -0.24463205 -0.2158518 0.07914566 0.050365422 0.2734123 0.15109627 0.16548638 -0.22304687 -0.02878024 0.23743698
000090 ed ef fe fb 08 f8 d7 08 0f da 1b 0e 04 00 13 1c
       -0.13670614 -0.122316025 -0.01439012 -0.0359753 0.05756048 -0.05756048 -0.29499745 0.05756048 0.1079259 -0.2734123 0.19426662 0.100730844 0.02878024 0.0 0.13670614 0.20146169
0000a0 2a f2 33 0b 09 ff 19 fd 07 38 ff 02 f4 b2 09 ef
       0.30219254 -0.100730844 0.36694807 0.07914566 0.064755544 -0.00719506 0.1798765 -0.021585181 0.050365422 0.40292338 -0.00719506 0.01439012 -0.086340725 -0.5612147 0.064755544 -0.122316025
0000b0 e1 fd 12 0e 14 44 0d 28 0d 16 e3 15 34 02 1e 36
       -0.22304687 -0.021585181 0.12951109 0.100730844 0.1439012 0.4892641 0.09353578 0.2878024 0.09353578 0.15829132 -0.20865674 0.15109627 0.37414312 0.01439012 0.2158518 0.38853323
0000c0 07 cc f5 08 07 02 02 fb de 0c 03 00 03 da ec 0c
       0.050365422 -0.37414312 -0.07914566 0.05756048 0.050365422 0.01439012 0.01439012 -0.0359753 -0.24463205 0.086340725 0.021585181 0.0 0.021585181 -0.2734123 -0.1439012 0.086340725
0000d0 0d f9 ca d9 e8 ff f5 f9 e9 ef f0 07 d9 1d 28 13
       0.09353578 -0.050365422 -0.38853323 -0.28060734 -0.17268145 -0.00719506 -0.07914566 -0.050365422 -0.16548638 -0.122316025 -0.11512096 0.050365422 -0.28060734 0.20865674 0.2878024 0.13670614
0000e0 f6 f5 f0 00 04 0f fb f5 eb 0a cc 14 f4 07 16 12
       -0.0719506 -0.07914566 -0.11512096 0.0 0.02878024 0.1079259 -0.0359753 -0.07914566 -0.15109627 0.0719506 -0.37414312 0.1439012 -0.086340725 0.050365422 0.15829132 0.12951109
0000f0 04 f9 0b 01 04 fe f4 01 0d e5 f3 00 09 05 fb 02
       0.02878024 -0.050365422 0.07914566 0.00719506 0.02878024 -0.01439012 -0.086340725 0.00719506 0.09353578 -0.19426662 -0.09353578 0.0 0.064755544 0.0359753 -0.0359753 0.01439012

conv1d_5/conv1d_bias f4 [32]
000000 d7 2a 0c be 96 dc cb 3c 8f e1 16 3d a9 79 66 3d
       -0.13688217 0.024885457 0.036836203 0.056268368
000010 9c 0a 10 3e fd 42 1d 3b 45 84 04 3e d4 59 b2 3c
       0.14066547 0.0023996227 0.12941082 0.021771349
000020 ef 94 bd bb 21 88 7c 3d a3 c3 24 3e 33 a9 99 be
       -0.0057855765 0.06165326 0.16090254 -0.300119
000030 d6 6e 15 3d a2 76 60 3c cd 0f f2 bd 86 dd 31 be
       0.036482655 0.013700159 -0.1181942 -0.1736966
000040 bf f8 d9 3d db c7 73 3d 81 3e a7 bc 2a 68 a1 bd
       0.10643148 0.05951677 -0.020415546 -0.07881196
000050 2d 82 e7 3c 20 b6 a8 bb c4 36 8e 3d 11 80 e6 3c
       0.028260315 -0.005148664 0.069440395 0.028137239
000060 ae 18 1c 3e 9f 6d 34 3d f8 a4 6d bd c9 6c 0c 3e
       0.1524379 0.044049855 -0.058018655 0.13713373
000070 ea a0 d6 bb 83 18 08 be 2f ce d7 3d dd 40 94 3d
       -0.006549944 -0.132906 0.10537373 0.07238934

conv1d_6/conv1d/ExpandDims_1 i1 [256, 1, 3, 32] scale=0.008000129 zero_point=0
000000 11 27 11 16 08 08 0b 14 f4 fd e3 13 05 f4 0b 08
       0.1360022 0.312005 0.1360022 0.17600283 0.06400103 0.06400103 0.088001415 0.16000257 -0.09600155 -0.024000388 -0.23200373 0.15200245 0.040000644 -0.09600155 0.088001415 0.06400103
000010 00 0d f1 f2 2e 22 df ce e0 07 dc e6 01 00 de 1e
       0.0 0.10400168 -0.120001934 -0.11200181 0.36800593 0.2720044 -0.26400426 -0.40000644 -0.25600412 0.056000903 -0.28800464 -0.20800336 0.008000129 0.0 -0.2720044 0.24000387
000020 01 03 e5 fa fc f9 11 fe ea 23 12 15 ff ed f4 cb
       0.008000129 0.024000388 -0.21600348 -0.048000775 -0.032000516 -0.056000903 0.1360022 -0.016000258 -0.17600283 0.2800045 0.14400232 0.16800271 -0.008000129 -0.15200245 -0.09600155 -0.42400682
000030 0d e7 fc fa f5 fc 02 d6 03 06 f9 17 eb 00 fd ec
       0.10400168 -0.20000322 -0.032000516 -0.048000775 -0.088001415 -0.032000516 0.016000258 -0.33600542 0.024000388 0.048000775 -0.056000903 0.18400297 -0.16800271 0.0 -0.024000388 -0.16000257
000040 d7 0d ff e1 d4 04 16 f3 ea 1b 06 09 f7 1b dc fd
       -0.32800528 0.10400168 -0.008000129 -0.24800399 -0.35200566 0.032000516 0.17600283 -0.10400168 -0.17600283 0.21600348 0.048000775 0.07200116 -0.07200116 0.21600348 -0.28800464 -0.024000388
000050 f9 06 f4 f0 02 f1 15 03 ea f4 e2 e3 08 fc 13 fd
       -0.056000903 0.048000775 -0.09600155 -0.12800206 0.016000258 -0.120001934 0.16800271 0.024000388 -0.17600283 -0.09600155 -0.24000387 -0.23200373 0.06400103 -0.032000516 0.15200245 -0.024000388
000060 07 e1 e4 eb fd e6 e4 f2 f7 dc cc 0a f4 0b f1 e5
       0.056000903 -0.24800399 -0.22400361 -0.16800271 -0.024000388 -0.20800336 -0.22400361 -0.11200181 -0.07200116 -0.28800464 -0.4160067 0.08000129 -0.09600155 0.088001415 -0.120001934 -0.21600348
000070 1e 00 01 00 de f9 0a 28 f6 08 0a ed f9 01 0f e5
       0.24000387 0.0 0.008000129 0.0 -0.2720044 -0.056000903 0.08000129 0.32000515 -0.08000129 0.06400103 0.08000129 -0.15200245 -0.056000903 0.008000129 0.120001934 -0.21600348
000080 f5 f0 fb e8 fc f6 10 fe ee d9 f3 07 ec f9 fd f9
       -0.088001415 -0.12800206 -0.040000644 -0.1920031 -0.032000516 -0.08000129 0.12800206 -0.016000258 -0.14400232 -0.312005 -0.10400168 0.056000903 -0.16000257 -0.056000903 -0.024000388 -0.056000903
000090 01 07 fd ed e7 f4 e7 f0 0e 28 e0 15 e6 eb eb 0a
       0.008000129 0.056000903 -0.024000388 -0.15200245 -0.20000322 -0.09600155 -0.20000322 -0.12800206 0.11200181 0.32000515 -0.25600412 0.16800271 -0.20800336 -0.16800271 -0.16800271 0.08000129
0000a0 eb f3 ff d0 f6 17 dd fe e5 15 0a ff ef f3 ea db
       -0.16800271 -0.10400168 -0.008000129 -0.3840062 -0.08000129 0.18400297 -0.2800045 -0.016000258 -0.21600348 0.16800271 0.08000129 -0.008000129 -0.1360022 -0.10400168 -0.17600283 -0.29600477
0000b0 07 df f6 f0 0f ef fb d9 ea ed 10 01 e5 e3 01 0d
       0.056000903 -0.26400426 -0.08000129 -0.12800206 0.120001934 -0.1360022 -0.040000644 -0.312005 -0.17600283 -0.15200245 0.12800206 0.008000129 -0.21600348 -0.23200373 0.008000129 0.10400168
0000c0 f2 c8 ed bd ef db 19 cc d8 ff fb 03 f3 34 e8 af
       -0.11200181 -0.44800723 -0.15200245 -0.53600866 -0.1360022 -0.29600477 0.20000322 -0.4160067 -0.32000515 -0.008000129 -0.040000644 0.024000388 -0.10400168 0.4160067 -0.1920031 -0.64801043
0000d0 fd e5 d3 0a c0 cb eb 0c e4 e7 f9 dc d5 d6 fb cd
       -0.024000388 -0.21600348 -0.3600058 0.08000129 -0.51200825 -0.42400682 -0.16800271 0.09600155 -0.22400361 -0.20000322 -0.056000903 -0.28800464 -0.34400555 -0.33600542 -0.040000644 -0.40800658
0000e0 cf e5 e1 eb fa 02 05 f1 f5 fa fd 10 cb 44 e8 1f
       -0.3920063 -0.21600348 -0.24800399 -0.16800271 -0.048000775 0.016000258 0.040000644 -0.120001934 -0.088001415 -0.048000775 -0.024000388 0.12800206 -0.42400682 0.5440088 -0.1920031 0.24800399
0000f0 0d 0c cd 09 e5 ee dc 14 be ff ed f6 d9 f1 10 e6
       0.10400168 0.09600155 -0.40800658 0.07200116 -0.21600348 -0.14400232 -0.28800464 0.16000257 -0.5280085 -0.008000129 -0.15200245 -0.08000129 -0.312005 -0.120001934 0.12800206 -0.20800336

conv1d_6/conv1d_bias f4 [256]
000000 02 47 a5 3d aa f8 85 bd e7 a0 df 3c 62 4f d3 bd
       0.08070184 -0.065415695 0.027298404 -0.103178754
000010 a4 a0 ac be 44 1e f7 bc 33 6a 15 bd af 40 36 bd
       -0.3371631 -0.030165799 -0.036478233 -0.04449528
000020 aa 7b e5 3d 22 ef c3 bc d4 ea 17 bd 68 2c c5 bd
       0.11205228 -0.023917738 -0.037089184 -0.096276104
000030 bf ad 40 3c 2c c8 d7 3e 61 13 2d bd 42 71 b7 bd
       0.011760174 0.42144907 -0.04225481 -0.08957149
000040 a2 40 16 be f0 17 7e 3d 50 69 9d bc 9b 85 5e bd
       -0.14673093 0.062034547 -0.019215256 -0.054326635
000050 bb 1b 00 be 55 a9 46 be 27 01 86 bd 00 e0 c9 bd
       -0.12510578 -0.19400533 -0.065431885 -0.09857178
000060 83 25 7f be 0e 8a cb bd 60 d9 4f bd 59 54 20 bd
       -0.24916653 -0.09938441 -0.050744414 -0.03914294
000070 9b dd 59 bd 83 c5 17 bd 63 d2 8e bc 4b d4 6c bc
       -0.053189855 -0.037053596 -0.017434305 -0.014454911
000080 f3 a5 42 3d 73 8f bc bd 72 3c a1 bd ab c1 ff bd
       0.047521543 -0.09207048 -0.07872857 -0.12488111
000090 30 e1 79 bd 0b 14 b7 bc fa db a7 bd b2 15 01 be
       -0.06100577 -0.022348424 -0.08196254 -0.12605932
0000a0 42 7b 12 be 85 71 2a 3e c6 53 5b 3d c9 ee d7 bd
       -0.14304832 0.16644867 0.05354669 -0.105435915
0000b0 5c 65 de 3d 85 7d 49 bb ee ac 76 3e df 24 1c be
       0.108591765 -0.0030744981 0.24089405 -0.1524844
0000c0 c5 a0 32 be 36 b8 90 bd 93 8b 62 be df 01 54 be
       -0.17444141 -0.070663854 -0.22123556 -0.20703839
0000d0 4b 00 0a bd a7 21 56 bd a6 f9 ed 3d c2 84 7b 3d
       -0.033691686 -0.052278187 0.11619882 0.061405905
0000e0 d5 ff 71 3c a9 be 3a 3e 48 b7 0f be a0 b5 37 3c
       0.014770468 0.18236794 -0.1403476 0.011212736
0000f0 05 df 2c be 32 ff 20 bc 61 d9 cf bd 1f a5 a1 3b
       -0.1688195 -0.009826468 -0.101488836 0.004933014
000100 8f 59 1f bd 63 c8 06 be f2 c6 d2 bd 43 ea 33 3e
       -0.03890377 -0.13162379 -0.10291852 0.17569833
000110 e6 14 23 3e 5c cc 22 3c 8c 8f e2 bd 83 e9 27 be
       0.15925941 0.009936418 -0.11062536 -0.16397671
000120 42 76 eb 3e c5 80 cb 3d e6 cc 4e bd 13 51 e0 be
       0.4598866 0.0993667 -0.050488375 -0.43811855
000130 5d 5a bd 3c f5 a3 93 be f0 b4 6c be a7 c1 f6 bd
       0.023114378 -0.28836027 -0.23115897 -0.12048655
000140 df 98 03 be 6f 82 41 bd df 73 65 3c d8 00 e4 bd
       -0.12851284 -0.04724353 0.014004677 -0.111329734
000150 9b b3 35 be 62 cd 95 bd ac 84 33 be 0c 62 01 be
       -0.17744295 -0.07314564 -0.17531079 -0.12635058
000160 af 43 4b bd bc d7 9d 3d 62 56 1f bd 5b db 5e bc
       -0.049625095 0.07707164 -0.03890074 -0.013602103
000170 9c 89 dc 3d c2 30 ba bd 61 c3 f7 3c 4b 1d 46 be
       0.107684344 -0.09091331 0.030244531 -0.19347112
000180 7c 3d 75 bd b3 8e 6c bd 5b 18 ad bd 6d c5 56 bd
       -0.05987309 -0.057753276 -0.08451911 -0.052434374
000190 15 60 a8 bd f2 15 fb 3d 0a 24 74 3c 2e 9e f5 bc
       -0.08221451 0.12260045 0.0149011705 -0.029982653
0001a0 db 7d 89 3e 5d 37 aa bd 0f c0 d7 bd d0 9b 68 bd
       0.26853833 -0.08311341 -0.10534679 -0.05678922
0001b0 4e 34 80 be a5 49 58 be 3c 47 bf bd d6 4a 74 3e
       -0.25039905 -0.21121843 -0.09339759 0.23856673
0001c0 6f ed 7f bc 47 61 71 3d 64 03 3c 3e e8 b9 90 3d
       -0.015620573 0.05893066 0.18360668 0.07066709
0001d0 11 33 53 bc 9b fd 2b be e6 a3 72 bd b7 1c 0b bc
       -0.012890593 -0.16795962 -0.059238337 -0.008490733
0001e0 35 6d 7d bc 56 43 04 3e 1b a4 90 3e 8f 1e f7 bd
       -0.0154679315 0.12916312 0.28250203 -0.120663755
0001f0 c8 45 bf 3c 3d e4 01 be 37 4c 5c be 5f ae 86 bd
       0.023348704 -0.12684722 -0.21513449 -0.065762274
000200 94 16 0d bd cb 46 2e bb ae 72 a5 bd 3f 62 d6 bd
       -0.03444536 -0.002659249 -0.08078514 -0.10467958
000210 68 f3 dd bc 9b 09 ae 3d 18 56 1c 3b d5 41 df bd
       -0.027093604 0.08497926 0.0023855027 -0.10901228
000220 f8 01 f5 bd f2 5a ff bd 19 15 44 be 17 bb c4 bd
       -0.11963266 -0.12468518 -0.19148673 -0.09605997
000230 da ab 2b bd 0c d6 d8 bd 15 7d ee 3d f1 7c ae bd
       -0.041911937 -0.10587701 0.11644951 -0.085199244
000240 67 b8 a6 bc 8a f3 a5 bd 07 76 39 3e 7d f7 0e be
       -0.020351602 -0.08103092 0.1811143 -0.13961597
000250 fd 7c 9d bd e6 8f 0e be 88 3c 97 bd 35 31 28 be
       -0.07689855 -0.1392208 -0.07384592 -0.16425021
000260 f1 f7 23 be 76 c1 23 bd 1c d0 de bd 9b 76 96 3b
       -0.16012551 -0.03997942 -0.108795375 0.0045917756
000270 0d bd 5b be 4a 36 2b be 79 f4 63 3c 6c 00 13 be
       -0.21458836 -0.16719928 0.013913267 -0.1435563
000280 5d a3 5d bd a6 c9 dd bc e5 66 c7 bb a3 6b 7b bc
       -0.054110873 -0.027073693 -0.006085264 -0.015345487
000290 ad 62 ff bd f3 8b 10 bd b0 fd 71 bd 4c 4d dc bd
       -0.12469993 -0.035289716 -0.059079826 -0.10756931
0002a0 5d 56 22 3e ad cf 94 be cc 28 d0 bc a9 0c d8 bd
       0.15853257 -0.29064694 -0.025410078 -0.1054929
0002b0 69 dc 02 be ac 24 e6 bd 57 49 e6 bd 56 f1 9e be
       -0.12779392 -0.11237463 -0.11244457 -0.310435
0002c0 13 a0 d0 bd 89 19 a4 bd 0c 84 47 be e5 f7 11 3e
       -0.10186782 -0.08012683 -0.19483966 0.1425472
0002d0 f1 86 07 be a2 5c b8 bb b8 b1 60 be 8b c0 26 be
       -0.1323507 -0.005626277 -0.21942794 -0.16284387
0002e0 f2 d4 71 bd 15 3b d1 bc 66 c2 2c 3d af 3d c3 be
       -0.05904097 -0.025540868 0.04217758 -0.38132998
0002f0 90 5c f8 bd 54 c5 4b be 32 b7 37 be 74 70 a2 3c
       -0.1212703 -0.19899493 -0.17940977 0.019829012
000300 c6 ca e9 bd cf a8 75 be 5c c2 80 bd dc 8a cd bd
       -0.11415629 -0.23990177 -0.06287071 -0.10036251
000310 a7 7a c8 3c d6 80 76 3c 7a 1f 3f bd 26 7b cb bc
       0.024472548 0.015045365 -0.046660878 -0.024838995
000320 fe 42 12 bd b7 3c b6 3c 22 b5 8b 3e 6b 7e 25 3e
       -0.03570842 0.022245748 0.2728663 0.16161506
000330 a8 c5 9e b8 b1 51 d6 3e 7d fe 10 3e b0 74 3e bd
       -7.5708434e-05 0.418592 0.1415958 -0.046498
000340 11 3d 24 bc 0e ae e6 bd c6 e9 03 bd 07 83 c5 bd
       -0.010024325 -0.11263667 -0.032205366 -0.09644132
000350 15 6f 15 3e d6 ac 27 be 5f 49 5b be 27 8e bc bc
       0.14593156 -0.16374525 -0.21414708 -0.023017002
000360 6f 83 c0 bd d1 b0 98 bd 30 42 4c bd 3f 1c fa bc
       -0.09400069 -0.074556 -0.04986781 -0.030531047
000370 2b b7 3d be 5a b0 ea bc c3 ce f0 bb 71 6f c5 bc
       -0.18526904 -0.028648544 -0.0073488667 -0.024100991
000380 aa e9 26 bd 10 38 04 bd 26 25 fb bb ed 5a 09 3e
       -0.040750183 -0.032280028 -0.0076643405 0.13413592
000390 2d c0 51 3e e7 d3 e4 bd d2 fa b5 bd 71 1c 7e bc
       0.20483465 -0.1117323 -0.08885731 -0.015509711
0003a0 2c 9e 21 3a 50 1f 29 3d 21 ea 0d be f5 6c c1 bc
       0.0006165232 0.041289628 -0.13858844 -0.023611525
0003b0 8f 07 09 bd 40 e7 92 bd 0e 1b 9d 3e 47 ff d8 bd
       -0.033454474 -0.07173014 0.30684704 -0.10595565
0003c0 16 4e 6c bd d3 ee 93 bd 54 b4 3a bd 5a 52 6a 3e
       -0.057691656 -0.072232865 -0.04558213 0.22882977
0003d0 07 bb 8f bd 90 cf c1 bd f0 ef 15 bc 17 da c8 be
       -0.070180945 -0.094634175 -0.009151444 -0.3922889
0003e0 06 d9 9d 3d 02 df 54 bd da c1 17 3d cb a7 dd bd
       0.077074096 -0.05197049 0.037050106 -0.108230196
0003f0 c6 80 fc 3c 59 23 b2 bc bf 82 c8 bb f5 29 19 be
       0.030823123 -0.02174537 -0.006119102 -0.14957412

conv1d_7/conv1d/ExpandDims_1 i1 [256, 1, 3, 256] scale=0.010758023 zero_point=0
000000 32 13 f4 fe f1 0f 0c 08 03 08 15 14 06 e7 f4 0a
       0.53790116 0.20440243 -0.12909627 -0.021516046 -0.16137034 0.16137034 0.12909627 0.08606418 0.032274067 0.08606418 0.22591847 0.21516046 0.064548135 -0.26895058 -0.12909627 0.10758023
000010 fa 07 22 00 07 1a f2 33 00 fd 0e fe 0f f6 0a fa
       -0.064548135 0.07530616 0.36577278 0.0 0.07530616 0.2797086 -0.15061232 0.54865915 0.0 -0.032274067 0.15061232 -0.021516046 0.16137034 -0.10758023 0.10758023 -0.064548135
000020 06 0a 03 12 0b 0e 0f 0d fb f3 f8 12 f7 0a f2 e2
       0.064548135 0.10758023 0.032274067 0.1936444 0.11833825 0.15061232 0.16137034 0.1398543 -0.053790115 -0.1398543 -0.08606418 0.1936444 -0.0968222 0.10758023 -0.15061232 -0.32274067
000030 09 12 01 0d 01 fb 0c 03 04 30 fa 0a 09 07 0a ed
       0.0968222 0.1936444 0.010758023 0.1398543 0.010758023 -0.053790115 0.12909627 0.032274067 0.04303209 0.5163851 -0.064548135 0.10758023 0.0968222 0.07530616 0.10758023 -0.20440243
000040 2a 00 08 0d 0d 07 21 0c e9 f9 0b 17 14 12 16 d9
       0.45183694 0.0 0.08606418 0.1398543 0.1398543 0.07530616 0.35501474 0.12909627 -0.24743453 -0.07530616 0.11833825 0.24743453 0.21516046 0.1936444 0.2366765 -0.41956288
000050 f9 0b fe 05 1f 1b fb fa 0a 1a eb ea dd 0d 19 f4
       -0.07530616 0.11833825 -0.021516046 0.053790115 0.33349872 0.2904666 -0.053790115 -0.064548135 0.10758023 0.2797086 -0.22591847 -0.2366765 -0.3765308 0.1398543 0.26895058 -0.12909627
000060 00 eb 0d f4 13 f0 01 e2 0b 08 15 1f 13 28 09 fb
       0.0 -0.22591847 0.1398543 -0.12909627 0.20440243 -0.17212836 0.010758023 -0.32274067 0.11833825 0.08606418 0.22591847 0.33349872 0.20440243 0.43032092 0.0968222 -0.053790115
000070 10 0b 16 f5 ee 1f fc f8 06 00 01 37 12 15 02 fa
       0.17212836 0.11833825 0.2366765 -0.11833825 -0.1936444 0.33349872 -0.04303209 -0.08606418 0.064548135 0.0 0.010758023 0.59169126 0.1936444 0.22591847 0.021516046 -0.064548135
000080 0b 0f 05 04 0b d5 13 03 f2 07 09 08 17 07 f5 16
       0.11833825 0.16137034 0.053790115 0.04303209 0.11833825 -0.462595 0.20440243 0.032274067 -0.15061232 0.07530616 0.0968222 0.08606418 0.24743453 0.07530616 -0.11833825 0.2366765
000090 0b f3 0a e9 08 f8 f8 f6 f8 05 0c fb 0c ea e7 13
       0.11833825 -0.1398543 0.10758023 -0.24743453 0.08606418 -0.08606418 -0.08606418 -0.10758023 -0.08606418 0.053790115 0.12909627 -0.053790115 0.12909627 -0.2366765 -0.26895058 0.20440243
0000a0 fa 0b ff 0c 0d 20 00 f8 f2 0f f2 11 f9 f5 f7 0f
       -0.064548135 0.11833825 -0.010758023 0.12909627 0.1398543 0.34425673 0.0 -0.08606418 -0.15061232 0.16137034 -0.15061232 0.18288639 -0.07530616 -0.11833825 -0.0968222 0.16137034
0000b0 ef ee 10 f7 1c f7 05 00 1d ed 06 0c 07 1b e4 03
       -0.18288639 -0.1936444 0.17212836 -0.0968222 0.30122465 -0.0968222 0.053790115 0.0 0.31198266 -0.20440243 0.064548135 0.12909627 0.07530616 0.2904666 -0.30122465 0.032274067
0000c0 fd fc 21 1c 0e 05 04 02 0d de 06 f8 f4 08 11 1a
       -0.032274067 -0.04303209 0.35501474 0.30122465 0.15061232 0.053790115 0.04303209 0.021516046 0.1398543 -0.36577278 0.064548135 -0.08606418 -0.12909627 0.08606418 0.18288639 0.2797086
0000d0 16 f8 fd fc 06 04 0b f9 00 0c ea f6 f8 0c f7 fc
       0.2366765 -0.08606418 -0.032274067 -0.04303209 0.064548135 0.04303209 0.11833825 -0.07530616 0.0 0.12909627 -0.2366765 -0.10758023 -0.08606418 0.12909627 -0.0968222 -0.04303209
0000e0 f8 18 2c 0e 02 0b 03 ff fb 1b 30 09 01 23 ed 05
       -0.08606418 0.25819254 0.473353 0.15061232 0.021516046 0.11833825 0.032274067 -0.010758023 -0.053790115 0.2904666 0.5163851 0.0968222 0.010758023 0.3765308 -0.20440243 0.053790115
0000f0 f3 e2 fc 1c 07 0a 01 01 0a f4 f8 fb f6 0e 29 ff
       -0.1398543 -0.32274067 -0.04303209 0.30122465 0.07530616 0.10758023 0.010758023 0.010758023 0.10758023 -0.12909627 -0.08606418 -0.053790115 -0.10758023 0.15061232 0.44107893 -0.010758023

conv1d_7/conv1d_bias f4 [256]
000000 7a bf 3f 3e 1b 69 f6 bd 98 af 16 3e ce 83 63 be
       0.18725386 -0.12031766 0.14715421 -0.22218248
000010 9e 6f 33 3e b5 88 ec 3d 34 c6 0e be f8 7d 2c 3e
       0.17523047 0.11549512 -0.13942796 0.16844928
000020 61 b3 89 bc ab 3f b9 be 70 16 e1 bd 03 3c 60 3e
       -0.016809167 -0.36181387 -0.10990608 0.21897893
000030 6d dc 84 bd b2 81 76 3d 5c 7f 2b 3e 9c 9c c2 3d
       -0.064873554 0.06018228 0.16747802 0.09502527
000040 ed 86 56 3c 2c 6a e8 3d 7f ad 9c 3d 92 a0 14 3e
       0.013093692 0.11348376 0.07650279 0.14514378
000050 70 0c 2b 3e 4c c8 f1 3c 1d 5a 86 bd 73 50 c7 bd
       0.16703963 0.029514454 -0.065601565 -0.09732141
000060 24 e7 1b be 42 b7 af 3d 2d b0 60 3e 47 e6 83 be
       -0.15224892 0.085798755 0.21942206 -0.25761625
000070 20 83 ff bd d8 00 0b be 27 d5 b3 bd bf 28 9a 3e
       -0.12476182 -0.1357454 -0.0878089 0.30109212
000080 45 20 f4 bd 83 49 a1 3d 31 13 a7 39 25 25 26 3e
       -0.119202174 0.078753494 0.0003186702 0.16225107
000090 09 76 0a 3e c5 5f ed bc 45 c4 ec be 14 f6 37 be
       0.1352159 -0.02897633 -0.46243492 -0.17964965
0000a0 2a fb 80 bd ed d0 fc bd 56 e9 cb bd 25 fd c4 bd
       -0.06297906 -0.12344537 -0.09956615 -0.09618596
0000b0 a3 12 10 3e a0 fa e5 ba 74 c9 b0 bd 69 36 6a 3e
       0.1406961 -0.0017546006 -0.08632174 0.22872318
0000c0 a1 33 3c 3e a8 b9 98 be 21 93 d1 bd f0 02 5c 3d
       0.1837907 -0.29829144 -0.10233141 0.05371374
0000d0 88 2a 22 3c 39 41 96 bc 0a 01 b0 bd f1 09 22 3e
       0.009897836 -0.018341647 -0.08593948 0.15824105
0000e0 29 6c 83 3e 1f ba 27 be 93 fb 84 3c 95 d4 db 3d
       0.25668457 -0.16379593 0.016233241 0.10733906
0000f0 41 08 13 bd df f5 25 3e d5 d3 f7 bd fe 9f f9 bd
       -0.035896543 0.16207074 -0.12100951 -0.12188719
000100 44 d3 8a be 13 0c d2 3d 9a 24 4a 3e 4e 19 bb 3d
       -0.27114308 0.10256209 0.19740525 0.09135686
000110 bd 6b 54 bd b3 3a d6 be 85 c8 0d 3e e7 d0 88 bd
       -0.05186056 -0.4184166 0.13846023 -0.0668047
000120 a4 28 fd bd 16 9e 26 be 3d ae 86 3e 5c 42 6f 3e
       -0.12361267 -0.16271242 0.26304808 0.23365158
000130 ac b8 d9 bd 70 80 92 3d ba 49 96 3d 00 d7 b7 bc
       -0.106309265 0.07153404 0.07338281 -0.022441387
000140 57 ca ed 3d 76 c6 e6 3d 48 b3 49 3e 96 1a 05 bd
       0.11610859 0.11268322 0.19697297 -0.032496057
000150 00 a4 05 bd 54 2c 2c 3e 3f 5a 1f bd 62 1c 94 bd
       -0.032627106 0.16813785 -0.038904425 -0.07231976
000160 61 2c f7 3d 34 1f 86 be be a7 65 be 07 93 df bc
       0.120690115 -0.2619568 -0.2242727 -0.027291788
000170 26 3c 9e 3d de bf 3c 3e b0 23 22 be 70 77 2d be
       0.07726316 0.18432567 -0.15833926 -0.16940093
000180 c0 51 cf bd 14 66 c3 bb c5 31 48 be 89 16 21 be
       -0.101230145 -0.0059630964 -0.19550236 -0.15731253
000190 66 44 65 be 31 0d ef bd 9f 7b 79 be eb 8b 9e be
       -0.22389373 -0.11672438 -0.24363564 -0.30966124
0001a0 e6 e1 f1 3d 7d 80 38 be d6 35 23 bd c4 3f 32 3e
       0.11810665 -0.18017764 -0.039846264 0.17407137
0001b0 0e 08 69 3d 9b 55 fb 3d 1a 3d cd bd 4e 52 1e 3e
       0.056892447 0.12272187 -0.1002142 0.15461084
0001c0 65 8b df 3d 13 c7 c2 bd cf 42 bd 3e 5b e9 c3 bd
       0.10915259 -0.09510627 0.36965033 -0.095659934
0001d0 b4 fb e0 bd 5a 8e 64 3d 95 16 1e be b8 5d c9 3d
       -0.109855086 0.05579982 -0.15438302 0.098323286
0001e0 24 80 12 3e 73 d5 b2 be 53 c0 83 be f9 a3 49 3e
       0.14306694 -0.34928474 -0.2573267 0.19691457
0001f0 d1 90 12 be 36 d8 ac bd 15 f3 7c 3e b1 69 f1 3d
       -0.14313056 -0.084396765 0.24702103 0.11787737
000200 75 1e da 3d b4 eb ab 3d 06 00 04 bd 77 8c 85 be
       0.106503405 0.08394566 -0.032226585 -0.2608373
000210 15 18 03 3e d6 df 74 be b3 0d f6 3d 4a 3e f9 be
       0.12802155 -0.23913512 0.12014332 -0.48680335
000220 ae ef 7c 3d 6f 45 6f 3e 92 66 6d 3d cf 61 20 bc
       0.061752014 0.2336633 0.057959147 -0.009788944
000230 ec e9 86 3e d7 a1 e1 be ea 99 10 3e 24 bb 5d bb
       0.26350343 -0.44068787 0.14121214 -0.0033833468
000240 f1 73 99 3e ba a1 b9 bb ec e5 00 be e2 3e bd 3d
       0.2997127 -0.0056650313 -0.12587708 0.092405096
000250 1a 6a 04 be f7 09 39 3e bf 23 bf 3d b8 c8 83 bd
       -0.129311 0.18070208 0.0933299 -0.064347684
000260 e9 93 41 be af 80 65 3e 1c a7 ee 3d 64 73 bb 3c
       -0.1890408 0.2241237 0.11652967 0.022882171
000270 d3 0f 35 be bc 9e ba be 15 c4 11 3e 76 63 ca bd
       -0.17681818 -0.3644923 0.14234956 -0.09882252
000280 30 22 d9 3d 18 47 08 be 3e 1d a9 bd b9 86 8b be
       0.10602224 -0.1330837 -0.08257531 -0.27251223
000290 8d b0 4f 3e c9 bb df bd 3d c3 c4 3d b7 32 35 3e
       0.20282193 -0.10924489 0.09607551 0.17695127
0002a0 14 aa f5 bd 78 ac 24 3e cf 26 ce 3c e5 59 01 be
       -0.119953305 0.16081417 0.02516499 -0.12631948
0002b0 dd 24 69 3d fd 2b 89 bd 16 ef 97 be 19 1e 11 3e
       0.05691992 -0.06697843 -0.29674596 0.14171638
0002c0 6d 2d c4 3c 0b 09 f6 bd 9f e3 b9 bd f7 1e 87 be
       0.023947442 -0.120134436 -0.090766184 -0.26390812
0002d0 30 03 86 3d b5 56 19 3e 80 2e 23 be 2f 9c 11 3e
       0.06543577 0.14974482 -0.15935707 0.14219736
0002e0 65 48 1c bc 2c 01 b8 3d 30 8f 87 be 1c f8 9a 3d
       -0.009538745 0.089845985 -0.2647643 0.07566854
0002f0 ff de 11 3e 29 bc 0c 3e fb 29 d9 bd 95 ea 63 bd
       0.14245223 0.13743652 -0.1060371 -0.055643637
000300 80 18 34 3e 19 1a 9f 3d b2 65 f7 3d 50 c1 0a bc
       0.17587471 0.077686496 0.12079944 -0.008468941
000310 96 1b dd 3d fc 03 03 3e 0d 38 5a 3e 36 97 d1 3d
       0.10796277 0.12794489 0.21310444 0.10233919
000320 24 00 f7 3d a4 52 b8 3c 85 97 b9 3d 72 c8 51 3e
       0.12060574 0.022500344 0.09062103 0.2048662
000330 63 96 ec 3d 2b 68 44 3e 8b dc 84 be 9f d6 ba 39
       0.115521215 0.19180362 -0.2594951 0.0003563659
000340 6d 32 d2 be 0a 7b 00 bd 36 a0 db 3d 87 f8 9d 3d
       -0.41054097 -0.03136734 0.10723917 0.077134185
000350 92 a0 f9 3d fa a6 fe 3d ef 8b f0 bd 0f d3 b5 3d
       0.121888295 0.12434192 -0.1174544 0.08878147
000360 55 85 b6 be 12 65 00 be ae 7b 1d 3e a1 02 e4 bd
       -0.356486 -0.12538555 0.15379211 -0.11133314
000370 7e 71 e5 bd de 78 f0 3d 56 c8 0d 3e 34 fe 13 3e
       -0.112032875 0.117418036 0.13845953 0.1445244
000380 03 c9 67 3d 07 af cd bd 22 98 85 3d 0e 50 e6 3d
       0.056588184 -0.100431494 0.06523158 0.11245738
000390 f6 19 3e bd d0 e3 43 3e df 68 86 be e7 39 1e 3e
       -0.046411477 0.19129872 -0.26251885 0.15451775
0003a0 98 54 08 3d 6d 10 ec bd 55 fe 15 3e 4c e3 33 be
       0.0332838 -0.115265705 0.14647801 -0.17567176
0003b0 43 70 a5 3e 0c 3f 8f be 19 68 96 3e 86 6d 4e be
       0.3231221 -0.27977788 0.29376295 -0.20158967
0003c0 72 70 dd 3d 38 cd a0 3c 29 bf 94 3c 04 8b 7e be
       0.10812463 0.019629106 0.018157559 -0.24857718
0003d0 29 7b c0 3b f5 9f e4 3d 17 8d 86 3d 6a 4f a6 bd
       0.005874057 0.11163322 0.065698795 -0.08120616
0003e0 b2 92 41 be 69 ab 24 3e 27 e0 a8 be ea 98 97 3e
       -0.18903616 0.16081013 -0.32983515 0.29608852
0003f0 e3 b3 99 be 32 ff 83 3e 6b f8 9a 3c ed c2 ce 3d
       -0.30020055 0.25780636 0.018917283 0.10095773
