raspberry_pi/tf_lite_model_conversion/1D.tflite (tflite, 352464 bytes, 30 tensors)

batch_normalization/batchnorm/mul f4 [16]
00000000: 7f93 1b41 1058 c240 38ed d141 2fd3 c740
00000010: 10a4 8540 4133 f841 72c9 d640 f232 8941
00000020: 62bf 0141 2489 d041 e249 ab41 79aa dc41
00000030: 81dd b441 386a 9c40 7bea 1741 5c28 1141
9.72351 6.07325 26.24083 6.2445292 4.176277 31.025026 6.7120905 17.149876
8.109224 26.066963 21.411076 27.583239 22.608156 4.887966 9.494746 9.072353

batch_normalization/batchnorm/sub f4 [16]
00000000: c442 a1c0 7d94 4abf fe4d c7c0 bf76 cdbf
00000010: 8033 d1bd fcc4 54bc 7550 f9bf 0b5d 28c0
00000020: 2db0 3bc0 0deb b1c0 c852 d8bc 6093 68bc
00000030: 8442 09bd f2bc 6dbf 03b2 97c0 8861 4cbd
-5.0394 -0.79132825 -6.2282705 -1.6051863 -0.10214901 -0.012986418 -1.9477679 -2.630679
-2.932628 -5.5599427 -0.02640666 -0.014195293 -0.0335107 -0.9286643 -4.74048 -0.0498977

batch_normalization_1/batchnorm/mul f4 [32]
00000000: 7e7b 993e 1bec fa3d 1f59 233d 3624 ca3d
00000010: 9ff3 ab3e 01c8 3d3f bcb3 8c3d be97 8b3e
00000020: 5f8f 2e3f f06b 173f 9d7f fe3e 6d18 4a3e
00000030: 452c 1e3f 0627 ac3f 6d17 b73e 3843 af3d
00000040: 4e87 9c3e 8925 873e 388e a83d 89b3 2a3f
00000050: 7d98 203e 35f5 643f cf6b 803e 3f70 183f
00000060: f738 553f 71ad 873e 455c 943e c7cc 543f
00000070: a607 ef3e 785b 663e 79be 1c3f 27a4 1b3f
0.2997703 0.12252065 0.039879914 0.09870188 0.33584306 0.74133307 0.06870219 0.27264208
0.68187517 0.59149075 0.49706736 0.1973588 0.617863 1.3449409 0.3576006 0.08557743
0.3057198 0.26395825 0.08230251 0.666802 0.1568317 0.89436656 0.2508225 0.59546274
0.83290046 0.26499513 0.28976646 0.83124965 0.46685523 0.2249583 0.6122814 0.6079735

batch_normalization_1/batchnorm/sub f4 [32]
00000000: 90b6 a0be 4022 f03b 6989 6ebe c836 b7be
00000010: e076 fe3c 68a0 a3bd 30e3 1fbe f5d5 83be
00000020: e03e 073d 9c53 e8be 7403 c0be d812 edbc
00000030: 1719 2ebe 568f 8abd e146 0c3e 60e5 d8bd
00000040: 0034 8a3c 23a9 abbe d043 81bd a0f1 c8be
00000050: 3c39 88be c847 233d 7639 94be d61b 21be
00000060: ce2d 95bd eca6 943d 99de d2be c010 9f3b
00000070: 1ed3 4cbe 4816 60be 7c8b e5be 6dc9 2ebe
-0.31389284 0.0073283017 -0.23294605 -0.35783982 0.031062543 -0.079895794 -0.15614009 -0.25749174
0.033018947 -0.4537629 -0.37502635 -0.02893965 -0.17001759 -0.067656204 0.13698913 -0.10590625
0.016870499 -0.3352748 -0.06311762 -0.39246845 -0.26606166 0.039863378 -0.2895009 -0.15733275
-0.07284127 0.072584 -0.41185454 0.0048542917 -0.2000241 -0.218835 -0.4483298 -0.17069025

batch_normalization_2/batchnorm/mul f4 [32]
00000000: 3384 953e ff2b 473e 61d0 5c3e 28d6 d43e
00000010: a305 d43e 7eb2 d53e c124 a83e 8fb7 6d3e
00000020: e357 a03e e0f9 d43e 169c 9b3e 983f 733e
00000030: 630f c13e 50cd 773e b490 e13e abc0 b93e
00000040: d2b0 143f 8cea 3f3e 6362 9e3e 1402 c73e
00000050: cf4e 093f cc76 8e3e f910 b83e 26f0 ad3e
00000060: 903a 7d3e 012f 1d3f 5c92 9a3e b76e a73e
00000070: 4f3b ae3e b93b 223e 9880 bb3e 4eca 8c3e
0.29202422 0.19450377 0.21563865 0.41569638 0.4141055 0.4173774 0.3284054 0.23214553
0.31317052 0.4159689 0.30392522 0.23754728 0.37707052 0.24199414 0.44055712 0.36279806
0.58082306 0.18741816 0.30934438 0.38868773 0.5363588 0.2782501 0.3595045 0.3397228
0.24729371 0.6139985 0.30189788 0.32701656 0.34029624 0.15843095 0.36621547 0.27498096

batch_normalization_2/batchnorm/sub f4 [32]
00000000: 103e 0dbf 467f a3be cce3 92be 888a afbe
00000010: 8c49 95be 4934 25be 8dd8 83be f857 4dbf
00000020: 8cb4 98bd 80f3 18bf 74d0 f8be de9f 31bf
00000030: f14a 15bf 885b 14bd 3887 9ebe 02bd 4bbe
00000040: 3a7a bfbe f0fd 88bd 2e3f 96be 31e1 89be
00000050: a41e 7cbe fcd2 89be 1347 14bf 2ef3 21bf
00000060: 8441 8abe 6aa4 efbe 17b8 81bf 3277 d0bd
00000070: 8bac ffbe e4fc 2fbe a057 a7bd 1289 67be
-0.55172825 -0.3193304 -0.2868942 -0.34285378 -0.29157674 -0.16133226 -0.25751153 -0.80212355
-0.074563116 -0.5974655 -0.48596537 -0.6938456 -0.58317477 -0.036220104 -0.3096254 -0.1989632
-0.3739794 -0.0668906 -0.29345077 -0.2692962 -0.24621063 -0.2691878 -0.5792095 -0.6326169
-0.2700311 -0.46805125 -1.0134305 -0.10178985 -0.49936327 -0.17186314 -0.0817101 -0.22610882

batch_normalization_3/batchnorm/mul f4 [64]
00000000: dfdd de3c dc6f 0a3f bcfa bb3e 39cc 363e
00000010: 790a 473e 882f 773d c390 ef3e 217f 273e
00000020: 3be7 143c 0634 943e 6ef1 bc3d c879 2f3e
00000030: b5cb 283c 1804 aa3e 9f0b 383e b800 323e
00000040: f88b 943e 9aed 673d 20e0 9e3d 0001 8a3d
00000050: 4841 c13e a269 223d 6484 9f3e 7563 073f
00000060: 57aa 1e3e 421b 2b3e b991 3d3f 4f2c dd3c
00000070: b937 633e e58e 6a3e 8c2d 813e c82b 253d
00000080: 98d3 f13d 7d2a 4a3e 1894 2c3e 6d67 903f
00000090: 0361 963c 3d54 fc3e bdd4 033e b101 b13c
000000a0: 2f47 ed3e 18f8 253d 7a08 0f3e b7ab c93e
000000b0: abe0 083e 1d0b d23e 9874 443e 3a65 153f
000000c0: 8e9a 3b3f d0e2 a63e 02fd 2d3e da90 a73d
000000d0: 708d 153e 0348 373e 0a4d 4f3f 87d7 9d3d
000000e0: 0443 3c3e a2ce c53d aa04 233e 6d90 da3d
000000f0: 5194 1e3e c505 fc3e 55b8 843e 7dc1 bc3e
0.027205406 0.54076934 0.36714733 0.17851342 0.19437589 0.060348064 0.46790132 0.1635709
0.009088333 0.2894594 0.092257366 0.171363 0.010302474 0.33206248 0.17973183 0.17383087
0.29013038 0.05662308 0.07757592 0.06738472 0.37745118 0.03965152 0.31155694 0.52886134
0.15494667 0.16709617 0.7405048 0.026998667 0.22189225 0.22906072 0.25230062 0.040324956
0.118079364 0.1974277 0.16853368 1.1281563 0.018356806 0.4928302 0.12874122 0.021607252
0.4634337 0.040519804 0.13968077 0.3938882 0.13366954 0.41024104 0.19185102 0.58357584
0.73282707 0.3259492 0.16991046 0.08181925 0.14604735 0.17898564 0.8097693 0.07707124
0.1838494 0.09658553 0.15919748 0.10672078 0.15486266 0.49223152 0.25921884 0.3686637

batch_normalization_3/batchnorm/sub f4 [64]
00000000: 72a5 80be e02f 4dbd e648 c0bd 1a03 c8be
00000010: ac20 c1bd 6b5f 4fbe be4a 15be 2059 ac3c
00000020: 8629 07be 01c2 a9be ba65 3dbe c8bb fdbd
00000030: 6ea9 8abe 2c25 08bd fe42 7dbe a864 f73d
00000040: 6adc 38be 090b aabe 7612 40be 36c1 0dbf
00000050: 3824 80bd 9f7e 17be 94c0 293e d21f 663e
00000060: 0fc8 babe 2022 ef3c be7b ae3e 3c58 84bd
00000070: 3246 463e eef5 473e 6329 8bbe 9a1f 7dbe
00000080: 907f 1cbc fa22 2e3e 71d5 83be 0067 2abb
00000090: be1a 1fbe 2819 f7bd a498 c3be 6361 07bd
000000a0: 0420 553e c4e6 8fbd 5096 833c 709f 383d
000000b0: 911f f9be a806 9abc 7807 e0bd 8c22 bbbd
000000c0: 9623 993e 6882 50bd 23b3 a2be c4c0 55bd
000000d0: c7c4 8f3e c0b0 37bd 7eb9 ce3d b832 433d
000000e0: 5859 04bd 552c e3be 9acd 26be ca6a 90be
000000f0: ea2d 8fbe ec81 6b3e 3df4 67be 108c bd3d
-0.25126225 -0.050094485 -0.09388904 -0.39064866 -0.0943006 -0.20251243 -0.14579293 0.021038592
-0.13199434 -0.33155826 -0.18495837 -0.12389332 -0.2708239 -0.033238575 -0.24732587 0.120797455
-0.18052831 -0.33211544 -0.18757042 -0.5537294 -0.06256908 -0.14794396 0.16577369 0.22473076
-0.36480758 0.029191077 0.34078783 -0.06462142 0.19362715 0.19527408 -0.27180013 -0.24719086
-0.009551898 0.1700553 -0.2574878 -0.0026001334 -0.15537545 -0.12065345 -0.38202393 -0.03305186
0.20812994 -0.07026437 0.016062886 0.045073926 -0.48656896 -0.018802002 -0.109389246 -0.09137449
0.29909962 -0.050905615 -0.31777295 -0.05218579 0.28079817 -0.044846296 0.100939736 0.04765579
-0.032311767 -0.4436976 -0.16289368 -0.28206474 -0.27964717 0.2299878 -0.22651763 0.092552304

batch_normalization_4/batchnorm/mul f4 [64]
00000000: c28c b13e 06fc 723e 7ff2 b53e 522e cb3e
00000010: 0ce4 633e 325d 383f aeab eb3e fb5f 423e
00000020: 40ee 503e 571e 283f 1374 253f fe87 663e
00000030: f5aa 823e 3f74 f33e e436 a83e a861 903e
00000040: a905 9c3e 3285 d93e d8be ec3e 4af9 aa3e
00000050: 7f53 1f3e d560 a43e d51f 8c3e e61f db3e
00000060: e450 dc3e c74a 983e ecb6 ca3e fd86 873e
00000070: 8e2c 3b3e 59d3 083e 6dae 183e 9bfc bc3e
00000080: 670b d63e 60a9 7e3e 14a8 963f 436b ef3e
00000090: 82aa 7c3e bffb ff3e 8c98 873e e823 913e
000000a0: c253 673f e589 c03e db6b a13e 3d2a d83e
000000b0: eebb c23e e0ac 9c3e 8e6e 073e e675 883e
000000c0: 5a27 b13d cfb2 493f 1988 463e 08aa ae3d
000000d0: 4f96 b53e 4534 a33e ecfb 423e c513 3b3e
000000e0: 59d6 4e3e 6836 1d3e 4688 953e b1e1 3a3f
000000f0: 073a f63e 6a63 7a3e fef9 4d3e 0ff8 b63e
0.34677702 0.23728952 0.35536572 0.39683777 0.22254962 0.72017205 0.4602942 0.18981926
0.20403385 0.65671295 0.6463024 0.22512814 0.25521055 0.47549626 0.32854378 0.28199506
0.30473068 0.42484432 0.46239352 0.33393317 0.15559195 0.32105127 0.27368036 0.42797774
0.43030465 0.2974455 0.39592683 0.26470175 0.18278715 0.13361873 0.14910288 0.36911473
0.41805574 0.24869299 1.1770043 0.46761522 0.24674419 0.49996755 0.26483572 0.28347707
0.9036218 0.37605205 0.315276 0.42219725 0.38034004 0.30600643 0.13225767 0.2665245
0.08650084 0.78788465 0.19387855 0.08528525 0.3546624 0.31875816 0.19041413 0.1826926
0.20198955 0.15352786 0.2920553 0.7300063 0.48091146 0.24451986 0.20114896 0.3573613

batch_normalization_4/batchnorm/sub f4 [64]
00000000: 5a44 73bf c821 4fbe c8c2 25bf d4a5 dfbd
00000010: 8a0e dfbe c2b6 d9be 2936 a4be 2a20 cdbd
00000020: 56d7 53be 6e87 41bf 8366 1dbf 4aba 29bf
00000030: a0d8 52bf 4101 26bf 0deb 25bf c11d 2ebf
00000040: b5cd 5fbf 218f 0dbf e6bb 13bf 6e6e 00bf
00000050: 721f 30bf 06f4 0ebf 44e6 86be 1562 d3be
00000060: f766 1bbf c215 29bf caa1 35bf 1461 4fbf
00000070: 9601 75bf fef6 8fbe 1bca 52bf 25ef 49be
00000080: 118d 10bf 3233 c3bd 9459 43bf 4a44 1cbf
00000090: 5662 efbe eac6 1bbf 62f7 0cbf 9794 bbbe
000000a0: d93f f4be c4b4 76be 2a1f 52bf de2c 45bf
000000b0: 6e2c 1dbf 5834 45be c42a 87bf 8559 b1bf
000000c0: 23bf 1bbf 87b4 19bf 6403 66be be9d 3fbf
000000d0: 3931 eebe be8b 3dbe 5e27 eebd 147e 78bf
000000e0: 7e2e e4be f83c 61bf da9c a4bd eac6 1bbe
000000f0: 68e5 1dbf 3ebd 38bf 1636 a4be ff1c 80be
-0.9502617 -0.2022773 -0.6475034 -0.10920301 -0.4356578 -0.42522246 -0.3207257 -0.100159004
-0.20687613 -0.75597274 -0.61484545 -0.6629988 -0.82361794 -0.64845663 -0.64811784 -0.6801415
-0.8742326 -0.5529652 -0.57708585 -0.501685 -0.6879798 -0.558411 -0.26347554 -0.41285768
-0.60703987 -0.66048825 -0.70949996 -0.81007504 -0.95705545 -0.28118128 -0.8233964 -0.19720133
-0.5646525 -0.09531249 -0.7630856 -0.610417 -0.46754712 -0.60850394 -0.55064976 -0.36636803
-0.47704962 -0.24092394 -0.820788 -0.77021587 -0.6139592 -0.19258249 -1.0559926 -1.3855444
-0.60838526 -0.6004109 -0.22462231 -0.7485007 -0.4652193 -0.18510339 -0.116286024 -0.9706738
-0.4456672 -0.87983656 -0.080377296 -0.15212598 -0.6167817 -0.7216376 -0.32072514 -0.25022122

batch_normalization_5/batchnorm/mul f4 [128]
00000000: 9e72 183d 1dac 1c3d 089e 843d 3a4d 293d
00000010: ec5c d83c fd55 da3c f055 273d e5f2 183d
00000020: df10 303d 8f29 363d eca4 223d 1d3f 743d
00000030: 4c43 163d 1541 3d3d c63b fe3c a6d7 373d
00000040: 8e78 5d3d 4f2e e83c 2833 fc3c 997b 3b3d
00000050: 3c4c 323d 43ae b63c 22f7 353d 02d5 2e3d
00000060: 71ae 573d 53cf 0c3d 9439 483d fdb1 343d
00000070: 5cea dc3c f479 1b3d aae3 8e3d 2abe 473d
00000080: 6eb1 2e3d 5c06 333d a6a5 a73c 2ff7 643d
00000090: 46ad 1b3d 7093 353d a674 ef3c ef1c 3f3d
000000a0: 5250 673d 03da 193d 35c7 413d 1201 db3c
000000b0: fcc8 653d c29e 743d 6581 1d3d 72ea d13c
000000c0: 0aef e93c a270 2c3d 3ed5 453d e1a5 973d
000000d0: 6bea 683d 2c88 613d f285 173d 412d 813d
000000e0: 8f07 6a3d 069d 0b3d 7877 c13c 9a7b 483d
000000f0: 0200 213d 5b62 453d b299 393d 2363 1a3d
00000100: 91f3 4c3d e905 0c3d 7140 3b3d ba57 d83c
00000110: 341e 303d 12a8 143d d303 483d 770d 463d
00000120: 9222 193d 20cc e83c 50b7 513d f57d 183d
00000130: a771 463d a6bf 5c3d 14a5 2d3d 9008 3b3d
00000140: 8290 0f3d dc78 383d 1fba 423d 7026 363d
00000150: df65 283d a1b9 383d 4491 413d 4619 253d
00000160: 2150 353d 7aba 163d d93e 403d 5da1 dc3c
00000170: f4dc 133d a3bd 053d fc49 c53c f275 c63c
00000180: 7366 6f3d 9ded 713d c091 393d 5362 473d
00000190: b523 3a3d a2a8 403d 4e36 6a3d b692 3e3d
000001a0: 0f5c 5c3d 3a9d 423d 41fd 7a3d d38c 213d
000001b0: f556 433d b011 643d 8bd2 e83c 65db 413d
000001c0: 5381 3d3d 8786 0c3d b272 e23c 171b c23c
000001d0: 0370 ef3c a92f 443d a4f3 f43c e2a7 2d3d
000001e0: 2e4d 323d 6e60 063d 5c27 433d de02 393d
000001f0: 9c15 0b3d 8638 f43c a721 333d d29b 673d
0.037218682 0.038250078 0.064754546 0.041333415 0.026411496 0.02665233 0.04085344 0.037341017
0.04298484 0.044473227 0.039708063 0.059630502 0.036685273 0.046204645 0.031034362 0.044883393
0.054070048 0.028342394 0.030786112 0.04577217 0.043529734 0.022299891 0.044425137 0.04268361
0.052656595 0.034377407 0.048883036 0.044115055 0.02696722 0.0379581 0.06977017 0.04876534
0.04264968 0.043707237 0.02046473 0.055899795 0.038007043 0.04433006 0.029230427 0.046658453
0.056473084 0.037561428 0.04730912 0.026733909 0.056099877 0.059721716 0.03845348 0.025624488
0.028556366 0.042099603 0.048299067 0.07404686 0.056864183 0.055061504 0.036992975 0.063074596
0.057136115 0.034085296 0.023616537 0.048946 0.039306648 0.048189502 0.04531259 0.0376922
0.05003697 0.034185324 0.045715753 0.026409019 0.042997554 0.036293097 0.048831772 0.048352685
0.037386484 0.028417647 0.05120021 0.037229497 0.04844823 0.053893708 0.04239376 0.045662463
0.035049923 0.045037135 0.04754078 0.04447025 0.041112777 0.045098905 0.047257677 0.040307306
0.04426587 0.03679893 0.046934936 0.026932413 0.03609939 0.032651555 0.02408313 0.024226163
0.058447313 0.059064496 0.045305014 0.048677754 0.04544421 0.04703582 0.057180695 0.046526633
0.05379873 0.047513224 0.061276678 0.03944094 0.04769035 0.05568093 0.028420707 0.04732837
0.04626591 0.034307983 0.027642582 0.023694558 0.029228216 0.047897015 0.029901333 0.042396434
0.043530636 0.032806806 0.047644958 0.04516875 0.033956155 0.029812109 0.043733265 0.056545086

batch_normalization_5/batchnorm/sub f4 [128]
00000000: 6027 febd e8f1 33be fcaf d8bd 4016 69be
00000010: 2ea1 51bf 0ec1 21bf 2fd8 1dbf ec58 40bf
00000020: c0ff efbc fa4a 8bbe 3074 95bf 5ef8 adbe
00000030: 7809 f5bd 6ba4 18be 6a6d f4be 3463 22bf
00000040: df65 84bf 403c 19bf 54bb ffbe f6d7 0abe
00000050: 4ca0 66be a019 b9be 9067 59be 301c 88be
00000060: e96d 34be 34ac 14bf e8e3 acbd 14b1 8bbd
00000070: ee59 94bf 4ca5 9cbd b000 a2bc 246f d4bd
00000080: 2539 b5be 3d86 2ebe 95b4 57bf e364 8fbe
00000090: f119 d1be a436 afbd d673 59bf fad1 8dbf
000000a0: cc67 21be a985 91bf 29ed 93bf b7ca 0bbf
000000b0: c91f 5cbe 2117 68be e4d2 5ebe 2ba4 aabe
000000c0: c4b7 e3be 54ec 89bd 64ab ddbd 2006 3ebe
000000d0: 2ea8 1dbf 58e8 11bd 660b 1ebf 361c b0be
000000e0: 7ada 8cbe 3038 6abd b73a 85bf 5bd1 2ebf
000000f0: 020d 55bf 1c3a a6be c958 7bbe 60d0 0cbf
00000100: 9bff 86be fc23 bdbd c27a edbe 508a c5be
00000110: 4065 7abd 4a74 83bf f82b 57be 547f 17be
00000120: 202d 69be fc5f 3dbf 7fee 6bbf 8896 bdbd
00000130: 60e5 4ebe dcc0 b8bd 9006 71be 24f0 10be
00000140: 72fa 85bf dc9a 0ebe 8832 29bd db9b a4be
00000150: 4b8d dcbe 8e9e 0abe 3a2c 41be 805d d2bc
00000160: e4c1 62bf 7197 99bf 545f 9cbd 6f8b 8abf
00000170: a853 6dbe d3bc 74bf 606e 07bf 4673 ccbe
00000180: 3b7d 35bf 8445 82be b8b6 ccbd ab50 87be
00000190: ce6d 4fbe fd2b 7dbe 2498 c5be 8cc6 8fbe
000001a0: 742d 9cbd 927c 40bf b6d9 88be 7479 8dbd
000001b0: d0ea 7ebe 3cc5 ebbd 8bb4 82bf d66a 21be
000001c0: bcdc 38be 4511 8fbe 89b1 50bf 93f8 5cbf
000001d0: 3bba 48bf 3452 80bf a365 5dbe f24b 99be
000001e0: 54ee cebd c1d0 dbbe 98b4 83bf 8064 8fbf
000001f0: 186e 48bf abb3 5bbf 52aa 2cbe c32c 6abf
-0.12409854 -0.17572749 -0.10580441 -0.22762394 -0.81886566 -0.63185203 -0.61657995 -0.75135684
-0.029296756 -0.2720564 -1.1676083 -0.33978552 -0.11964697 -0.1490647 -0.47739726 -0.6343262
-1.0343589 -0.5985756 -0.49947608 -0.13558945 -0.22522086 -0.36152363 -0.21230912 -0.26584005
-0.17620052 -0.5807526 -0.08441907 -0.06820884 -1.1589944 -0.076487154 -0.019775718 -0.10372761
-0.3539516 -0.17043395 -0.8425992 -0.28006658 -0.40840104 -0.08555344 -0.84942377 -1.1079705
-0.15762252 -1.1368915 -1.155675 -0.54606193 -0.214965 -0.22665073 -0.21760136 -0.33328375
-0.4447614 -0.06734529 -0.10823706 -0.18557024 -0.61584747 -0.03562197 -0.6173614 -0.34396523
-0.27510434 -0.05718249 -1.0408543 -0.682882 -0.83222973 -0.3246621 -0.24545588 -0.55005455
-0.26366886 -0.09235379 -0.4638272 -0.38582087 -0.061131716 -1.0269864 -0.21012866 -0.14794666
-0.2277112 -0.73974586 -0.9216079 -0.09257227 -0.20204687 -0.0902116 -0.2353766 -0.14154106
-1.0467055 -0.13926262 -0.041307956 -0.32150158 -0.43076548 -0.13537046 -0.18864527 -0.02567935
-0.88577104 -1.1999341 -0.0763537 -1.0823802 -0.23176444 -0.9560062 -0.52902794 -0.39931697
-0.7089421 -0.2544366 -0.09995788 -0.26428732 -0.20256731 -0.24723811 -0.38592637 -0.28081167
-0.07625857 -0.7519008 -0.267286 -0.06907931 -0.24894261 -0.11512229 -1.0211347 -0.15763411
-0.18052953 -0.27942863 -0.815209 -0.86316794 -0.78409165 -1.0025086 -0.21620803 -0.29940754
-0.10104051 -0.42932704 -1.0289488 -1.1202545 -0.7829299 -0.85821027 -0.16861847 -0.9147455

batch_normalization_6/batchnorm/mul f4 [128]
00000000: ac53 443d 7492 993d 2567 083e 4d2f 983d
00000010: 839a 943d 50b5 913d a873 093d 56ce 3b3d
00000020: 6e1a 0f3d 3b78 993d 9d0a 4c3e 455f f83d
00000030: 09c4 213e 989d 843d 9798 763e a061 643d
00000040: 43ff f63d b252 2f3d 59f7 f53d 1869 293d
00000050: 2aae 513e e030 343e 5bd0 613e 525e 113d
00000060: 9ac3 b13e 005f 9d3e cc58 913d 473c 403d
00000070: 0296 493d 7657 973e afa9 ca3d 504b 833d
00000080: 0e46 5d3d 83cd 403e 6a3b 393d de51 133e
00000090: 126e 693d 03c4 303e 561c 3c3d 35ef 253f
000000a0: 6049 583d 362e f23d 3433 683e 4943 353e
000000b0: a5f4 ce3d 3ca1 663e fbc1 243d ea2d 203e
000000c0: bc82 7b3e 5de6 a63d d258 7e3d e744 253e
000000d0: 4cb2 da3c 5c49 103d 2999 373e 9faa 7a3e
000000e0: 1d95 8a3d c5f1 3e3e 4300 813d d3aa c03d
000000f0: b8c1 653d eff4 8a3d 3812 1b3e 4e50 213e
00000100: a995 783d 3da9 763d 0be0 693d 7b14 a53e
00000110: a15c 253d 829a 293d ec79 3d3d 9084 473e
00000120: 17d3 1a3e 525d 3c3d 9c31 023e 27af 993d
00000130: 8a9b 113e a33b a23d f529 3f3e cd39 f83d
00000140: 4045 f63d 50fc a53d 3934 723e fdcb 6b3d
00000150: 3a5a 5d3d dc5d f63d 1900 ec3d 4a54 193d
00000160: 026d 1e3e 5191 843d ac81 893e 4048 833d
00000170: 8c1f 693d ba6e 733d c917 303d 9679 973e
00000180: 354f 0c3e 995e 493e 890d 213d fbc7 7f3d
00000190: 337a 0c3e dcd4 133e 990f 7a3d 0dd6 8b3d
000001a0: 57f2 3a3e 8178 8b3d fc11 733e 8a87 293e
000001b0: 5699 df3d e104 943d 9837 463e 4098 483d
000001c0: 2cc8 b43e 5d72 8c3d 6e23 1f3e 9cce 673e
000001d0: a82a 9d3d d304 803d 1dd3 643e 580c 6c3d
000001e0: 43c9 423e a66a 363d c4aa 103e 5e12 683d
000001f0: 3f99 843e f5c4 383d c3c7 153e 2b9c 0b3d
0.04793136 0.07498637 0.13320597 0.07430897 0.07256033 0.07114661 0.033557564 0.045851074
0.034937315 0.07493635 0.19925924 0.12127546 0.15797438 0.06475371 0.24081646 0.055757165
0.12060406 0.042803474 0.120100684 0.04135999 0.20476595 0.1759677 0.22052138 0.03549034
0.34719545 0.30736542 0.07097015 0.046932485 0.049215324 0.29558915 0.09895646 0.06410849
0.054021887 0.18828396 0.045222677 0.14386699 0.056989737 0.17262273 0.04592546 0.64818126
0.05280435 0.1182522 0.22675782 0.17701449 0.10105256 0.22522444 0.040224057 0.15642515
0.2456159 0.08149407 0.062096424 0.16139565 0.026696347 0.03522621 0.1792952 0.2447915
0.06766722 0.18646915 0.06298878 0.09407582 0.056092948 0.067849986 0.15143669 0.1575329
0.060689602 0.060219992 0.05709843 0.32242188 0.04037154 0.041407116 0.046258852 0.19484162
0.15119587 0.045987435 0.12714237 0.07504111 0.1421949 0.07921531 0.18668349 0.121203996
0.12024927 0.081047654 0.23652734 0.057567585 0.054041125 0.12029621 0.11523456 0.0374339
0.1547127 0.064730294 0.26856744 0.06410265 0.05691485 0.05943177 0.042991433 0.2958495
0.1370209 0.19664992 0.03931955 0.062446576 0.1371849 0.14436668 0.06105003 0.06827936
0.18256508 0.06810094 0.23737329 0.1655561 0.109179184 0.07227493 0.19357145 0.048973322
0.3530897 0.068577506 0.15540859 0.22637409 0.07674152 0.0625092 0.22346158 0.05762896
0.19022088 0.0445353 0.14127642 0.05665814 0.25898167 0.045109708 0.14626984 0.03408448

batch_normalization_6/batchnorm/sub f4 [128]
00000000: 5822 97be d5a5 2bbf 484e 2abe 2216 13bf
00000010: fff3 41bf 7aa0 1cbf 0ca6 62be 38a9 93be
00000020: 528a 58be 8881 13bf 28c7 d8bd 9834 9bbd
00000030: e02c 2abd eb18 f3be 126b 43be bf5e b2be
00000040: dccb abbe bcad 9ebe b447 8fbe fa65 cebe
00000050: 7077 62bd 84d9 93bd 0867 dfbd d795 55be
00000060: b0e6 6bbd 40b1 45be 25ef fdbe a6ac 93be
00000070: cf86 a2be 9091 c0bd 70da a6bd 7295 04bf
00000080: c665 dfbe 804b 56bd 6ea7 c1be d064 d3bc
00000090: ca89 e7be f763 b8be f0fb b3be 8065 f3bc
000000a0: 4a6d 97be e858 6bbe f03e d5bd 005c 03bb
000000b0: 883a 4bbe 0090 debb f902 9fbe 8066 0f3b
000000c0: 4039 d5bd 515e 23bf 9048 10bf e82c 66bd
000000d0: 01f9 10be 75d4 45be a7fd cabe 38ce e6bd
000000e0: abfb 06bf 10a2 c43c 06a8 f6bd d4b0 65bd
000000f0: ec2f f4be a7ed 10bf a021 32bd 0017 26bc
00000100: 0b86 f8be 8e57 ccbe 149f e0be 6064 49be
00000110: d26d 8abe 0322 c3be 2e04 abbe c026 fc3b
00000120: e81e 16be 7d5d 98be 70b3 1bbe 1e54 eebe
00000130: 86e1 30be 3b17 12bf d4c9 a5bd f073 83be
00000140: 6f7b 83be 82bf 9ebe 50e7 82be d88c c9be
00000150: 5c91 d0be 2022 5dbe 5da8 83be 5685 94be
00000160: 786f babd 7cc8 f8be 00ce 7dbe 376b 06bf
00000170: 80c7 c8be fae1 f7be a8d2 bfbe 404c b0bc
00000180: 021b 39be 80a5 023d 766c 73be 93ef 08bf
00000190: 18da c9bd 5aeb 6bbe 2de2 6dbe 609a 2abf
000001a0: 6cab 77be 900e 17bf 0016 cf3a 30ba 08bd
000001b0: 64b9 e5bd f645 07bf b296 11be e0f1 acbe
000001c0: 5882 b1bd 0480 1bbf 74e4 b4be ccf2 e6bd
000001d0: 0a0d 40bf 6436 f1be 30f2 2dbd 4460 c6be
000001e0: 58f1 9fbd 618f 92be 4cf9 02be 8512 02bf
000001f0: 5a84 b0be 6241 55be 8285 2cbe d653 35be
-0.2951839 -0.67049915 -0.16631424 -0.57455647 -0.75762933 -0.6118237 -0.22133654 -0.2884004
-0.21146515 -0.57619524 -0.10584861 -0.07578391 -0.041546702 -0.47479948 -0.19083813 -0.3483791
-0.3355397 -0.30991924 -0.27984393 -0.40312177 -0.055289686 -0.07219222 -0.109083235 -0.2085794
-0.057593048 -0.19305897 -0.49596515 -0.28842658 -0.31743476 -0.09402764 -0.081471324 -0.51790535
-0.43632334 -0.052318096 -0.3782305 -0.025804907 -0.45222312 -0.36013767 -0.3515315 -0.029711485
-0.29575568 -0.22983134 -0.10412395 -0.002004385 -0.19846547 -0.0067920685 -0.31056955 0.0021881163
-0.1041131 -0.6381579 -0.5636072 -0.05619517 -0.14157487 -0.19319327 -0.39646646 -0.11269802
-0.52727765 0.024003059 -0.12043767 -0.05607684 -0.4769281 -0.5661263 -0.0434891 -0.01013732
-0.48539767 -0.3991055 -0.43871367 -0.19667196 -0.2703691 -0.38111886 -0.33401626 0.007695049
-0.14660227 -0.29758826 -0.15205169 -0.4654855 -0.1727353 -0.57066697 -0.08095136 -0.2567439
-0.2568011 -0.31005484 -0.25567102 -0.39365268 -0.407359 -0.21595049 -0.25714388 -0.29007977
-0.09103292 -0.48590457 -0.24785614 -0.52507347 -0.39214706 -0.48414594 -0.37465405 -0.021520734
-0.18076709 0.031896114 -0.23771843 -0.5349056 -0.09856051 -0.23038998 -0.2323081 -0.6664181
-0.24186486 -0.59006596 0.0015799403 -0.033380687 -0.11217001 -0.52841127 -0.14217642 -0.33778286
-0.08667439 -0.6074221 -0.35330546 -0.112767786 -0.75019896 -0.4711181 -0.042467296 -0.3874532
-0.078097045 -0.28625014 -0.12790412 -0.5080951 -0.34475976 -0.20825723 -0.16847804 -0.17707762

conv1d/conv1d/ExpandDims_1 f4 [1, 1, 16, 16]
00000000: ae6a 6a3e 63de 3dbe 76d0 83be 8d7f 47be
00000010: 7a9b a63d 1619 b53d 2f3e 5dbe 7d9a 133e
00000020: 5864 a63e 7937 c73d 6d9b 123f 908f 60bc
00000030: 28de 063f e57e b6be 492e 75be 5c39 1fbf
00000040: 9102 8f3e d66b a83e 92dc a53e 2763 7ebe
00000050: a567 2c3f 290c 29be 3f2b 66be 1362 243e
00000060: 0b8f a63e ae4b 28be 3e01 2bbd 39e9 833e
00000070: 8e53 833d b64d 013e 6210 87be f2fe e6bd
00000080: 8af2 7a3e a54c 23be b214 8c3e 2c37 4cbe
00000090: 7527 fd3d 4d9b cd3a 71e6 acbe 9f50 cf3d
000000a0: 4343 843e f58a 043e d156 98be 67c0 563e
000000b0: 62aa 733e 342d c7bb d8a6 87be 2d78 fcbd
000000c0: 33fc 393e 6986 c03e 10bb c8be 3c1e 6ebe
000000d0: 6932 933e eb62 27be 8bb8 adbd b26c abbd
000000e0: 7b71 063e 6d0c 00be 2e4c ecbd 4c2b a93e
000000f0: c092 3f3e 979b f5be 9be9 53be 9baf d8be
00000100: 11ea fc3d e262 67bb 293e 87be bc8d b3bd
00000110: 0a9f d2be 6f3f 8dbe 105d 10be c258 81be
00000120: 458d ab3d 37fb 0e3e 2c40 7dbe aeca d9be
00000130: 7068 70bd 2ffc b5bd c732 20be 7d83 8e3c
00000140: e1c9 c73d 3e30 283e 1843 9c3e 5b37 52bd
00000150: 06fc 243f be49 90be 1e3b 4a3d f633 adbe
00000160: 06ba 663d 2695 8fbd 9be8 2cbe 1763 23be
00000170: 6880 a73d acec 9ebd da3b 0bbe 8563 dcbe
00000180: 4ad0 be3d 3adc 083f ce02 8b3e 75ca ce3d
00000190: 2c94 263e 9919 63be fc74 f1bd 9456 6abe
000001a0: a58d 673d 88c0 39be 91a0 8d3e 145b d2be
000001b0: 100c bf3d a3d0 c9be 38bd d1bd 984a 60be
000001c0: f6e1 5b3d b1c4 0bbd 26d0 2ebe 9909 4d3e
000001d0: c957 1a3e 21e5 3fbe 99c0 bf3c db57 87bc
000001e0: f86b d03c ae5f ab3e 93bf 883e 14c6 783e
000001f0: 8230 bbbd a3b2 ddbd 01ba 8ebd d332 973e
00000200: f92b 10bd 0970 353f 2d76 0dbe 9657 9c3e
00000210: 4019 bbbe 66a7 afbe 104f 033d 400b 6f3e
00000220: 2f21 30bd c9ea 86be d63f f93d 10d3 6abe
00000230: 800b ed3c f840 d5be 453d 813c 19bf e1be
00000240: cbe8 babd e121 57be d6a2 73bd f9ff c03e
00000250: c15a 90bd 0a82 23bc b199 03be 9a1e bc3e
00000260: 99cb 36be a732 223e 0ae7 04be 51df 423d
00000270: 06c4 edbd f323 883c 1622 c73d 414b 33be
00000280: 0ca1 08be 71b2 f53e 556f a23c 8775 c13e
00000290: 22a2 013f 3dc9 6e3e 4804 343e d132 a33e
000002a0: 4281 7abe c310 7fbe e66c bdbe c6b6 37be
000002b0: 4830 d9bd b4d9 1fbe 10d9 fc3d 831e 9d3e
000002c0: 56fd 2fbe a0f6 36bd 47cb 8a3e e846 ba3e
000002d0: a5f4 d13e 247e 07bd c4cb 09be baeb 953d
000002e0: bcf2 67be b9f1 783e 7194 e7bd 2e8e 863e
000002f0: 2353 643c 7bd5 07bf b557 253e c57c a0bd
00000300: 6958 57be ef0a 8a3e b865 343c e828 913e
00000310: b3dd d73d a9a4 24be 38e1 9b3e be61 0cbe
00000320: f6f9 41be 7345 c93c 1478 b6bd 36d7 c13e
00000330: 4535 ccbe a426 ae3d 3508 463e af3c 6d3d
00000340: e797 84be 4c79 c83c e691 97be 8535 763e
00000350: 4a64 a4bd a25c 3a3e d469 a8be cdaf 5dbe
00000360: f1be 71be db54 c7be adae 9b3d 8ce3 623e
00000370: d239 b7bb b654 9a3c ccc0 873e 0f9e 8b3e
00000380: 6fdc 59be 226c c4bc 97f0 ba3c cc16 f13d
00000390: 5bb6 8d3e 9f68 933e f39b 1fbd b243 40be
000003a0: 9435 7bbe 3350 ef3e 92cb ab3e e75b dd3d
000003b0: 7578 9fbd cb90 ccbe 1a61 893e edea e23d
000003c0: 42eb 56be 1717 8abb c4d1 033e f6d1 d13d
000003d0: 3f15 fa3e f591 553d f5ce 10bf 7c02 d1bd
000003e0: 457a 8cbe 18ff 6cbe e4c4 873d f658 66be
000003f0: b352 07bf 8944 f03d 3211 873e 72fc e83e
0.22892258 -0.18541865 -0.2574498 -0.1948225 0.081351236 0.088426754 -0.21605752 0.14414401
0.3249843 0.097273774 0.5726841 -0.013706103 0.52682734 -0.35643688 -0.23943438 -0.621969
0.27931646 0.32894772 0.32394844 -0.24842511 0.6734565 -0.16508545 -0.22477435 0.16053037
0.32531008 -0.1643512 -0.04174923 0.25763872 0.06412421 0.126273 -0.26379687 -0.11279096
0.24506584 -0.15947206 0.2735954 -0.19942921 0.123610415 0.0015686542 -0.33769563 0.10122799
0.25832567 0.12943633 -0.29753736 0.20971833 0.23795465 -0.0060783867 -0.2649448 -0.12327609
0.18162613 0.37602547 -0.39205217 -0.23253721 0.28749397 -0.16346328 -0.084824644 -0.08370341
0.13129227 -0.1250474 -0.115379676 0.33040845 0.18708324 -0.47970268 -0.20694582 -0.42321476
0.12349332 -0.0035306741 -0.26414612 -0.08767268 -0.41136962 -0.27587458 -0.14098 -0.2526303
0.083765544 0.13963018 -0.24731511 -0.42537445 -0.05869335 -0.08885991 -0.1564437 0.017396683
0.09755302 0.16424653 0.30519938 -0.051322322 0.6444706 -0.2818126 0.049372785 -0.33828706
0.05632975 -0.0701087 -0.16885607 -0.15955769 0.081787884 -0.07759985 -0.1359705 -0.43044677
0.09317072 0.5346104 0.27150577 0.10097209 0.1626746 -0.22177733 -0.11789891 -0.2288459
0.056531567 -0.18139851 0.27661565 -0.41085112 0.093284726 -0.3941699 -0.10241169 -0.21903455
0.05368229 -0.034123126 -0.1707159 0.20023192 0.1507255 -0.1873975 0.023407267 -0.016521385
0.025442109 0.33471435 0.2670866 0.24294311 -0.091401115 -0.10825088 -0.06969071 0.29530963
-0.035198186 0.7087408 -0.13814612 0.30535573 -0.36542702 -0.34307402 0.03205782 0.23344135
-0.043000396 -0.26351002 0.12170379 -0.22932076 0.028936148 -0.4165113 0.015776286 -0.44091108
-0.09126433 -0.21009018 -0.059481464 0.37695292 -0.0704856 -0.009979734 -0.12851597 0.36742097
-0.17851104 0.15839635 -0.1297876 0.047576252 -0.11609654 0.016618704 0.09723298 -0.17509176
-0.13342685 0.47987702 0.019828478 0.3778498 0.5063802 0.23318954 0.17579758 0.31874707
-0.2446337 -0.24908738 -0.36997145 -0.17940816 -0.10604912 -0.15610391 0.12346089 0.3068734
-0.17186484 -0.044668794 0.27108213 0.36382222 0.4100696 -0.03307928 -0.13456637 0.07320352
-0.2265119 0.2431096 -0.1130761 0.2628035 0.013935837 -0.5306012 0.16146739 -0.07836298
-0.2102982 0.26961467 0.01101058 0.28351521 0.10540333 -0.16078438 0.30445266 -0.1370916
-0.18943009 0.024569249 -0.08909622 0.37859505 -0.3988439 0.08503464 0.19339068 0.0579192
-0.25897142 0.024471901 -0.296035 0.24043854 -0.08026941 0.18199399 -0.3289324 -0.21649094
-0.23607995 -0.38931927 0.07601676 0.22157115 -0.0055916095 0.018839221 0.2651428 0.27269027
-0.21275495 -0.023977343 0.0228198 0.11771926 0.2767819 0.28790757 -0.038967084 -0.18775824
-0.24532157 0.46740875 0.3355375 0.108085446 -0.07786647 -0.39954218 0.26831895 0.11079965
-0.20988181 -0.0042141783 0.12872988 0.10245125 0.48844334 0.05214115 -0.5656579 -0.10205552
-0.27437034 -0.23144186 0.06629351 -0.22494873 -0.52860564 0.11731822 0.26380306 0.455051

conv1d/conv1d_bias f4 [16]
00000000: 7428 023f 2c50 f93d 8693 713e 5504 813e
00000010: fa66 34bd 7e7e e9be 365f 913e bca2 193e
00000020: 0a3f b23e 0ff8 573e 813e 82bd ad86 42be
00000030: 567b 56be ae6b 343e 0d41 fb3e d37b d9bd
0.50842977 0.12173495 0.23591432 0.25198618 -0.04404352 -0.45604318 0.28392953 0.15003484
0.3481372 0.2109072 -0.06359578 -0.18996687 -0.20945486 0.17619202 0.49073067 -0.10619321

conv1d_1/conv1d/ExpandDims_1 i1 [32, 1, 16, 16] scale=0.010619525 zero_point=0
00000000: e906 fffd f7e0 baf2 eef9 f2e5 dfce d9af
00000010: ffe8 f8e4 f2e9 e8ec 0cfe edce f9f3 cab6
00000020: efd1 04ce dd0b fdd8 ed03 f2c9 dd08 e2ed
00000030: e1ea 12f6 e80c eae2 e6f7 e40c c503 0afb
00000040: 0df9 fb0c fdee effb 0cff ebf7 16fa 07ea
00000050: 02ef 03f2 fef9 0000 f7ff f202 eff8 fdf3
00000060: 0df6 13fd 0a00 0808 0a01 0713 ee04 11f6
00000070: 0807 08f8 0a04 fe07 03f9 fee8 f205 f9f2
00000080: f90e 0d09 fd08 f6fd f005 f4eb e710 0f02
00000090: 1d0b 1401 f522 0c07 270d f4f0 180f ff0b
000000a0: dff3 0401 f217 07eb e60a 020a d321 001a
000000b0: cd14 1d1f 15d4 dd04 cb07 0f06 d4e7 0a06
000000c0: 1033 1822 23d4 c60a fe14 1e13 0fda 02eb
000000d0: 3233 0a24 191a f10b 190a 1d14 2a0d 0f28
000000e0: 1009 0804 05ee 0f06 2411 f900 0a0f fe05
000000f0: 14ed 0902 fcff 1e0f 0617 0702 0513 0820
-0.24424908 0.06371715 -0.010619525 -0.031858575 -0.09557572 -0.3398248 -0.7433667 -0.14867336
-0.19115144 -0.07433668 -0.14867336 -0.28672716 -0.35044432 -0.53097624 -0.41416147 -0.8601815
-0.010619525 -0.2548686 -0.0849562 -0.2973467 -0.14867336 -0.24424908 -0.2548686 -0.2123905
0.1274343 -0.02123905 -0.20177098 -0.53097624 -0.07433668 -0.13805382 -0.5734543 -0.78584486
-0.18053192 -0.49911767 0.0424781 -0.53097624 -0.37168336 0.11681478 -0.031858575 -0.424781
-0.20177098 0.031858575 -0.14867336 -0.58407384 -0.37168336 0.0849562 -0.31858575 -0.20177098
-0.32920527 -0.23362955 0.19115144 -0.10619525 -0.2548686 0.1274343 -0.23362955 -0.31858575
-0.27610764 -0.09557572 -0.2973467 0.1274343 -0.626552 0.031858575 0.10619525 -0.053097624
0.13805382 -0.07433668 -0.053097624 0.1274343 -0.031858575 -0.19115144 -0.18053192 -0.053097624
0.1274343 -0.010619525 -0.22301002 -0.09557572 0.23362955 -0.06371715 0.07433668 -0.23362955
0.02123905 -0.18053192 0.031858575 -0.14867336 -0.02123905 -0.07433668 0.0 0.0
-0.09557572 -0.010619525 -0.14867336 0.02123905 -0.18053192 -0.0849562 -0.031858575 -0.13805382
0.13805382 -0.10619525 0.20177098 -0.031858575 0.10619525 0.0 0.0849562 0.0849562
0.10619525 0.010619525 0.07433668 0.20177098 -0.19115144 0.0424781 0.18053192 -0.10619525
0.0849562 0.07433668 0.0849562 -0.0849562 0.10619525 0.0424781 -0.02123905 0.07433668
0.031858575 -0.07433668 -0.02123905 -0.2548686 -0.14867336 0.053097624 -0.07433668 -0.14867336
-0.07433668 0.14867336 0.13805382 0.09557572 -0.031858575 0.0849562 -0.10619525 -0.031858575
-0.1699124 0.053097624 -0.1274343 -0.22301002 -0.26548812 0.1699124 0.15929288 0.02123905
0.30796623 0.11681478 0.2123905 0.010619525 -0.11681478 0.36106384 0.1274343 0.07433668
0.41416147 0.13805382 -0.1274343 -0.1699124 0.2548686 0.15929288 -0.010619525 0.11681478
-0.35044432 -0.13805382 0.0424781 0.010619525 -0.14867336 0.24424908 0.07433668 -0.22301002
-0.27610764 0.10619525 0.02123905 0.10619525 -0.47787863 0.35044432 0.0 0.27610764
-0.54159576 0.2123905 0.30796623 0.32920527 0.22301002 -0.4672591 -0.37168336 0.0424781
-0.5628348 0.07433668 0.15929288 0.06371715 -0.4672591 -0.26548812 0.10619525 0.06371715
0.1699124 0.54159576 0.2548686 0.36106384 0.37168336 -0.4672591 -0.61593246 0.10619525
-0.02123905 0.2123905 0.31858575 0.20177098 0.15929288 -0.40354195 0.02123905 -0.22301002
0.53097624 0.54159576 0.10619525 0.38230288 0.26548812 0.27610764 -0.15929288 0.11681478
0.26548812 0.10619525 0.30796623 0.2123905 0.44602004 0.13805382 0.15929288 0.424781
0.1699124 0.09557572 0.0849562 0.0424781 0.053097624 -0.19115144 0.15929288 0.06371715
0.38230288 0.18053192 -0.07433668 0.0 0.10619525 0.15929288 -0.02123905 0.053097624
0.2123905 -0.20177098 0.09557572 0.02123905 -0.0424781 -0.010619525 0.31858575 0.15929288
0.06371715 0.24424908 0.07433668 0.02123905 0.053097624 0.20177098 0.0849562 0.3398248

conv1d_1/conv1d_bias f4 [32]
00000000: e2d2 353f 1ce4 1b3f 7e46 213f 4dcf 5b3f
00000010: 9672 a03d 1bae eebd 2144 993e d3f3 d53e
00000020: 0ec3 a03c 11eb d13e da43 e63e b4f7 6a3e
00000030: b22b 123d ba51 39be a4d2 5dbf ef85 b23e
00000040: 5803 7dbe 744a 963e 2e6c 4dbb f748 d73e
00000050: 87c7 923e 1e6b 9cbd 4757 483e 508f e33d
00000060: 9d25 79bd b29e 883e 1559 783f 64b3 bbbe
00000070: e15a 703d a02b 263f 57aa b73e 815b d13d
0.71024907 0.6089494 0.6299819 0.8586319 0.078343555 -0.11654302 0.2993479 0.41787586
0.01962426 0.40999654 0.44973642 0.22946054 0.035686202 -0.18097582 -0.8664954 0.34867808
-0.24708307 0.29353678 -0.0031344998 0.42047855 0.28667852 -0.076376185 0.19564544 0.11111319
-0.060826886 0.26683575 0.9701093 -0.36660302 0.05868042 0.64910316 0.35872146 0.10222531

conv1d_2/conv1d/ExpandDims_1 i1 [32, 1, 16, 32] scale=0.009230293 zero_point=0
00000000: 10df 18f4 edee 2506 20f5 dade d1ea 2f12
00000010: eed7 e60f f4e9 1c0b eecc dcff f829 11e9
00000020: 0004 26d9 e12c 220c 10f1 0300 0906 210c
00000030: 02ed ece5 e7d4 ef01 d8db e40e 1114 ffd1
00000040: f513 13d7 ef0f 08ff e424 feef fb0a e5f6
00000050: f70c eeec e7d7 f1e6 fdf3 18f0 1ed0 2914
00000060: 1816 07f4 d1d6 021b 3025 e5e4 d70c e6fa
00000070: f911 fcef dce2 19f9 d2f9 2bea 28f4 edf0
00000080: 1410 0600 e5e1 1a02 defd d503 f50a 0605
00000090: e005 17e8 a803 32fd da0b 14ed 320f d9f8
000000a0: ec05 0101 f204 08f3 dd0c e116 ee03 21fb
000000b0: e5e4 0603 af12 4cf1 fdfe 2de0 2014 f4d0
000000c0: f516 1601 ff20 08fb fdf4 1c0c efe7 fc01
000000d0: fcf0 e2eb d712 1205 f5f8 fafd 2a0d dfe6
000000e0: e928 0e07 0431 020c 0d14 040f fde8 f9ff
000000f0: fbe3 e5de e9e1 19df 1ff8 defe 0dfe c9ea
0.1476847 -0.30459967 0.22152704 -0.11076352 -0.17537558 -0.16614528 0.34152085 0.05538176
0.2953694 -0.10153323 -0.35075116 -0.31382996 -0.4338238 -0.20306645 0.4338238 0.16614528
-0.16614528 -0.37844202 -0.23998763 0.13845441 -0.11076352 -0.21229675 0.2584482 0.10153323
-0.16614528 -0.47997525 -0.33229056 -0.009230293 -0.07384235 0.37844202 0.15691498 -0.21229675
0.0 0.036921173 0.35075116 -0.35998145 -0.2861391 0.4061329 0.31382996 0.11076352
0.1476847 -0.13845441 0.02769088 0.0 0.08307264 0.05538176 0.30459967 0.11076352
0.018460587 -0.17537558 -0.18460587 -0.24921793 -0.23075733 -0.4061329 -0.15691498 0.009230293
-0.36921173 -0.34152085 -0.2584482 0.1292241 0.15691498 0.18460587 -0.009230293 -0.4338238
-0.10153323 0.17537558 0.17537558 -0.37844202 -0.15691498 0.13845441 0.07384235 -0.009230293
-0.2584482 0.33229056 -0.018460587 -0.15691498 -0.046151467 0.09230293 -0.24921793 -0.09230293
-0.08307264 0.11076352 -0.16614528 -0.18460587 -0.23075733 -0.37844202 -0.13845441 -0.23998763
-0.02769088 -0.11999381 0.22152704 -0.1476847 0.27690881 -0.44305408 0.37844202 0.18460587
0.22152704 0.20306645 0.06461205 -0.11076352 -0.4338238 -0.3876723 0.018460587 0.24921793
0.44305408 0.34152085 -0.24921793 -0.2584482 -0.37844202 0.11076352 -0.23998763 -0.05538176
-0.06461205 0.15691498 -0.036921173 -0.15691498 -0.33229056 -0.27690881 0.23075733 -0.06461205
-0.4245935 -0.06461205 0.39690262 -0.20306645 0.36921173 -0.11076352 -0.17537558 -0.1476847
0.18460587 0.1476847 0.05538176 0.0 -0.24921793 -0.2861391 0.23998763 0.018460587
-0.31382996 -0.02769088 -0.39690262 0.02769088 -0.10153323 0.09230293 0.05538176 0.046151467
-0.2953694 0.046151467 0.21229675 -0.22152704 -0.8122658 0.02769088 0.46151465 -0.02769088
-0.35075116 0.10153323 0.18460587 -0.17537558 0.46151465 0.13845441 -0.35998145 -0.07384235
-0.18460587 0.046151467 0.009230293 0.009230293 -0.1292241 0.036921173 0.07384235 -0.11999381
-0.32306027 0.11076352 -0.2861391 0.20306645 -0.16614528 0.02769088 0.30459967 -0.046151467
-0.24921793 -0.2584482 0.05538176 0.02769088 -0.7476538 0.16614528 0.7015023 -0.13845441
-0.02769088 -0.018460587 0.4153632 -0.2953694 0.2953694 0.18460587 -0.11076352 -0.44305408
-0.10153323 0.20306645 0.20306645 0.009230293 -0.009230293 0.2953694 0.07384235 -0.046151467
-0.02769088 -0.11076352 0.2584482 0.11076352 -0.15691498 -0.23075733 -0.036921173 0.009230293
-0.036921173 -0.1476847 -0.27690881 -0.19383615 -0.37844202 0.16614528 0.16614528 0.046151467
-0.10153323 -0.07384235 -0.05538176 -0.02769088 0.3876723 0.11999381 -0.30459967 -0.23998763
-0.21229675 0.36921173 0.1292241 0.06461205 0.036921173 0.45228437 0.018460587 0.11076352
0.11999381 0.18460587 0.036921173 0.13845441 -0.02769088 -0.22152704 -0.06461205 -0.009230293
-0.046151467 -0.2676785 -0.24921793 -0.31382996 -0.21229675 -0.2861391 0.23075733 -0.30459967
0.2861391 -0.07384235 -0.31382996 -0.018460587 0.11999381 -0.018460587 -0.5076661 -0.20306645

conv1d_2/conv1d_bias f4 [32]
00000000: b5d2 1fbd e699 c13e 7a56 97bd fc64 3ebd
00000010: 0423 1c3d 59a3 5bbe 1a99 84be 89ce b33e
00000020: f72c 4b3e 7243 5dbe f961 a33d 8788 793e
00000030: 59f6 80be f43d febe 4456 38be 6a80 e9be
00000040: a689 afbd a2c6 8bbe 8b58 bdbe 6f8e 23be
00000050: c8f1 2fbe b13b 37bc 9d59 35bd b176 c43e
00000060: 9c3b 8f3e aedf 6bbe d6b2 fd3d 4424 bfbe
00000070: b284 8bbd 1335 0bbf cc67 6ebe 7ffd cbbd
-0.039019305 0.37812728 -0.07389541 -0.046483025 0.03811933 -0.21449031 -0.25898057 0.3511851
0.19841371 -0.2160776 0.07977671 0.24368487 -0.25187948 -0.4965664 -0.18001658 -0.45605785
-0.08571176 -0.27299982 -0.36981615 -0.15972303 -0.17182076 -0.011183665 -0.044274915 0.38371804
0.27975166 -0.23034546 0.12387626 -0.37332356 -0.06812419 -0.5437786 -0.23281783 -0.0996046

conv1d_3/conv1d/ExpandDims_1 i1 [64, 1, 16, 32] scale=0.010699065 zero_point=0
00000000: 0b0e f91a e10b e7e4 0307 e7f4 e7fc 0606
00000010: 060e 1905 030d d3d9 1231 040c 001f 11fe
00000020: fc04 ef10 e300 e4e2 04f8 ec03 f1e7 f50a
00000030: fc11 fb0e fd04 d5e8 010e fb1b f515 fbff
00000040: ec0d ec11 eb04 e4e7 f9fd dd00 e4e2 fe08
00000050: ee0d fc07 07fe cfe3 ef1d f514 fe0f ecfa
00000060: f007 e60f db12 e5e9 f6fe e803 e5f1 0f0f
00000070: ed11 0c07 08fb cbd6 f320 fb1d f70d fcf7
00000080: 0105 f80f cfff ecd2 f406 de08 dcf5 0509
00000090: ff0e fe07 fff6 cedc f517 f81a f311 ec03
000000a0: 0d08 f806 bcf4 f6d1 fdff da0b d1ff 0712
000000b0: f523 07ff 08ef cdd3 fe28 ee21 e619 f2f2
000000c0: 13ff f8ff cff3 fcde 0bfa dd03 c901 f218
000000d0: e51d 0006 0703 cae1 0c16 f32c de1a 04fe
000000e0: 2b06 0211 eefd f1e8 f7f4 ec01 d6fb f923
000000f0: d325 020b 1104 dee9 1b09 0027 de13 0c00
0.11768972 0.14978692 -0.07489346 0.2781757 -0.33167103 0.11768972 -0.26747665 -0.29957384
0.032097198 0.07489346 -0.26747665 -0.12838879 -0.26747665 -0.04279626 0.064194396 0.064194396
0.064194396 0.14978692 0.26747665 0.053495325 0.032097198 0.13908786 -0.48145795 -0.41726354
0.19258317 0.5242542 0.04279626 0.12838879 0.0 0.33167103 0.18188411 -0.02139813
-0.04279626 0.04279626 -0.18188411 0.17118505 -0.3102729 0.0 -0.29957384 -0.32097197
0.04279626 -0.08559252 -0.2139813 0.032097198 -0.16048598 -0.26747665 -0.11768972 0.10699065
-0.04279626 0.18188411 -0.053495325 0.14978692 -0.032097198 0.04279626 -0.46005982 -0.25677758
0.010699065 0.14978692 -0.053495325 0.28887478 -0.11768972 0.22468038 -0.053495325 -0.010699065
-0.2139813 0.13908786 -0.2139813 0.18188411 -0.22468038 0.04279626 -0.29957384 -0.26747665
-0.07489346 -0.032097198 -0.37446728 0.0 -0.29957384 -0.32097197 -0.02139813 0.08559252
-0.19258317 0.13908786 -0.04279626 0.07489346 0.07489346 -0.02139813 -0.5242542 -0.3102729
-0.18188411 0.3102729 -0.11768972 0.2139813 -0.02139813 0.16048598 -0.2139813 -0.064194396
-0.17118505 0.07489346 -0.2781757 0.16048598 -0.3958654 0.19258317 -0.28887478 -0.2460785
-0.10699065 -0.02139813 -0.25677758 0.032097198 -0.28887478 -0.16048598 0.16048598 0.16048598
-0.20328224 0.18188411 0.12838879 0.07489346 0.08559252 -0.053495325 -0.56705046 -0.44936076
-0.13908786 0.3423701 -0.053495325 0.3102729 -0.09629159 0.13908786 -0.04279626 -0.09629159
0.010699065 0.053495325 -0.08559252 0.16048598 -0.5242542 -0.010699065 -0.2139813 -0.492157
-0.12838879 0.064194396 -0.36376822 0.08559252 -0.38516635 -0.11768972 0.053495325 0.09629159
-0.010699065 0.14978692 -0.02139813 0.07489346 -0.010699065 -0.10699065 -0.5349533 -0.38516635
-0.11768972 0.2460785 -0.08559252 0.2781757 -0.13908786 0.18188411 -0.2139813 0.032097198
0.13908786 0.08559252 -0.08559252 0.064194396 -0.72753644 -0.12838879 -0.10699065 -0.5028561
-0.032097198 -0.010699065 -0.40656447 0.11768972 -0.5028561 -0.010699065 0.07489346 0.19258317
-0.11768972 0.37446728 0.07489346 -0.010699065 0.08559252 -0.18188411 -0.54565233 -0.48145795
-0.02139813 0.4279626 -0.19258317 0.35306916 -0.2781757 0.26747665 -0.14978692 -0.14978692
0.20328224 -0.010699065 -0.08559252 -0.010699065 -0.5242542 -0.13908786 -0.04279626 -0.36376822
0.11768972 -0.064194396 -0.37446728 0.032097198 -0.5884486 0.010699065 -0.14978692 0.25677758
-0.28887478 0.3102729 0.0 0.064194396 0.07489346 0.032097198 -0.57774955 -0.33167103
0.12838879 0.23537944 -0.13908786 0.4707589 -0.36376822 0.2781757 0.04279626 -0.02139813
0.46005982 0.064194396 0.02139813 0.18188411 -0.19258317 -0.032097198 -0.16048598 -0.25677758
-0.09629159 -0.12838879 -0.2139813 0.010699065 -0.44936076 -0.053495325 -0.07489346 0.37446728
-0.48145795 0.3958654 0.02139813 0.11768972 0.18188411 0.04279626 -0.36376822 -0.2460785
0.28887478 0.09629159 0.0 0.41726354 -0.36376822 0.20328224 0.12838879 0.0

conv1d_3/conv1d_bias f4 [64]
00000000: ae97 1fbe 8235 4bbf a180 433d 564d 08be
00000010: 4d89 003e c60f 123e 20d7 a13e 0268 0abf
00000020: 1f9b 1bbe e173 963e 7c6c 203e c359 6d3e
00000030: dc31 8fbe d971 0ebe ab65 1fbd 512a 6cbe
00000040: 1f13 2dbd 8809 993e b09f b0be f599 923e
00000050: 6c8e 883e c082 8bbd b59d 3dbf 3e21 65bf
00000060: a0c3 d33e f8b5 0cbe 9f76 b8bf 981f 1c3e
00000070: 17a4 d1be 2c7e 93be a0ee 053e 5292 b73e
00000080: 3c4c 5cbe 87b4 87be 698e 1a3e ef33 3bbe
00000090: e05e 11bd 0d3b 89be a4dc 6d3e d011 03bf
000000a0: 6d9f 7bbe c6e2 2d3c 0d63 103e cf8f 5ebf
000000b0: 823b f93b 002b 71be 7fce e3be 38b5 19be
000000c0: 1cdf 09bf 7e8f fa3d 2272 b4bd 3eaa 84be
000000d0: e0b2 19bc 2640 2cbd 2902 ddbe 07fc e5be
000000e0: 73b7 2abe 0940 5b3e eaef 1d3d 7b5d f73e
000000f0: d167 ff3d 0131 d1bd fc69 3abe f7ae 5abe
-0.15585205 -0.7937852 0.047730092 -0.13310751 0.12552376 0.1426383 0.3160944 -0.54064953
-0.15195893 0.29385284 0.15666384 0.23178773 -0.27967727 -0.13910617 -0.038915318 -0.23063017
-0.042254563 0.29890084 -0.34496832 0.28633085 0.2667116 -0.06812048 -0.74068767 -0.8950385
0.41360188 -0.1374129 -1.44112 0.15246427 -0.40945503 -0.288072 0.1307931 0.3585382
-0.21513456 -0.2650492 0.15093388 -0.1828153 -0.03549087 -0.26802865 0.23228699 -0.51199055
-0.24572535 0.010613149 0.14100285 -0.86938184 0.007605971 -0.2355156 -0.44493482 -0.15010536
-0.5385606 0.122344 -0.088108316 -0.25911134 -0.009381026 -0.042053364 -0.4316571 -0.44918844
-0.16671543 0.21411146 0.038558878 0.48313507 0.12470973 -0.10214425 -0.18204492 -0.21355806

conv1d_4/conv1d/ExpandDims_1 i1 [64, 1, 16, 64] scale=0.009971767 zero_point=0
00000000: 2f0a e623 fabd 06f0 0ad9 00d7 06d4 baf0
00000010: 000f 130d f406 cc15 f60e f4fe c7e7 010c
00000020: 1cf9 d830 1f2d e520 e2f7 e9a9 e202 f008
00000030: 10d6 e2e0 e2d9 0fe8 f9fa fe03 fd03 02db
00000040: 2626 f72b ebd2 06d7 04d5 07cc 08d7 dde0
00000050: f813 1b0e f813 ea2d 0012 f003 ebde fd13
00000060: 1006 0106 1918 e114 d3fb eaa3 cfff 00fd
00000070: 0dbf d3e1 ebdf 19e1 f3e5 ec0b e822 02e1
00000080: 36ed 1a15 d6bf 08d9 0cd9 00cd 02d4 eae2
00000090: 0a13 f60e 040d eb0e f724 e9fa fddf 4116
000000a0: ea04 ffec 151b d110 e2fd f3de d312 f3e0
000000b0: 0ad7 dae0 f2f1 1be3 f1db fe0b cd18 05ec
000000c0: 27cd 35ff d2c5 0df3 05e5 f4e9 04d7 efe2
000000d0: fd01 d313 e808 ff06 e11b fbf0 fdea 3513
000000e0: cc07 f3ed 1b1d d013 d807 edf4 e1fa e7f2
000000f0: 09fc f6fe eee1 1bed f1c3 ff14 bc17 01f9
0.46867305 0.09971767 -0.25926593 0.34901184 -0.0598306 -0.66810834 0.0598306 -0.15954827
0.09971767 -0.3888989 0.0 -0.40884244 0.0598306 -0.43875775 -0.6980237 -0.15954827
0.0 0.1495765 0.18946357 0.12963296 -0.1196612 0.0598306 -0.51853186 0.2094071
-0.09971767 0.13960473 -0.1196612 -0.019943533 -0.5683907 -0.24929416 0.009971767 0.1196612
0.27920946 -0.069802366 -0.39887068 0.4786448 0.30912477 0.44872952 -0.2692377 0.31909654
-0.299153 -0.0897459 -0.22935064 -0.8675437 -0.299153 0.019943533 -0.15954827 0.079774134
0.15954827 -0.4188142 -0.299153 -0.31909654 -0.299153 -0.3888989 0.1495765 -0.2393224
-0.069802366 -0.0598306 -0.019943533 0.0299153 -0.0299153 0.0299153 0.019943533 -0.36895537
0.37892714 0.37892714 -0.0897459 0.42878598 -0.2094071 -0.45870128 0.0598306 -0.40884244
0.039887067 -0.42878598 0.069802366 -0.51853186 0.079774134 -0.40884244 -0.34901184 -0.31909654
-0.079774134 0.18946357 0.2692377 0.13960473 -0.079774134 0.18946357 -0.21937887 0.44872952
0.0 0.1794918 -0.15954827 0.0299153 -0.2094071 -0.33904007 -0.0299153 0.18946357
0.15954827 0.0598306 0.009971767 0.0598306 0.24929416 0.2393224 -0.30912477 0.19943534
-0.44872952 -0.049858835 -0.21937887 -0.9273743 -0.48861656 -0.009971767 0.0 -0.0299153
0.12963296 -0.6481648 -0.44872952 -0.30912477 -0.2094071 -0.3290683 0.24929416 -0.30912477
-0.12963296 -0.2692377 -0.19943534 0.10968944 -0.2393224 0.33904007 0.019943533 -0.30912477
0.5384754 -0.18946357 0.25926593 0.2094071 -0.4188142 -0.6481648 0.079774134 -0.3888989
0.1196612 -0.3888989 0.0 -0.5085601 0.019943533 -0.43875775 -0.21937887 -0.299153
0.09971767 0.18946357 -0.09971767 0.13960473 0.039887067 0.12963296 -0.2094071 0.13960473
-0.0897459 0.3589836 -0.22935064 -0.0598306 -0.0299153 -0.3290683 0.6481648 0.21937887
-0.21937887 0.039887067 -0.009971767 -0.19943534 0.2094071 0.2692377 -0.46867305 0.15954827
-0.299153 -0.0299153 -0.12963296 -0.33904007 -0.44872952 0.1794918 -0.12963296 -0.31909654
0.09971767 -0.40884244 -0.37892714 -0.31909654 -0.13960473 -0.1495765 0.2692377 -0.28918123
-0.1495765 -0.36895537 -0.019943533 0.10968944 -0.5085601 0.2393224 0.049858835 -0.19943534
0.3888989 -0.5085601 0.52850366 -0.009971767 -0.45870128 -0.58833426 0.12963296 -0.12963296
0.049858835 -0.2692377 -0.1196612 -0.22935064 0.039887067 -0.40884244 -0.16952004 -0.299153
-0.0299153 0.009971767 -0.44872952 0.18946357 -0.2393224 0.079774134 -0.009971767 0.0598306
-0.30912477 0.2692377 -0.049858835 -0.15954827 -0.0299153 -0.21937887 0.52850366 0.18946357
-0.51853186 0.069802366 -0.12963296 -0.18946357 0.2692377 0.28918123 -0.4786448 0.18946357
-0.39887068 0.069802366 -0.18946357 -0.1196612 -0.30912477 -0.0598306 -0.24929416 -0.13960473
0.0897459 -0.039887067 -0.09971767 -0.019943533 -0.1794918 -0.30912477 0.2692377 -0.18946357
-0.1495765 -0.6082778 -0.009971767 0.19943534 -0.67808014 0.22935064 0.009971767 -0.069802366

conv1d_4/conv1d_bias f4 [64]
00000000: 8698 acbe cf85 cebe eccf 6d3d 455b a5be
00000010: 38dd b5bd 100f a9be 954a d2be 3f2a 84bd
00000020: c0f3 3cbe bf7e d1be b60c 10be 4d24 383e
00000030: 13c3 d5bc 7e3a 69be 0cb2 c2be eb10 f1be
00000040: ae14 56be 806d a5be a9cf 30bf ce77 7fbe
00000050: 6fe9 233e 3623 adbe 970e 46be 6cd0 b1be
00000060: e384 a1bd 7259 36be 7e39 14be d5ba c9bc
00000070: d3f3 163d f120 87be 8d61 4fbe 1be4 08bd
00000080: 0cc9 063d 3e81 cfbe 1ffe e2be e7a6 8fbe
00000090: 7491 313d c58b e1be b79d 24be 44b5 8f3d
000000a0: a599 adbe 8ddb 1fbf 87fb 3a3e fa7f 94bc
000000b0: a1b5 adbd 7fb7 60be 1c27 87bd cb4f 7f3c
000000c0: c2c9 483e 532c 0fbf f4e5 303d 3ef0 f1bd
000000d0: 4b93 0ebe d91c 90be 56c5 d03d 67bd 9e3d
000000e0: 0c89 313d 48e0 9a3c 879a d1be a638 e1be
000000f0: b2bb f0be 0c1f 40be 555d c03d 52e1 78bc
-0.33710116 -0.40336463 0.058059618 -0.32296196 -0.08880085 -0.33019304 -0.41072527 -0.0645337
-0.18452358 -0.40917012 -0.14067349 0.17982598 -0.026093995 -0.22776219 -0.38026464 -0.4708322
-0.20906326 -0.32310104 -0.69066864 -0.24948046 0.16007017 -0.33815926 -0.19341503 -0.34729326
-0.07886674 -0.17807558 -0.14475057 -0.024625221 0.036853623 -0.2639232 -0.20252056 -0.033420663
0.032906577 -0.4052829 -0.44334504 -0.28057024 0.043351606 -0.44051948 -0.16075788 0.070169955
-0.33906284 -0.6244438 0.18260013 -0.01812743 -0.084819086 -0.21944998 -0.065992564 0.015582989
0.19608214 -0.5592701 0.04318805 -0.11813401 -0.13923375 -0.2814701 0.10193889 0.077509694
0.04334359 0.018905774 -0.40938208 -0.43988532 -0.470182 -0.18761843 0.09392802 -0.015190439
