python/Ryan/converted_gunshot_model_ptq.tflite (tflite, 156672 bytes, 18 tensors)

conv1d/conv1d/Conv2D_bias f4 [16]
000000 12 ea 8d 3c 3e 7b d5 3c ea ae 05 3d c4 a0 d6 bc
       0.017323527 0.026059743 0.032637514 -0.026199706
000010 6e 7b 83 3c 22 56 a8 3c 41 c2 c1 3c 51 be ef 3c
       0.016050067 0.020548884 0.023652198 0.029265555
000020 eb 44 b5 3c e4 59 c8 3c a5 9f 93 bb ec 72 14 3c
       0.02212759 0.024456926 -0.004505115 0.009060603
000030 90 e6 04 bc ad 5a 8f 3c 94 53 51 3c 38 bf b8 3c
       -0.008111611 0.017499292 0.012776274 0.022552118

conv1d/conv1d/ExpandDims_1 f4 [1, 1, 9, 16]
000000 02 23 80 bd e3 f8 e0 3b 06 27 5f 3e 4e ff 1e 3d
       -0.06256677 0.006865607 0.2179223 0.038817696
000010 ce 00 67 3e 6e 5d da bd a3 e6 0a be 56 d0 09 bd
       0.225589 -0.106623515 -0.13564543 -0.03364595
000020 d0 36 10 be 4b 3b 09 be c4 6d a5 3d d6 05 0e 3e
       -0.1408341 -0.13401525 0.08077577 0.13869414
000030 dc 66 4d 3e 0e 24 af 3d 2d ec 07 3e 4d ce fa 3c
       0.20058769 0.08551799 0.13273688 0.03061595
000040 82 a2 ad 3d 68 7d 19 3e a0 9c f3 3c a8 b1 86 bd
       0.084782615 0.14989245 0.02973777 -0.06576854
000050 f0 6c e7 3d 7c 88 b3 bd 2a 2d c5 3d 7a c1 88 3d
       0.11300075 -0.08766267 0.09627755 0.06677528
000060 28 d9 02 be 5e 9c d5 bc fe 5a ba bc 74 4b 0d bd
       -0.12778151 -0.026075538 -0.022748467 -0.034495786
000070 3d 42 21 be 2a c7 d5 3d b6 8c af bd e7 d2 ba bd
       -0.15747924 0.10438378 -0.0857176 -0.09122258
000080 ce 2e 04 3e 6d 35 38 3e 5a 6c 15 3e ed 3f 38 3d
       0.1290848 0.1798913 0.14592114 0.04498284
000090 96 61 35 be ec 05 ab 3d db c8 8c bd 0f 08 2c be
       -0.17713007 0.08350739 -0.06874248 -0.16799949
0000a0 0d fb 34 be 67 da bf bd 53 c3 eb 3d b2 1b 1f 3e
       -0.17673893 -0.09367829 0.115118645 0.15537909
0000b0 8c 82 03 3e 1e dd 08 3e d4 94 22 3d af 69 ca 3d
       0.12842768 0.133656 0.039692715 0.09883439
0000c0 8e 81 06 be 23 1a fc 3d 88 d3 4c 3e 7d 66 11 be
       -0.13135359 0.12309673 0.20002568 -0.14199252
0000d0 07 c5 a8 3d 68 1a 43 3e 44 50 75 be ee d8 99 3d
       0.08240705 0.19053042 -0.239564 0.07512079
0000e0 87 5f c0 bd 2d ff d0 bc 3e 41 28 3d 01 56 28 be
       -0.093932204 -0.025512302 0.041077845 -0.16439058
0000f0 de d0 19 be 60 1d 26 be 52 c7 86 be 12 48 0e 3e
       -0.15021083 -0.16222143 -0.26323944 0.1389468
000100 82 8b ad bd 77 ce 10 be 78 64 03 3e b8 b7 56 3d
       -0.08473875 -0.1414126 0.12831295 0.0524213
000110 80 0c 02 be 58 21 60 3d 07 74 da bd 5c 28 32 3d
       -0.12700081 0.0547193 -0.10666662 0.04349552
000120 e3 79 42 bd 29 e5 8d 3d c3 a1 27 be 25 4d 9a bc
       -0.04747952 0.069284745 -0.16370301 -0.018835614
000130 7c ff 1c be 93 8d fa 3d 36 a6 82 3c f5 9a 8c bb
       -0.15331835 0.122340344 0.015948396 -0.0042909333
000140 76 62 2a be 81 59 d8 ba 35 f2 f5 bd f0 6a a3 3d
       -0.16639122 -0.0016506166 -0.12009088 0.07979381
000150 d2 26 d5 bc 0a 07 f1 bc 9e 85 35 be 22 a3 ca bd
       -0.026019488 -0.029422302 -0.17726752 -0.09894396
000160 52 91 b2 bc c1 19 0d 3e 7f 46 70 bd 4a 8a a0 3d
       -0.02179781 0.13779356 -0.05866098 0.078388765
000170 6f 9e 63 bc cd 8c ca 3b ad 3d 3c 3e cc 81 40 be
       -0.013892754 0.0061813355 0.18382902 -0.18799514
000180 11 33 1d be e6 10 34 3e 27 72 39 3e 69 2c 01 be
       -0.15351512 0.17584571 0.18109952 -0.12614597
000190 d5 ae 1d 3d 7c 74 9f bd e3 f7 17 bd 6c fd 71 3e
       0.03849681 -0.077858895 -0.037101638 0.23631829
0001a0 54 c9 da bd ce 93 4a be d8 38 34 be 54 85 23 b9
       -0.106829315 -0.19782946 -0.17599809 -0.0001559456
0001b0 d8 52 e6 3d 04 3e 6b be f2 07 03 be 0f 40 58 3e
       0.1124627 -0.22972876 -0.12796 0.21118186
0001c0 f9 98 52 bc 0a cf f2 3c 6e 62 5a 3e 0e 0e b8 bd
       -0.012853854 0.02963974 0.2132661 -0.08987056
0001d0 88 ec 19 3d 80 7c 50 be 89 de 5e 3d 47 cc a1 bc
       0.03757909 -0.20359993 0.054411445 -0.019750727
0001e0 a9 34 67 3d 2c ef 95 bd 84 cf 48 be 6d 25 2d 3e
       0.056446705 -0.07321009 -0.19610411 0.16908808
0001f0 ae 4c 63 be 55 5c 4e be 2d 03 92 bd 71 5a 08 3e
       -0.2219722 -0.2015241 -0.07129512 0.1331575
000200 3f f3 1b 3e f7 df 37 3e 96 c4 ee 3b 73 c9 01 be
       0.1522951 0.1795653 0.0072866185 -0.12674503
000210 90 85 06 be 13 f4 d1 bc e8 8d 28 be 70 09 e4 bd
       -0.13136888 -0.025629079 -0.16460383 -0.111346126
000220 79 ed 13 be 36 3c 8e 3e c3 52 36 3e 48 04 85 be
       -0.14446057 0.27780312 0.17805009 -0.2597983
000230 12 48 b0 3d 18 fc 01 bc 37 c6 62 3e e1 1c 28 3e
       0.08607496 -0.007933639 0.22145925 0.16417266

conv1d_1/conv1d/Conv2D_bias f4 [16]
000000 5e 14 7b bc ec df 33 bd 76 97 08 3d d9 dc 69 3c
       -0.01532468 -0.04391472 0.03334757 0.014273846
000010 e7 04 77 bd 2d c9 39 3d d3 57 11 3d b8 68 d7 b6
       -0.06030741 0.04535787 0.035484146 -6.41969e-06
000020 aa 6d 46 3d fc 10 6e 3c a2 cb 11 3d ac 16 92 3c
       0.048444428 0.014530417 0.03559459 0.017833076
000030 a5 bd 34 3d a3 c6 30 bd da fc f4 3c 01 2c 0d 3c
       0.04412617 -0.043158185 0.029905725 0.008616448

conv1d_1/conv1d/ExpandDims_1 u1 [16, 1, 9, 16] scale=0.0022431137 zero_point=0
000000 c7 d1 df cf fb 18 34 e4 03 e5 c9 0f be 08 3f 1f
       0.44637963 0.46881077 0.50021434 0.46432453 0.56302154 0.05383473 0.11664191 0.5114299 0.006729341 0.51367307 0.45086586 0.033646706 0.4261916 0.01794491 0.14131616 0.06953652
000010 d4 d1 fa bd dd 13 e1 3d 0e 00 18 07 b3 f2 07 d9
       0.4755401 0.46881077 0.56077844 0.4239485 0.49572814 0.04261916 0.5047006 0.13682994 0.031403594 0.0 0.05383473 0.015701797 0.40151736 0.5428335 0.015701797 0.48675567
000020 bd 13 22 c0 e3 ec 2a 36 13 24 d0 00 e9 24 20 3f
       0.4239485 0.04261916 0.076265864 0.43067783 0.5091868 0.52937484 0.09421077 0.12112814 0.04261916 0.08075209 0.46656764 0.0 0.5226455 0.08075209 0.07177964 0.14131616
000030 e1 02 fb 42 97 0f ef e3 d4 f1 f5 36 be c8 dc 08
       0.5047006 0.0044862274 0.56302154 0.14804551 0.33871016 0.033646706 0.5361042 0.5091868 0.4755401 0.5405904 0.5495629 0.12112814 0.4261916 0.44862273 0.493485 0.01794491
000040 17 21 d7 10 e1 d7 d3 3a ef c4 1d b1 ef e3 de 23
       0.051591616 0.074022755 0.48226944 0.03588982 0.5047006 0.48226944 0.473297 0.1301006 0.5361042 0.4396503 0.0650503 0.39703113 0.5361042 0.5091868 0.49797124 0.07850898
000050 05 e2 2b d4 ec 20 d3 b4 f0 cb 0a 13 fe ed ef 42
       0.0112155685 0.5069437 0.09645389 0.4755401 0.52937484 0.07177964 0.473297 0.40376046 0.5383473 0.45535207 0.022431137 0.04261916 0.5697509 0.53161794 0.5361042 0.14804551
000060 c1 45 d1 e0 16 c7 d9 27 26 f2 fb 0d c3 03 28 41
       0.43292093 0.15477484 0.46881077 0.5024575 0.049348503 0.44637963 0.48675567 0.08748143 0.08523832 0.5428335 0.56302154 0.029160477 0.43740717 0.006729341 0.08972455 0.1458024
000070 cb 09 36 2e cd d2 13 34 d9 22 f2 e5 c6 0e 01 49
       0.45535207 0.020188022 0.12112814 0.10318323 0.4598383 0.47105387 0.04261916 0.11664191 0.48675567 0.076265864 0.5428335 0.51367307 0.4441365 0.031403594 0.0022431137 0.1637473
000080 35 c8 0b b3 df e6 f2 cb e1 19 b6 35 b1 0f 44 e6
       0.118885025 0.44862273 0.024674252 0.40151736 0.50021434 0.51591617 0.5428335 0.45535207 0.5047006 0.05607784 0.4082467 0.118885025 0.39703113 0.033646706 0.15253173 0.51591617
000090 3c 4b 2f 0b 07 da 17 14 12 cd 2e 0b 06 09 dd c3
       0.13458683 0.16823353 0.10542634 0.024674252 0.015701797 0.4889988 0.051591616 0.044862274 0.040376045 0.4598383 0.10318323 0.024674252 0.013458682 0.020188022 0.49572814 0.43740717
0000a0 47 d0 2d 21 f4 b6 40 be 0e 1c 05 3e 52 fc 08 b3
       0.15926108 0.46656764 0.100940116 0.074022755 0.54731977 0.4082467 0.14355928 0.4261916 0.031403594 0.06280719 0.0112155685 0.13907304 0.18393533 0.56526464 0.01794491 0.40151736
0000b0 ee d1 dd 23 41 d8 fd 03 10 b5 3f 37 5f 0a 23 d0
       0.53386104 0.46881077 0.49572814 0.07850898 0.1458024 0.48451257 0.56750774 0.006729341 0.03588982 0.4060036 0.14131616 0.12337125 0.2130958 0.022431137 0.07850898 0.46656764
0000c0 e3 ef 37 3e 37 06 26 c3 28 10 31 14 33 fa ba c4
       0.5091868 0.5361042 0.12337125 0.13907304 0.12337125 0.013458682 0.08523832 0.43740717 0.08972455 0.03588982 0.109912574 0.044862274 0.1143988 0.56077844 0.41721916 0.4396503
0000d0 ed 19 04 e3 df 40 3a 0d ef ea 13 dc cf cb e2 de
       0.53161794 0.05607784 0.008972455 0.5091868 0.50021434 0.14355928 0.1301006 0.029160477 0.5361042 0.52488863 0.04261916 0.493485 0.46432453 0.45535207 0.5069437 0.49797124
0000e0 23 0b 0d dd f5 11 d3 da 35 3a 29 02 db 26 c7 c5
       0.07850898 0.024674252 0.029160477 0.49572814 0.5495629 0.038132932 0.473297 0.4889988 0.118885025 0.1301006 0.091967665 0.0044862274 0.4912419 0.08523832 0.44637963 0.4418934
0000f0 1d eb fa f1 f8 f5 23 bb 1d db 26 03 35 32 21 03
       0.0650503 0.52713174 0.56077844 0.5405904 0.5562922 0.5495629 0.07850898 0.41946226 0.0650503 0.4912419 0.08523832 0.006729341 0.118885025 0.11215568 0.074022755 0.006729341

conv1d_2/conv1d/Conv2D_bias f4 [32]
000000 04 58 82 3c c2 59 9c 3c 40 78 6f 3b 6a f4 16 bc
       0.01591111 0.019085769 0.003654018 -0.009213546
000010 66 77 7e 3c b6 44 02 3d b8 44 42 3c 74 e6 a8 3c
       0.0155313965 0.03180381 0.011857204 0.020617701
000020 d4 ca e5 3b 60 1f 1a 3a 26 ea d2 3c 89 d3 5f 3c
       0.0070127044 0.0005879309 0.025746416 0.013661274
000030 5b 75 df 3c 35 f6 3e 3c 64 94 d5 bb 9c b0 9b 3d
       0.02727764 0.01165538 -0.0065179337 0.07602045
000040 4a f0 2f 3d 3a b0 85 3c 86 20 85 bc 45 f7 91 3c
       0.042953767 0.016319383 -0.01625086 0.017818103
000050 b3 a1 09 3d 91 83 be 3c e0 1d b9 bc e6 02 7c 3c
       0.033601474 0.023256095 -0.022597253 0.01538155
000060 f3 06 e1 bb 6e c4 a4 3c 84 ca ee bc ea f3 2d bd
       -0.0068672835 0.020113196 -0.029149301 -0.042468943
000070 21 d7 41 3c 02 58 8f 3c c8 ee 2a bc b9 38 62 bc
       0.011831076 0.01749802 -0.010432906 -0.013807469

conv1d_2/conv1d/ExpandDims_1 u1 [32, 1, 3, 16] scale=0.002251062 zero_point=0
000000 11 df 40 e4 aa f4 2c 98 b0 35 cf 45 28 db e1 4a
       0.038268056 0.50198686 0.14406797 0.5132421 0.38268057 0.5492591 0.09904673 0.34216145 0.39618692 0.11930629 0.46596986 0.15532328 0.09004249 0.4929826 0.506489 0.16657859
000010 bd 27 48 10 b4 3b 21 f0 16 40 3f 34 d1 19 c7 20
       0.42545074 0.08779142 0.16207647 0.036016993 0.40519118 0.13281266 0.074285045 0.5402549 0.049523365 0.14406797 0.14181691 0.11705523 0.47047198 0.056276552 0.44796136 0.07203399
000020 e6 b7 c5 5b 2d fc 62 db f1 b3 b2 05 fe cc 64 36
       0.5177443 0.41194436 0.44345924 0.20484665 0.101297796 0.56726766 0.22060408 0.4929826 0.542506 0.40294012 0.40068904 0.011255311 0.5717698 0.45921665 0.22510621 0.121557355
000030 10 5c bb f6 aa 4d 9e f5 3e bc 2e 40 4b f6 a6 98
       0.036016993 0.20709771 0.4209486 0.55376124 0.38268057 0.17333178 0.3556678 0.5515102 0.13956586 0.42319968 0.103548855 0.14406797 0.16882965 0.55376124 0.3736763 0.34216145
000040 d3 0f e5 3e dc aa 50 1a 03 31 55 16 3e 22 ff e1
       0.4749741 0.03376593 0.5154932 0.13956586 0.49523365 0.38268057 0.18008497 0.058527615 0.006753186 0.11030204 0.19134028 0.049523365 0.13956586 0.07653611 0.5740208 0.506489
000050 b0 c2 50 34 c3 3e a6 c6 38 a6 38 e7 e7 af d6 50
       0.39618692 0.43670604 0.18008497 0.11705523 0.4389571 0.13956586 0.3736763 0.4457103 0.12605947 0.3736763 0.12605947 0.51999533 0.51999533 0.39393586 0.48172727 0.18008497
000060 de 4e e1 1d cd 1c 55 02 57 fc fe 49 08 00 5e 23
       0.49973577 0.17558284 0.506489 0.0652808 0.4614677 0.06302974 0.19134028 0.004502124 0.1958424 0.56726766 0.5717698 0.16432753 0.018008497 0.0 0.21159984 0.07878717
000070 0e 09 46 30 60 c0 02 4c bc 11 e7 4d bf af e0 02
       0.03151487 0.02025956 0.15757434 0.10805098 0.21610196 0.43220392 0.004502124 0.17108072 0.42319968 0.038268056 0.51999533 0.17333178 0.42995286 0.39393586 0.5042379 0.004502124
000080 fc 5e b4 ba 22 9a d2 fb f9 57 e0 cf 25 a3 e2 c4
       0.56726766 0.21159984 0.40519118 0.41869754 0.07653611 0.34666356 0.47272304 0.56501657 0.56051445 0.1958424 0.5042379 0.46596986 0.083289295 0.36692312 0.50874 0.44120815
000090 4d 17 e6 f4 1b 26 51 60 11 3a f9 58 d7 03 61 d6
       0.17333178 0.051774427 0.5177443 0.5492591 0.060778677 0.08554036 0.18233603 0.21610196 0.038268056 0.1305616 0.56051445 0.19809346 0.48397836 0.006753186 0.21835302 0.48172727
0000a0 ce 60 af 31 18 27 d5 20 08 4e c6 0d 20 06 10 b9
       0.4637188 0.21610196 0.39393586 0.11030204 0.05402549 0.08779142 0.4794762 0.07203399 0.018008497 0.17558284 0.4457103 0.029263807 0.07203399 0.013506372 0.036016993 0.41644648
0000b0 39 c3 54 45 24 1b f3 41 02 c8 ff 1b f3 55 b2 b6
       0.12831053 0.4389571 0.18908921 0.15532328 0.08103824 0.060778677 0.5470081 0.14631903 0.004502124 0.45021242 0.5740208 0.060778677 0.5470081 0.19134028 0.40068904 0.4096933
0000c0 eb a4 a9 52 bb d2 fe 23 a8 b6 9f 42 13 01 4a 1d
       0.52899957 0.36917418 0.38042948 0.18458709 0.4209486 0.47272304 0.5717698 0.07878717 0.37817842 0.4096933 0.35791886 0.14857009 0.04277018 0.002251062 0.16657859 0.0652808
0000d0 b2 fa 0d ae b5 5a 14 08 3b f1 32 fd 5c bf d0 b0
       0.40068904 0.56276554 0.029263807 0.3916848 0.40744224 0.20259559 0.045021243 0.018008497 0.13281266 0.542506 0.112553105 0.5695187 0.20709771 0.42995286 0.46822092 0.39618692
0000e0 03 09 52 ea 73 f2 f6 ad 6c 64 fc 1c 71 35 ea 1c
       0.006753186 0.02025956 0.18458709 0.52674854 0.25887215 0.544757 0.55376124 0.38943374 0.24311471 0.22510621 0.56726766 0.06302974 0.25437 0.11930629 0.52674854 0.06302974
0000f0 f0 b0 9c 2f 09 c9 2b 1f 02 06 c9 4d 3e be 37 b8
       0.5402549 0.39618692 0.35116568 0.10579992 0.02025956 0.45246348 0.09679567 0.06978293 0.004502124 0.013506372 0.45246348 0.17333178 0.13956586 0.4277018 0.123808414 0.41419542

conv1d_3/conv1d/Conv2D_bias f4 [32]
000000 4b 15 b3 3c 6a d0 8e 3c 53 20 b3 3c 24 22 2f bb
       0.02186074 0.017433364 0.021866 -0.002672323
000010 45 fb 9c 3c 6e 3e 41 3c bc 01 05 bb 46 6e 2c bb
       0.019162783 0.01179467 -0.0020295223 -0.0026310845
000020 55 cc 34 3c f0 00 7f 3c 83 ee 26 bd 6d 95 40 bb
       0.011035045 0.015564188 -0.040754806 -0.002938594
000030 69 ad 8d 3c 7b 3e 9e 3c c8 86 f8 3c 33 e7 92 bc
       0.017294602 0.019316902 0.030337706 -0.01793251
000040 47 97 bd 3c 3e 1b 33 3c 72 b9 4b 3c 30 1b 8c 3b
       0.023143424 0.010931788 0.01243435 0.004275702
000050 ca d4 0a bc 5f 85 0e 3c 8c e8 af 3c 91 56 28 bc
       -0.008473584 0.00869879 0.021473192 -0.010274545
000060 88 fe 72 bb 15 74 56 b9 97 ae cc bc 8b ae fd 3c
       -0.0037077982 -0.00020451874 -0.024985595 0.030967018
000070 ce 45 4b 39 76 f9 87 3c 53 66 0f 3d ec f7 41 3c
       0.00019385593 0.016598444 0.035009693 0.011838894

conv1d_3/conv1d/ExpandDims_1 u1 [32, 1, 3, 32] scale=0.0022373784 zero_point=0
000000 26 2c c4 dd 29 0a 27 1a 2c cd 43 dc 19 f7 e6 1c
       0.08502038 0.09844465 0.43852615 0.4944606 0.09173252 0.022373784 0.08725776 0.05817184 0.09844465 0.45866257 0.14990436 0.49222323 0.05593446 0.55263245 0.51459706 0.0626466
000010 0a 4f f4 39 e1 3f bb 3e 04 2d d6 a8 25 ed ba c5
       0.022373784 0.1767529 0.5459203 0.12753057 0.50341016 0.14095484 0.41838977 0.13871746 0.008949514 0.10068203 0.478799 0.37587956 0.082783 0.53025866 0.4161524 0.44076353
000020 0b 1c 0a ca b9 47 29 4b 38 b5 4c d1 06 1e 32 ed
       0.024611162 0.0626466 0.022373784 0.45195043 0.413915 0.15885386 0.09173252 0.16780338 0.1252932 0.4049655 0.17004076 0.4676121 0.01342427 0.06712135 0.11186892 0.53025866
000030 00 a8 4f 1b b5 1e 26 4a d5 f6 2d e0 05 f6 da 11
       0.0 0.37587956 0.1767529 0.060409218 0.4049655 0.06712135 0.08502038 0.165566 0.4765616 0.5503951 0.10068203 0.5011728 0.011186892 0.5503951 0.48774847 0.038035434
000040 bb f6 d2 dd 50 4b 06 c1 b7 28 b6 06 da b0 13 fd
       0.41838977 0.5503951 0.46984947 0.4944606 0.17899027 0.16780338 0.01342427 0.43181401 0.40944025 0.08949514 0.40720287 0.01342427 0.48774847 0.3937786 0.04251019 0.5660567
000050 fa e4 1c b4 b6 35 c4 f8 61 bc 37 db fc 49 20 0e
       0.5593446 0.5101223 0.0626466 0.4027281 0.40720287 0.11858106 0.43852615 0.55486983 0.2170257 0.42062715 0.12305581 0.48998585 0.56381935 0.16332862 0.07159611 0.0313233
000060 e1 f0 46 21 31 5f c2 2b d8 0d f8 d7 ae e1 ea b8
       0.50341016 0.5369708 0.1566165 0.07383349 0.10963154 0.21255095 0.4340514 0.09620727 0.48327374 0.02908592 0.55486983 0.48103637 0.38930383 0.50341016 0.5235465 0.41167763
000070 e4 cb 45 21 c5 58 4b 4c c1 bd 37 23 27 0c f5 3f
       0.5101223 0.4541878 0.15437911 0.07383349 0.44076353 0.1968893 0.16780338 0.17004076 0.43181401 0.42286453 0.12305581 0.07830825 0.08725776 0.02684854 0.5481577 0.14095484
000080 4c c4 e9 11 03 06 f4 0f 21 d2 df c1 27 c0 14 f6
       0.17004076 0.43852615 0.52130914 0.038035434 0.006712135 0.01342427 0.5459203 0.033560675 0.07383349 0.46984947 0.49893537 0.43181401 0.08725776 0.42957664 0.04474757 0.5503951
000090 cd ed 2f b9 bb 34 bf 52 cf 0d ad 33 0e 43 17 0a
       0.45866257 0.53025866 0.10515679 0.413915 0.41838977 0.11634368 0.4273393 0.18346503 0.46313733 0.02908592 0.38706645 0.1141063 0.0313233 0.14990436 0.051459704 0.022373784
0000a0 e1 5a 32 f0 00 c5 25 4f a9 ed d6 08 03 11 eb 3c
       0.50341016 0.20136406 0.11186892 0.5369708 0.0 0.44076353 0.082783 0.1767529 0.37811694 0.53025866 0.478799 0.017899027 0.006712135 0.038035434 0.5257839 0.1342427
0000b0 fa 59 fd d8 d0 11 1e 0f 04 cb 23 d7 e0 0b d0 2d
       0.5593446 0.19912668 0.5660567 0.48327374 0.4653747 0.038035434 0.06712135 0.033560675 0.008949514 0.4541878 0.07830825 0.48103637 0.5011728 0.024611162 0.4653747 0.10068203
0000c0 b1 3e 26 0b aa 01 b4 c5 cf 3c ca 26 31 e1 dc 34
       0.39601597 0.13871746 0.08502038 0.024611162 0.38035432 0.0022373784 0.4027281 0.44076353 0.46313733 0.1342427 0.45195043 0.08502038 0.10963154 0.50341016 0.49222323 0.11634368
0000d0 f8 ad 3a 1b f2 16 ea 13 02 4b 10 cb ea 06 0d 07
       0.55486983 0.38706645 0.12976794 0.060409218 0.54144555 0.049222324 0.5235465 0.04251019 0.004474757 0.16780338 0.035798054 0.4541878 0.5235465 0.01342427 0.02908592 0.01566165
0000e0 4f 3e 4c d4 ed f9 f8 ee 19 f5 07 ea da dc 26 02
       0.1767529 0.13871746 0.17004076 0.47432423 0.53025866 0.5571072 0.55486983 0.53249604 0.05593446 0.5481577 0.01566165 0.5235465 0.48774847 0.49222323 0.08502038 0.004474757
0000f0 ca d5 3b bd f1 c2 19 3f d6 0f 17 33 0a b5 2b 2b
       0.45195043 0.4765616 0.13200532 0.42286453 0.5392082 0.4340514 0.05593446 0.14095484 0.478799 0.033560675 0.051459704 0.1141063 0.022373784 0.4049655 0.09620727 0.09620727

conv1d_4/conv1d/Conv2D_bias f4 [128]
000000 92 07 87 3d aa 39 99 bb 00 01 75 3b c2 57 d2 bc
       0.06593241 -0.0046760635 0.003738463 -0.025676612
000010 5c 83 57 3c 1a f3 ba bc 37 0c ac 3c de 31 ba bc
       0.013153877 -0.022820998 0.021001918 -0.022728857
000020 88 e9 21 bc 52 57 73 bc 00 ee 02 bd 87 fb 00 3d
       -0.009882338 -0.014852362 -0.031965256 0.031489875
000030 7f 1a b8 bc df c3 f6 3b 22 4c 4f 3b f3 ae 90 3c
       -0.022473572 0.007530674 0.0031631072 0.017661547
000040 93 56 c3 bc c3 7c a3 3c 41 25 a0 3d 7c eb 03 bd
       -0.023844993 0.019956952 0.078196056 -0.032206997
000050 72 02 3d bc 32 e2 b6 3c 11 29 a5 bc 32 70 b8 bb
       -0.011536228 0.022324655 -0.020161184 -0.005628609
000060 ae 44 30 bc 82 ec 1e 3c 69 55 3e 3c 3b c4 b4 3c
       -0.010758562 0.009699943 0.011617043 0.022066226
000070 f7 25 72 3c 01 2e 2f 3d b1 6b 23 3d c2 6e b9 3c
       0.014779559 0.042768482 0.039897624 0.022635821
000080 ad ee e6 3c 3c 74 aa 3c 31 e0 b1 bc 34 6d 83 3c
       0.028189981 0.020807378 -0.021713348 0.016043283
000090 4b cc f8 bc 28 e8 5e bc bc 0c c2 3c e4 cc 6c 3b
       -0.030370852 -0.013605155 0.023687713 0.0036132867
0000a0 ef e8 3b bc 18 b8 b8 bc 96 15 c8 bc 1d 8a bb 3c
       -0.01146911 -0.02254872 -0.024424355 0.022893006
0000b0 24 dd b0 3a 7b b6 af 3c 6a 18 ad 3b e7 92 e6 3c
       0.0013493639 0.021449318 0.0052824514 0.02814622
0000c0 36 9d ad 3c 77 cd 84 3c 7c c3 7f 3c f0 12 65 3b
       0.021193128 0.016211255 0.015610572 0.0034953915
0000d0 1f d5 8b 3c dd e6 5c bb 6c 70 b2 bc 8f bb f1 3c
       0.017069397 -0.0033706941 -0.021782123 0.02950838
0000e0 20 f6 ba bb 1c de c8 bc 19 94 d9 3c ef 55 0a 3c
       -0.00570561 -0.024519973 0.026559876 0.00844334
0000f0 e8 dd 61 3b 7d 8e b9 3c aa 48 32 3d b5 f7 ca bc
       0.0034464542 0.022650952 0.04352633 -0.024776319
000100 b6 20 2e 3c 3d c4 ef 3c a0 21 c4 3c ce c0 36 3d
       0.010627916 0.029268378 0.023941815 0.044617467
000110 00 00 00 00 4b ba 6d 3c 82 87 d9 3c 78 72 d7 3b
       0.0 0.014509748 0.026553873 0.006574925
000120 1f 3d 2e 3c be 36 12 bc da 59 b5 3c a7 21 f1 3c
       0.01063469 -0.008924184 0.022137571 0.029434992
000130 08 0b 8a 38 ff 54 6e bc 31 6f 14 3c da b0 9a bc
       6.5824075e-05 -0.014546632 0.009059713 -0.018883158
000140 83 fa 05 bc da 72 20 bc 6c 69 ad 3c 97 71 c6 3c
       -0.008177402 -0.009793008 0.021168433 0.024224086
000150 31 8f 12 3c dc ff d3 3c d9 0a c7 3c e6 2a 87 3c
       0.008945272 0.02587884 0.024297165 0.016499948
000160 2e ff 0f 3d c5 08 d3 3c ff 42 f9 3b b6 dc 46 3c
       0.035155468 0.025761018 0.0076068635 0.0121375825
000170 c0 51 58 bc 81 bd 5c bc af 75 a7 3c 02 a8 e2 3c
       -0.0132030845 -0.013472916 0.020441858 0.027668003
000180 49 14 cd 3c 4c 8c 79 bb 9d 6b b6 3c 30 3a b3 bb
       0.025034087 -0.0038078008 0.02226811 -0.005469583
000190 95 d3 12 3d 92 6a 28 bc a7 15 0f 3d 91 6e 3c bc
       0.03584631 -0.010279315 0.03493276 -0.01150097
0001a0 e0 9c d1 bb 49 27 1c bd 88 02 37 3c 20 20 50 bc
       -0.006396875 -0.038123403 0.011170037 -0.012702972
0001b0 a7 de 29 3d a7 f4 b6 3b da b1 e3 bb 30 69 b2 3c
       0.041472103 0.005583364 -0.006948692 0.021778673
0001c0 83 4e 89 bc 03 bc d7 3c f9 4f 5c bc f6 8d 0a bc
       -0.01676107 0.026334768 -0.013446801 -0.008456698
0001d0 cc 4c 9c 3c 19 33 91 3c 90 67 3d bc 68 3a a0 bc
       0.019079588 0.01772456 -0.011560336 -0.0195591
0001e0 fa 7b 5f b9 0c 66 89 3c 2a 3b c1 39 01 6b 6c 3c
       -0.00021313122 0.016772293 0.0003685591 0.014429809
0001f0 4a a2 71 3c 64 63 65 3b bb f0 c8 bc c3 ea 35 3c
       0.014748165 0.0035001868 -0.024528852 0.011103335

conv1d_4/conv1d/ExpandDims_1 u1 [128, 1, 3, 32] scale=0.0019350869 zero_point=0
000000 16 17 27 d2 ec 08 0d df 25 35 db cc 02 d8 d1 ee
       0.042571913 0.044507 0.07546839 0.40636826 0.4566805 0.015480695 0.02515613 0.4315244 0.07159822 0.102559604 0.42378405 0.39475772 0.0038701738 0.41797876 0.40443316 0.4605507
000010 be a4 2e f9 00 d9 15 99 d2 02 ea 18 1b 06 26 f4
       0.3676665 0.31735426 0.089014 0.48183665 0.0 0.41991386 0.040636826 0.2960683 0.40636826 0.0038701738 0.45281035 0.046442084 0.052247345 0.011610521 0.073533304 0.4721612
000020 42 f3 e2 db d2 fc 3d 11 1e 37 fe da 36 1c d1 09
       0.12771574 0.4702261 0.43732965 0.42378405 0.40636826 0.4876419 0.1180403 0.032896478 0.058052607 0.10642978 0.4915121 0.42184895 0.10449469 0.054182433 0.40443316 0.017415782
000030 0e d5 20 b7 de 06 11 00 e8 2a 35 3a d3 3e 2d fc
       0.027091216 0.4121735 0.06192278 0.3541209 0.4295893 0.011610521 0.032896478 0.0 0.44894016 0.08127365 0.102559604 0.11223504 0.40830335 0.11997539 0.087078914 0.4876419
000040 f7 bb 2b bb fb fb b4 03 ae d7 1e 16 0b ee cb 04
       0.47796646 0.36186126 0.08320874 0.36186126 0.4857068 0.4857068 0.34831566 0.0058052605 0.33670512 0.4160437 0.058052607 0.042571913 0.021285957 0.4605507 0.39282265 0.0077403476
000050 23 fc 07 03 f0 b9 e0 18 de 31 d1 dd c7 13 23 e8
       0.06772804 0.4876419 0.013545608 0.0058052605 0.46442086 0.35799107 0.43345946 0.046442084 0.4295893 0.094819255 0.40443316 0.4276542 0.3850823 0.036766652 0.06772804 0.44894016
000060 c9 db ce fb 26 c2 eb 32 2d e2 e7 cf 2f 27 37 de
       0.38895246 0.42378405 0.3986279 0.4857068 0.073533304 0.37540686 0.4547454 0.09675434 0.087078914 0.43732965 0.44700506 0.400563 0.09094909 0.07546839 0.10642978 0.4295893
000070 1c d0 f6 b3 00 ec d2 30 0e 13 d8 cc c8 e7 02 e6
       0.054182433 0.40249807 0.4760314 0.34638056 0.0 0.4566805 0.40636826 0.09288417 0.027091216 0.036766652 0.41797876 0.39475772 0.38701737 0.44700506 0.0038701738 0.44507
000080 df f5 d1 f2 30 ff de e4 cd 02 e7 d9 04 cf d2 d1
       0.4315244 0.4740963 0.40443316 0.46829104 0.09288417 0.49344715 0.4295893 0.4411998 0.3966928 0.0038701738 0.44700506 0.41991386 0.0077403476 0.400563 0.40636826 0.40443316
000090 21 fb c7 ea 0b 29 15 d8 1c f2 08 20 c7 c1 d1 c6
       0.06385787 0.4857068 0.3850823 0.45281035 0.021285957 0.079338565 0.040636826 0.41797876 0.054182433 0.46829104 0.015480695 0.06192278 0.3850823 0.37347177 0.40443316 0.3831472
0000a0 fc cd cb d2 c1 d2 cb d5 bd 35 02 04 1d 19 d6 c9
       0.4876419 0.3966928 0.39282265 0.40636826 0.37347177 0.40636826 0.39282265 0.4121735 0.36573142 0.102559604 0.0038701738 0.0077403476 0.05611752 0.04837717 0.4141086 0.38895246
0000b0 ee e6 32 37 ef bc f7 05 c9 0b d9 c6 08 1e 27 f4
       0.4605507 0.44507 0.09675434 0.10642978 0.46248576 0.36379635 0.47796646 0.009675435 0.38895246 0.021285957 0.41991386 0.3831472 0.015480695 0.058052607 0.07546839 0.4721612
0000c0 ee 22 32 21 15 0e f9 de de 15 40 60 0b f6 e7 ea
       0.4605507 0.065792955 0.09675434 0.06385787 0.040636826 0.027091216 0.48183665 0.4295893 0.4295893 0.040636826 0.12384556 0.18576834 0.021285957 0.4760314 0.44700506 0.45281035
0000d0 28 c0 ff d5 2f 46 4a 0e 3c ea 09 23 43 ee ff 0d
       0.07740348 0.37153667 0.49344715 0.4121735 0.09094909 0.13545609 0.14319643 0.027091216 0.116105214 0.45281035 0.017415782 0.06772804 0.12965082 0.4605507 0.49344715 0.02515613
0000e0 13 1e eb 27 11 1c e1 07 c7 0e 34 fe c5 cb f4 02
       0.036766652 0.058052607 0.4547454 0.07546839 0.032896478 0.054182433 0.43539456 0.013545608 0.3850823 0.027091216 0.10062452 0.4915121 0.38121212 0.39282265 0.4721612 0.0038701738
0000f0 c7 f0 de 22 26 21 e1 18 e9 f6 22 03 0d 03 e6 d2
       0.3850823 0.46442086 0.4295893 0.065792955 0.073533304 0.06385787 0.43539456 0.046442084 0.45087525 0.4760314 0.065792955 0.0058052605 0.02515613 0.0058052605 0.44507 0.40636826

conv1d_5/conv1d/Conv2D_bias f4 [128]
000000 8e 85 d5 bb 4b 75 f5 3c e6 42 d7 bc 60 44 04 3a
       -0.006516165 0.029963156 -0.026277017 0.0005045589
000010 a2 3e f4 bc 75 50 b9 bc dc c1 19 bc 95 22 ed 3a
       -0.029815022 -0.022621373 -0.009384599 0.0018091971
000020 7c ce f2 3c 4a 4d 11 3d e9 e4 8f bc f5 7d 0d 3c
       0.029639475 0.0354741 -0.017565208 0.0086359875
000030 55 66 cf 3c 18 75 13 bd ef 08 0c 3d bf d9 ff bc
       0.02531735 -0.03600034 0.034188207 -0.03123176
000040 73 82 8a bc 6f 0c d6 3c 38 ca de 3b 27 9c 25 bd
       -0.016907906 0.026128976 0.0067990087 -0.04043212
000050 0e 53 29 bd 8d 7d d8 3b 6a 04 be bc a7 47 c4 bc
       -0.041338973 0.0066067637 -0.023195464 -0.023959948
000060 84 9e 16 3d 93 4a 96 3c 18 98 b2 3c 0b 7e 95 bc
       0.036772266 0.018346107 0.02180104 -0.018248579
000070 d7 2d 08 3d 85 d4 f9 bb 26 21 2b 3c 46 aa 5f 3c
       0.03324684 -0.0076242113 0.010444915 0.013651436
000080 1c 52 26 bc c9 14 06 3d c0 01 63 bc 8e 3f 1e 3c
       -0.010151412 0.032734666 -0.013855398 0.009658707
000090 97 26 12 3c 69 5b 8b bc e0 a0 d4 bc c5 2b c2 39
       0.008920333 -0.017011361 -0.025955617 0.00037035174
0000a0 ff bb 98 bb 62 47 0e 3d 5b a5 a4 bc a4 db 37 ba
       -0.0046610828 0.034736045 -0.020098379 -0.0007013625
0000b0 ed 3c 0d 3c f0 cd 69 3c 7a bc d6 3c 9c 04 e2 3c
       0.008620483 0.014270291 0.02621292 0.027590089
0000c0 bf 1d e9 3c 75 a7 2f 3d 59 e6 c3 bc 2d 28 72 3c
       0.028456567 0.04288431 -0.02391355 0.014780086
0000d0 df 47 08 3d d5 2b 86 bc 17 ea 8f 3c 15 13 1c 3d
       0.033271667 -0.016378323 0.017567677 0.038104136
0000e0 fc 21 3b bb b4 20 cc 3c ed a3 2b bc e3 9b ff bb
       -0.0028554192 0.024917938 -0.010476095 -0.0078005656
0000f0 2f 4f b3 3c 5b db 60 bc 23 2f ec 3c 7c 65 24 3d
       0.021888344 -0.013724173 0.02883107 0.040135846
000100 c9 e2 01 3d 30 44 af bc ac 67 6c bc 9a 9b 65 3c
       0.03171042 -0.021394819 -0.014429014 0.014014149
000110 5d 6d 02 3d 85 e3 d3 3c dc eb 1b 3d 80 3c 61 bc
       0.03184258 0.025865326 0.03806673 -0.0137473345
000120 2b fc f9 3b 03 ba 24 3d a6 f1 47 bd 88 79 0e bd
       0.0076289377 0.040216457 -0.04881444 -0.03478387
000130 d1 70 6b 3c ef b3 00 3d fc e5 2c bb b8 da d5 3c
       0.014370159 0.031421598 -0.0026382199 0.02610527
000140 b8 c7 05 bd 38 ba 2d bc dd 1c 97 bc 0d cf ae bb
       -0.03266117 -0.01060348 -0.01844638 -0.005334741
000150 26 d1 8b bc 2b 3d 2c 3c 22 08 e6 3b 2c 12 15 3c
       -0.017067503 0.01051263 0.0070200125 0.009098571
000160 90 cd d8 bb a6 29 a3 3c 8b 3a 33 3c 88 db 2a 3c
       -0.006616302 0.01991732 0.010939251 0.010428317
000170 6e 63 1c bc bd f7 33 bc ab 32 36 3c 6f 45 e2 3c
       -0.00954519 -0.010984358 0.011120479 0.027621
000180 6b 7e b0 bc e8 36 0b 3d 72 47 f2 3c 18 19 af bc
       -0.021544656 0.03398791 0.029575083 -0.02137427
000190 0e bf 80 3c 22 3d d4 3c 37 62 df 3b e5 f1 5c 3c
       0.015716102 0.025908057 0.006817128 0.0134854065
0001a0 e6 76 86 bc dc 2f 17 bd 90 84 60 3c fe f5 a3 3c
       -0.016414117 -0.036910877 0.01370348 0.02001476
0001b0 08 91 10 3c ae 4c 5a 3c fa c9 73 bc d8 0f 55 bc
       0.008823641 0.013323946 -0.014879698 -0.013004266
0001c0 59 1f 2f bc 3e 73 c8 3c 0b 34 bf 3b 46 fe 80 bc
       -0.010688626 0.024469014 0.0058350614 -0.015746247
0001d0 c1 0f e2 3c 6d 90 dc bc 3c 62 d5 bc 58 62 e7 3b
       0.027595403 -0.026924336 -0.026047818 0.007061284
0001e0 32 b4 7c 3c 76 5c 0e 3d 60 65 40 bc 6a 6f 02 3d
       0.015423821 0.034756146 -0.01174292 0.031844534
0001f0 8b e8 1f 3d f1 5f ac 3c d2 40 78 bc 4d 15 4f 3c
       0.03904013 0.021041842 -0.015152173 0.012639356

conv1d_5/conv1d/ExpandDims_1 u1 [128, 1, 3, 128] scale=0.0018623996 zero_point=0
000000 ee f2 07 e9 1c eb c8 d1 dc dd da e4 2c 10 d0 e1
       0.4432511 0.4507007 0.013036798 0.4339391 0.05214719 0.4376639 0.37247992 0.38924152 0.40972793 0.4115903 0.40600312 0.42462713 0.08194558 0.029798394 0.3873791 0.4190399
000010 1a 0d 29 e2 df 27 11 d5 ef 16 f3 06 de 19 fe 19
       0.04842239 0.024211194 0.076358385 0.4209023 0.41531512 0.07263359 0.031660795 0.3966911 0.4451135 0.04097279 0.4525631 0.011174398 0.4134527 0.04655999 0.4730495 0.04655999
000020 db 29 eb dc fe 13 f6 e1 d1 e4 ed e9 d7 08 0a eb
       0.40786552 0.076358385 0.4376639 0.40972793 0.4730495 0.035385594 0.4581503 0.4190399 0.38924152 0.42462713 0.44138873 0.4339391 0.40041593 0.014899197 0.018623997 0.4376639
000030 05 e3 06 fb db e8 e9 ea e5 e6 f2 15 0e db ea ff
       0.009311998 0.42276472 0.011174398 0.4674623 0.40786552 0.43207672 0.4339391 0.4358015 0.4264895 0.4283519 0.4507007 0.039110392 0.026073596 0.40786552 0.4358015 0.4749119
000040 1e f7 01 dd 10 fd 09 e2 00 21 24 d2 09 eb ce d8
       0.05587199 0.4600127 0.0018623996 0.4115903 0.029798394 0.4711871 0.016761597 0.4209023 0.0 0.061459187 0.06704639 0.39110392 0.016761597 0.4376639 0.38365433 0.40227833
000050 12 19 1d ff 22 e9 10 d2 e6 0d e4 da 00 0c 1f 17
       0.033523194 0.04655999 0.05400959 0.4749119 0.06332159 0.4339391 0.029798394 0.39110392 0.4283519 0.024211194 0.42462713 0.40600312 0.0 0.022348795 0.05773439 0.04283519
000060 22 1e e8 1c 07 20 ee 0b d8 ec db 26 1c 17 25 1c
       0.06332159 0.05587199 0.43207672 0.05214719 0.013036798 0.05959679 0.4432511 0.020486396 0.40227833 0.43952632 0.40786552 0.07077119 0.05214719 0.04283519 0.06890879 0.05214719
000070 f2 16 f2 e0 1c f4 e1 25 13 e1 ef f7 15 da e2 01
       0.4507007 0.04097279 0.4507007 0.41717753 0.05214719 0.4544255 0.4190399 0.06890879 0.035385594 0.4190399 0.4451135 0.4600127 0.039110392 0.40600312 0.4209023 0.0018623996
000080 f9 10 d6 d5 dd e7 e2 02 28 de 2b fd fd 18 ef ce
       0.46373752 0.029798394 0.39855352 0.3966911 0.4115903 0.43021432 0.4209023 0.0037247993 0.074495986 0.4134527 0.080083184 0.4711871 0.4711871 0.04469759 0.4451135 0.38365433
000090 ee 14 f3 e9 0a f7 23 17 06 1b 20 e5 cd 1b 16 f5
       0.4432511 0.037247993 0.4525631 0.4339391 0.018623997 0.4600127 0.06518399 0.04283519 0.011174398 0.05028479 0.05959679 0.4264895 0.38179192 0.05028479 0.04097279 0.45628792
0000a0 08 f6 ef d7 f2 f9 0c 03 1f 17 f3 11 ea 11 dd 24
       0.014899197 0.4581503 0.4451135 0.40041593 0.4507007 0.46373752 0.022348795 0.005587199 0.05773439 0.04283519 0.4525631 0.031660795 0.4358015 0.031660795 0.4115903 0.06704639
0000b0 e4 26 11 e3 f9 0d 26 ff fa 01 1c fd ef f9 04 d4
       0.42462713 0.07077119 0.031660795 0.42276472 0.46373752 0.024211194 0.07077119 0.4749119 0.4655999 0.0018623996 0.05214719 0.4711871 0.4451135 0.46373752 0.0074495985 0.3948287
0000c0 20 e2 e9 1c fe d8 e7 e6 e0 df ea 1b fd dd 06 f7
       0.05959679 0.4209023 0.4339391 0.05214719 0.4730495 0.40227833 0.43021432 0.4283519 0.41717753 0.41531512 0.4358015 0.05028479 0.4711871 0.4115903 0.011174398 0.4600127
0000d0 c9 e9 03 09 f7 07 ca 08 f3 fa ea 0d d4 23 0a f2
       0.37434232 0.4339391 0.005587199 0.016761597 0.4600127 0.013036798 0.37620473 0.014899197 0.4525631 0.4655999 0.4358015 0.024211194 0.3948287 0.06518399 0.018623997 0.4507007
0000e0 f3 1b 18 0b f4 2a e2 16 eb 0d 20 04 e4 d3 e2 e6
       0.4525631 0.05028479 0.04469759 0.020486396 0.4544255 0.078220785 0.4209023 0.04097279 0.4376639 0.024211194 0.05959679 0.0074495985 0.42462713 0.39296633 0.4209023 0.4283519
0000f0 fc e6 27 22 ee 0a 0b 0d 23 0b 26 00 fb f8 fc f1
       0.4693247 0.4283519 0.07263359 0.06332159 0.4432511 0.018623997 0.020486396 0.024211194 0.06518399 0.020486396 0.07077119 0.0 0.4674623 0.4618751 0.4693247 0.44883832

dense/MatMul_bias f4 [64]
000000 c5 5f 9e bb 54 25 3e 3d ec f8 8e 3c 99 84 eb bb
       -0.004833194 0.046422318 0.01745268 -0.0071874377
000010 52 df cf bb 6a c8 c3 bc e6 3a da 3c c0 5d 0e bc
       -0.0063437605 -0.023899276 0.026639413 -0.008689344
000020 9d ce b2 bc 48 91 58 bb f8 d8 10 3d b6 a6 3d 3c
       -0.021827037 -0.0033045579 0.035363168 0.0115753915
000030 9a f8 14 3d 2c 89 5a bc 67 49 dc bb 06 8b 55 3d
       0.036369897 -0.013338368 -0.0067226174 0.052134536
000040 d4 85 91 3c 0f d0 e9 3c d2 5d 81 bc 2f ee a0 3c
       0.01776401 0.028541593 -0.015791807 0.019644825
000050 13 66 9f bc f6 fc 3b 3d 68 22 93 3c 50 9f 35 3d
       -0.019457852 0.04589554 0.017960742 0.044341385
000060 d2 b9 8f 3c 2b 20 e4 bc 77 80 d7 3c e4 3d ae 3c
       0.01754466 -0.02784737 0.026306374 0.021269746
000070 ac 32 34 3d ae af e6 3c 00 00 00 00 f7 7f e2 3c
       0.043993637 0.028159942 0.0 0.027648909
000080 f3 9e 0a bd a9 c4 c4 bb 08 55 d3 bc d2 46 fc 3c
       -0.033842992 -0.006004889 -0.025797382 0.030795489
000090 78 99 2f 3d 39 17 f9 3c dc 96 ec 3c 0a fe a1 3b
       0.04287097 0.030406581 0.02888053 0.004943614
0000a0 81 96 c2 3c 5f 09 38 3d 1f cc 1a 3d ad 38 98 bc
       0.023753406 0.044930812 0.03779232 -0.018581713
0000b0 d0 8e c8 bb 95 7c c3 3c d2 47 20 bc 7b 0e bc 3c
       -0.00612054 0.023863116 -0.009782748 0.022956124
0000c0 0e fd 0e bd b5 d4 4d bc 4d eb 93 bc 51 df a2 3c
       -0.0349093 -0.01256292 -0.018056536 0.019881876
0000d0 44 b3 15 3d a2 0e b3 3c 7a 3a ca bb 8e 14 f8 bc
       0.036547914 0.021857563 -0.0061715217 -0.030283239
0000e0 d1 16 22 3d c4 0d 1b 3d 1a 2a 3c 3d 84 ee ee 3c
       0.03957254 0.037854925 0.04593859 0.029166467
0000f0 bd 34 11 3d 67 0c 77 bc aa dd 3c 3d da 03 93 bc
       0.035450686 -0.015078641 0.046109833 -0.017946173

dense/kernel/transpose u1 [64, 128] scale=0.0019608075 zero_point=0
000000 c9 34 38 2a 05 e6 41 f7 1e 5a 15 f5 b0 e9 e4 0a
       0.3941223 0.101961985 0.10980522 0.08235391 0.009804037 0.45098573 0.1274525 0.48431945 0.058824226 0.17647268 0.041176956 0.48039782 0.34510213 0.45686814 0.4470641 0.019608075
000010 c2 24 43 2d 66 dc 07 50 d7 23 ec de 20 e6 30 f0
       0.38039666 0.070589066 0.1313741 0.08823634 0.20000236 0.43137765 0.013725652 0.1568646 0.4215736 0.06862826 0.46275055 0.43529925 0.06274584 0.45098573 0.09411876 0.4705938
000020 04 f6 fd 10 00 28 63 6a f2 c2 ba 4f 5b cf 3f ee
       0.00784323 0.48235863 0.4960843 0.03137292 0.0 0.0784323 0.19411995 0.2078456 0.4745154 0.38039666 0.36471018 0.15490378 0.17843348 0.40588716 0.12353087 0.46667218
000030 67 cd 1a f5 f8 bc d4 40 3f 10 3c fb 5a 19 39 ce
       0.20196317 0.40196553 0.050980993 0.48039782 0.48628026 0.3686318 0.4156912 0.12549168 0.12353087 0.03137292 0.11764845 0.49216267 0.17647268 0.049020186 0.111766025 0.40392634
000040 18 fd 2d f3 00 d8 12 ef 16 fd 5c e4 fc 58 2c c7
       0.04705938 0.4960843 0.08823634 0.47647622 0.0 0.42353442 0.035294533 0.468633 0.043137766 0.4960843 0.18039429 0.4470641 0.4941235 0.17255107 0.08627553 0.39020067
000050 cc 0d c7 da 25 49 36 c9 08 f4 20 57 37 1c 0a c5
       0.4000047 0.025490496 0.39020067 0.42745602 0.07254988 0.14313895 0.105883606 0.3941223 0.01568646 0.47843704 0.06274584 0.17059025 0.10784441 0.05490261 0.019608075 0.38627908
000060 e0 d1 2a 3e d9 0c 56 00 e8 04 56 66 c6 46 52 4b
       0.43922088 0.40980875 0.08235391 0.121570066 0.42549524 0.02352969 0.16862944 0.0 0.45490733 0.00784323 0.16862944 0.20000236 0.3882399 0.13725652 0.16078621 0.14706056
000070 4a d6 c7 2c de d0 2a cd 20 cb 03 f2 b5 1c 1a 1f
       0.14509976 0.4196128 0.39020067 0.08627553 0.43529925 0.40784794 0.08235391 0.40196553 0.06274584 0.39804393 0.0058824224 0.4745154 0.35490614 0.05490261 0.050980993 0.060785033
000080 57 e8 c0 16 0f 16 df b0 cc 52 ef f0 34 a0 1a db
       0.17059025 0.45490733 0.37647504 0.043137766 0.029412113 0.043137766 0.43726006 0.34510213 0.4000047 0.16078621 0.468633 0.4705938 0.101961985 0.3137292 0.050980993 0.42941684
000090 4d 07 2c e6 33 13 c3 0c 16 1e b4 f9 cc ac 04 bb
       0.15098217 0.013725652 0.08627553 0.45098573 0.10000118 0.037255343 0.38235745 0.02352969 0.043137766 0.058824226 0.35294536 0.48824108 0.4000047 0.33725888 0.00784323 0.366671
0000a0 21 e9 e6 16 2d 4d be 03 0a 2c 48 13 c8 0d 14 ae
       0.064706646 0.45686814 0.45098573 0.043137766 0.08823634 0.15098217 0.3725534 0.0058824224 0.019608075 0.08627553 0.14117813 0.037255343 0.3921615 0.025490496 0.03921615 0.3411805
0000b0 4e 3c cf 43 ae d1 41 f7 12 08 04 a7 f6 bd 38 7b
       0.15294299 0.11764845 0.40588716 0.1313741 0.3411805 0.40980875 0.1274525 0.48431945 0.035294533 0.01568646 0.00784323 0.32745484 0.48235863 0.37059262 0.10980522 0.24117932
0000c0 df e2 55 35 04 e9 13 e6 30 48 ee c4 38 2b 17 e7
       0.43726006 0.4431425 0.16666864 0.1039228 0.00784323 0.45686814 0.037255343 0.45098573 0.09411876 0.14117813 0.46667218 0.38431826 0.10980522 0.08431472 0.045098573 0.4529465
0000d0 c8 15 c8 47 b6 df c6 30 de cc ff 32 47 26 23 52
       0.3921615 0.041176956 0.3921615 0.13921733 0.35686696 0.43726006 0.3882399 0.09411876 0.43529925 0.4000047 0.5000059 0.09804037 0.13921733 0.074510686 0.06862826 0.16078621
0000e0 cb 3b 3b 18 25 03 10 26 fd 33 53 2d 3c 01 21 43
       0.39804393 0.11568764 0.11568764 0.04705938 0.07254988 0.0058824224 0.03137292 0.074510686 0.4960843 0.10000118 0.16274703 0.08823634 0.11764845 0.0019608075 0.064706646 0.1313741
0000f0 f8 26 33 52 18 33 39 ee 0b 4b 62 2b 35 30 97 38
       0.48628026 0.074510686 0.10000118 0.16078621 0.04705938 0.10000118 0.111766025 0.46667218 0.021568883 0.14706056 0.19215913 0.08431472 0.1039228 0.09411876 0.29608193 0.10980522

dense_1/MatMul_bias f4 [1028]
000000 f6 f9 5f 3b a8 4d b9 3c 5a 45 45 3c a8 be 90 3c
       0.0034176088 0.022620037 0.0120404605 0.017669037
000010 1f 41 96 bc 00 00 00 00 9a 69 9a bc 67 39 20 3c
       -0.018341599 0.0 -0.018849183 0.009779311
000020 d2 83 0f bd d3 f5 16 3d 8a 97 04 bd bb 6e 95 bc
       -0.035037823 0.03685553 -0.03237108 -0.018241277
000030 37 c4 c4 bb 6d 60 64 3c 3d 76 cc bb 04 ed d3 3c
       -0.006004836 0.013939005 -0.006239681 0.025869854
000040 87 fb e8 bc 8f 8a da 3c a6 7a 3d 3c 38 d5 65 3b
       -0.02844025 0.026677398 0.011564886 0.0035069715
000050 10 75 ca 3b 5b 97 fc bc fe da bb 3c 78 6a d9 3c
       0.0061785057 -0.03083389 0.022931572 0.026540026
000060 64 00 84 bb 4f a5 cf 3b bf 0f ca 3c cb 4d ac 3c
       -0.004028367 0.006336845 0.024665711 0.021033188
000070 7f c6 01 bc 4b a2 3a bc ba 18 d2 3c 7d 93 99 3c
       -0.00792086 -0.011391233 0.025646556 0.018747086
000080 ef b5 bf 3c 92 d6 08 3d bb 9f a9 3c 29 a8 06 bc
       0.023402182 0.033407755 0.020706048 -0.008218803
000090 6a 85 bb bb 07 ac d9 bb 9d d4 d4 3c ac f5 c1 3c
       -0.0057226913 -0.0066428217 0.025980288 0.023676716
0000a0 66 3c d7 bb 4d ae ee 3c 79 08 f6 3c 00 00 00 00
       -0.0065684794 0.029135847 0.030033337 0.0
0000b0 00 00 00 00 5a 22 c3 3c 0c c2 23 bc a0 25 81 3c
       0.0 0.023820091 -0.009994995 0.015765011
0000c0 e2 c2 12 3d af 22 f4 3c b0 d5 10 bc 7a 23 9d bb
       0.035830386 0.029801695 -0.00884001 -0.004795489
0000d0 d1 86 2c 3c 00 00 00 00 fd 1c 50 3b 97 06 5f 3c
       0.01053019 0.0 0.003175556 0.013612411
0000e0 93 6f 7b 3c d0 0f 93 bc a9 b3 ff 3c c8 f7 56 3c
       0.015346426 -0.017951876 0.031213598 0.013120599
0000f0 bd 02 ce bc a0 13 0c 3b e6 ed 4e bc bd 3e 51 3c
       -0.02514779 0.0021374002 -0.012629962 0.012771306
000100 5e 26 a7 3c 32 16 a9 bb c9 ea 04 bd 38 df e0 3c
       0.020404037 -0.0051601166 -0.03245047 0.027450189
000110 d7 ba a4 3c 00 00 00 00 88 6a 0c 3d f9 b5 da 3b
       0.020108623 0.0 0.034281284 0.006674525
000120 1d 8a 1c bc 2b 8e ef 3c d0 ed d8 3c 00 44 20 bc
       -0.009554413 0.029242596 0.026480585 -0.009781837
000130 1c 43 99 3c ac ef f4 3c 20 1a 97 3c 82 bb f0 3c
       0.018708758 0.02989944 0.018445075 0.029386286
000140 4c 6d 94 3c 27 18 01 3d 59 70 52 3c 71 86 b5 bb
       0.018118523 0.031517174 0.012844169 -0.0055397083
000150 08 05 84 3c 1c 15 80 3b ed b1 b9 bc 5d 7c 74 3c
       0.01611568 0.0039087664 -0.02266785 0.014922229
000160 3c 3f c4 bc b6 2b ba 3c b3 29 21 bc 96 26 3e 3c
       -0.023955934 0.022725921 -0.009836602 0.011605879
000170 48 aa 06 3d a1 66 36 bc c6 c7 db bc 7a bf 95 bc
       0.032877237 -0.011132867 -0.026828658 -0.01827978
000180 3c f8 78 bc fb 57 0d bd 6b 05 ce 3c 48 ef db 3c
       -0.015195902 -0.034507733 0.025149068 0.026847497
000190 ec 45 4a bc f2 cd 5f 3c 80 31 c1 3c 19 36 eb 3c
       -0.012345772 0.013659941 0.023583174 0.02871232
0001a0 f6 de 77 bc 9c 16 ac 3c 6f 81 cf 3c c4 8f 02 bc
       -0.015128842 0.021006875 0.025330273 -0.007968847
0001b0 24 05 41 3c c3 9b a8 3a e2 b9 b3 3c ae 0f 7a bc
       0.011781011 0.0012863803 0.021939222 -0.015262527
0001c0 0f 70 bd 3c c7 ac 5a bc be e9 a1 3c 86 52 09 3d
       0.023124723 -0.013346857 0.019764777 0.033525966
0001d0 8c 20 80 bc 07 c2 37 bb 95 8b a4 bc 10 18 b1 3c
       -0.01564052 -0.0028039233 -0.02008609 0.02161792
0001e0 63 01 0d bc b5 0b 8f bc 30 93 b0 3c 89 c0 e9 bc
       -0.008606288 -0.017461637 0.02155456 -0.02853419
0001f0 00 00 00 00 4b 6e 01 3d 6e fd d0 3b 71 21 0d bc
       0.0 0.031599324 0.0063778674 -0.00861393
000200 c3 57 9a 3c c7 c9 93 3c ee 8f b1 3a d9 60 2f 3c
       0.018840676 0.01804055 0.0013546923 0.010704243
000210 77 37 2e 3c b4 1a 94 3c 6d 1f e4 bc 22 64 0a 3d
       0.010633341 0.01807914 -0.027847016 0.0337869
000220 0a 86 4d bc 95 53 0b 3d 39 7b 09 3d 57 72 b9 3c
       -0.012544164 0.034015257 0.03356478 0.02263753
000230 5d 4c 02 3d 85 f8 8f 3c 7b f2 b7 3c cb 6f 0c 3c
       0.031811107 0.017574558 0.02245449 0.008571575
000240 2f 8a 8a 3c 1f ed f3 3c 12 83 7e 3c 44 74 1a 3d
       0.016911594 0.029776154 0.015534179 0.037708536
000250 95 7c 2e 3c 39 fa 0c bc 76 be c4 bb fc 2f d5 3c
       0.01064982 -0.00860458 -0.00600415 0.026023857
000260 1f 6f b9 3c 3d d5 c4 3c ef ea 24 bc 35 38 fa 3c
       0.022635994 0.024027461 -0.010065778 0.03054438
000270 bb b8 41 bc f3 69 2a bc 3e 54 eb bb 52 e0 8d 3c
       -0.011823828 -0.010401237 -0.0071816733 0.017318878
000280 39 35 d8 3c c6 07 f5 3b e8 4f 1f bd c2 9e 82 3c
       0.026392566 0.0074777333 -0.038894564 0.015944842
000290 b6 40 3a bc a3 d8 29 bd ee 33 91 3c 1b 7f 47 3c
       -0.011367967 -0.041466366 0.017724957 0.0121763
0002a0 e0 26 1b bc 38 68 c7 3c 3a b2 06 bc 9d 73 b1 3c
       -0.009469718 0.024341688 -0.008221203 0.021661574
0002b0 9c 65 88 3c 45 89 d1 3c fa c0 cc 3c e4 b2 b4 bb
       0.016650014 0.02557815 0.024994362 -0.0055144895
0002c0 66 04 d2 3b 73 9e 0e bc 34 c1 85 bc f4 00 5b b9
       0.0064092157 -0.008704769 -0.016327478 -0.00020885823
0002d0 00 00 00 00 57 67 87 3c 4c cd 06 bd 49 b7 e8 3c
       0.0 0.016528768 -0.03291063 0.02840771
0002e0 51 6f e8 bc 67 d3 a9 bc ff 94 e8 3c 00 00 00 00
       -0.028373392 -0.020730687 0.02839136 0.0
0002f0 e1 5c cb 3c e4 75 f5 3c 20 c1 c4 bb 40 d8 b5 bc
       0.024824562 0.029963441 -0.0060044676 -0.022197843
000300 5f 1e 0f 3d 41 cc ef 3c ac 21 7d 3c 03 ba 83 3c
       0.034941074 0.0292722 0.0154499225 0.016079908
000310 8f 68 56 3b b5 ec cc bc e3 1c 0a bc 0a ce 46 3c
       0.003271613 -0.025015214 -0.008429739 0.0121340845
000320 a2 55 10 bc 40 49 ab 3c 8c c0 2c 3d 7a 42 48 bc
       -0.008809479 0.020908952 0.042175815 -0.0122228805
000330 2f 89 29 3c cf b0 04 3d a9 c7 3b 3c 1f 54 a4 3c
       0.0103476485 0.03239518 0.011461177 0.020059643
000340 06 4a c7 bb 6a 34 96 3c 14 5c 71 bc a0 3e 61 3c
       -0.0060818223 0.01833554 -0.014731426 0.013747841
000350 89 51 cd bb 32 f4 26 3d 00 00 00 00 a4 a1 0a bc
       -0.0062658233 0.040760227 0.0 -0.00846139
000360 a5 c9 91 bc b4 7c 06 3d ce 1d 4e bb ca 09 82 3c
       -0.017796347 0.03283377 -0.003145087 0.015873808
000370 39 f8 ea bc d4 cb 99 3c 3f f4 7c bc e0 5e c2 3c
       -0.028682815 0.01877395 -0.015439092 0.02372688
000380 e4 68 0f bc 45 cf 24 bc c9 68 3a bc 8d eb 84 3c
       -0.008753035 -0.0100591825 -0.011377522 0.0162256
000390 65 22 23 3d b5 0c b7 3c c6 08 db bb 38 2b be 3c
       0.039827723 0.022344926 -0.0066843955 0.023213968
0003a0 54 43 d2 3b f1 6d e0 3c 94 50 11 bc 29 9c f8 3c
       0.0064167175 0.027396174 -0.008869309 0.0303479
0003b0 37 d4 b8 3c 28 02 00 3c 1f 99 49 bb da 97 b4 39
       0.02256213 0.007813014 -0.0030761433 0.00034445414
0003c0 63 25 d1 bb 3c 16 ba 3c 4c 01 aa 3c 94 73 9a 3c
       -0.0063826307 0.02271568 0.020752572 0.01885394
0003d0 86 a7 cf 3c 23 96 c3 3b f2 c3 0b bc ae 90 aa 3c
       0.025348436 0.0059688254 -0.008530604 0.020820942
0003e0 4c 62 69 bc 35 43 02 3d 81 34 81 bc a4 7b f4 bc
       -0.014244627 0.031802375 -0.015772106 -0.029844113
0003f0 80 3a 0a 3c 7b 58 3c 3c f6 ec 30 3c a3 40 30 bc
       0.008436799 0.011495705 0.010798683 -0.010757598

dense_1/kernel/transpose u1 [1028, 64] scale=0.0050645065 zero_point=0
000000 f9 08 f6 ef 06 09 fe fa 0d f0 0c 09 09 f3 09 15
       1.2610621 0.040516052 1.2458686 1.210417 0.03038704 0.04558056 1.2863847 1.2661266 0.06583858 1.2154815 0.06077408 0.04558056 0.04558056 1.2306751 0.04558056 0.10635464
000010 0a 08 fe f4 fe 0e 06 f6 f5 f7 0a 09 0f fd 0d 00
       0.050645065 0.040516052 1.2863847 1.2357396 1.2863847 0.07090309 0.03038704 1.2458686 1.2408041 1.2509332 0.050645065 0.04558056 0.075967595 1.2813202 0.06583858 0.0
000020 09 04 02 11 fe fe 04 f2 0d 01 0e 0d 0c fb 09 04
       0.04558056 0.020258026 0.010129013 0.086096615 1.2863847 1.2863847 0.020258026 1.2256106 0.06583858 0.0050645065 0.07090309 0.06583858 0.06077408 1.2711911 0.04558056 0.020258026
000030 08 0d ef fe f6 f0 00 02 fd 0d 0e 0f 14 0c fa f4
       0.040516052 0.06583858 1.210417 1.2863847 1.2458686 1.2154815 0.0 0.010129013 1.2813202 0.06583858 0.07090309 0.075967595 0.10129013 0.06077408 1.2661266 1.2357396
000040 f5 01 f6 0b fe f8 05 f5 ff f7 fe 10 fa fa fe fd
       1.2408041 0.0050645065 1.2458686 0.05570957 1.2863847 1.2559977 0.025322532 1.2408041 1.2914492 1.2509332 1.2863847 0.081032105 1.2661266 1.2661266 1.2863847 1.2813202
000050 fc 0e f5 fd 09 11 07 fb fc 09 0f fd 05 06 fc 08
       1.2762556 0.07090309 1.2408041 1.2813202 0.04558056 0.086096615 0.035451546 1.2711911 1.2762556 0.04558056 0.075967595 1.2813202 0.025322532 0.03038704 1.2762556 0.040516052
000060 f7 02 fc 06 05 f7 f8 ff f5 0f 04 f9 07 f7 fa f4
       1.2509332 0.010129013 1.2762556 0.03038704 0.025322532 1.2509332 1.2559977 1.2914492 1.2408041 0.075967595 0.020258026 1.2610621 0.035451546 1.2509332 1.2661266 1.2357396
000070 f9 f6 f4 04 fd 0c 09 f5 0b ff 0a 05 09 0c f8 fe
       1.2610621 1.2458686 1.2357396 0.020258026 1.2813202 0.06077408 0.04558056 1.2408041 0.05570957 1.2914492 0.050645065 0.025322532 0.04558056 0.06077408 1.2559977 1.2863847
000080 02 05 f1 fa f8 f9 10 f7 f9 0a 02 f9 03 0f f7 14
       0.010129013 0.025322532 1.2205461 1.2661266 1.2559977 1.2610621 0.081032105 1.2509332 1.2610621 0.050645065 0.010129013 1.2610621 0.01519352 0.075967595 1.2509332 0.10129013
000090 03 0c f4 01 10 fb 0a f8 f4 fd 10 00 0b ff 01 03
       0.01519352 0.06077408 1.2357396 0.0050645065 0.081032105 1.2711911 0.050645065 1.2559977 1.2357396 1.2813202 0.081032105 0.0 0.05570957 1.2914492 0.0050645065 0.01519352
0000a0 02 03 ff 14 02 00 ff fd 00 0c fa 0c 04 fc 05 ff
       0.010129013 0.01519352 1.2914492 0.10129013 0.010129013 0.0 1.2914492 1.2813202 0.0 0.06077408 1.2661266 0.06077408 0.020258026 1.2762556 0.025322532 1.2914492
0000b0 f6 08 f9 09 05 04 0a 09 0e fe fe 05 01 03 f8 0c
       1.2458686 0.040516052 1.2610621 0.04558056 0.025322532 0.020258026 0.050645065 0.04558056 0.07090309 1.2863847 1.2863847 0.025322532 0.0050645065 0.01519352 1.2559977 0.06077408
0000c0 07 f1 02 f2 07 04 f3 04 0a 0b f0 fc f5 f8 08 fe
       0.035451546 1.2205461 0.010129013 1.2256106 0.035451546 0.020258026 1.2306751 0.020258026 0.050645065 0.05570957 1.2154815 1.2762556 1.2408041 1.2559977 0.040516052 1.2863847
0000d0 14 fd 08 ff 0b ec f0 06 f5 08 00 fd ec 0a f3 fd
       0.10129013 1.2813202 0.040516052 1.2914492 0.05570957 1.1952236 1.2154815 0.03038704 1.2408041 0.040516052 0.0 1.2813202 1.1952236 0.050645065 1.2306751 1.2813202
0000e0 fc 08 ee 04 fb f9 09 12 03 f8 0f f9 f3 f4 07 03
       1.2762556 0.040516052 1.2053525 0.020258026 1.2711911 1.2610621 0.04558056 0.09116112 0.01519352 1.2559977 0.075967595 1.2610621 1.2306751 1.2357396 0.035451546 0.01519352
0000f0 04 fe 00 02 01 f4 09 0f 02 f5 ef ff 0a 0b 0a f1
       0.020258026 1.2863847 0.0 0.010129013 0.0050645065 1.2357396 0.04558056 0.075967595 0.010129013 1.2408041 1.210417 1.2914492 0.050645065 0.05570957 0.050645065 1.2205461

dense_2/MatMul_bias f4 [2]
000000 9a f6 5a 3c 9f dd 5a bc
       0.013364458 -0.013358503
